models/adult_ERM_mlp_s0.pth (torch, 45925 bytes, 5 tensors)

g.0.weight f4 [100, 6]
00000000: 4af4 f5be 2721 d6bd 9c1c fcbe 7449 1bbe
00000010: 9439 84bf 4a24 d4bf 1e36 f23d 37bb 5bbf
00000020: 873c a4be b0f5 213e ecb8 c6be 3484 64be
00000030: e34c e5bd c941 4abf 493b f93e dd32 ae3e
00000040: b4e9 423f c770 14be 272e a2bf 85c0 c5bd
00000050: 9030 25be b444 e93e 7d8a 1fbf 2269 023f
00000060: 0fb0 1cbf 77cd 1a3e ec3a 283f 5095 dcbf
00000070: 83e7 b5be e0ed aa3d 38de 123e fccd 85bd
00000080: 8fae 44bf b3e3 82bf eca0 bdbf 6132 52c0
00000090: 3f81 81bf 8ee6 443e 9084 6ebe 759f e43b
000000a0: c7c8 c5be aebf a73e 3c91 403f 4435 dbbe
000000b0: 6d58 993e 5eee b53d 7ede ce3e 6dbc c2be
000000c0: 0e27 a9be bac7 28be 289b c13e fc1a d13f
000000d0: 947f 543f cfe1 eb3d 0b0f 7a3f c3a7 56bf
000000e0: 64b6 5cbd 6564 9dbf 563d 6dbf ca1e 40bf
000000f0: 46b4 6b3f 71fc 07bf 61db 14bf 23eb 5ebb
00000100: 9aaa 803e a224 09be dbc7 873e 5a14 adbe
00000110: 84ab 233e 024c c13f d132 94bf 6752 e83d
00000120: 2fe5 c63f cbeb 63be b8f2 d33f b593 673e
00000130: 8fc5 e33e 96fb a63e 1b18 9f3d 841c 67be
00000140: 5000 82be 4055 bf3f 44b1 073f c5ac 56be
00000150: 51e4 983e c4da 043f 313c 5ebe 2cf5 18bf
00000160: 8d5f 053e d851 1bbf 5c40 b03e eeb3 cfbd
00000170: 935a 0f3e 5773 9e3e a52f 9ebf 210d fcbd
00000180: 26a4 953f 69c6 5bbe ece9 d4be a32a 60bf
00000190: d911 0f3e 5e36 06bf a228 953e e847 81be
000001a0: 9825 173e 629c de3e 9649 90bf 4506 56bf
000001b0: 9cb4 823d 19a6 01bf 057a c6be a1af a83e
000001c0: 2eb1 2fbf 7a9c 2e3f e9b3 553f cf9f aabe
000001d0: 4a21 123e 6206 8fbe 5d24 9d3e dc4d e9be
000001e0: 404f 2c3d b282 8ebd d937 3ebe 40dd 12be
000001f0: 9cc2 4dbe e526 bdbd dfbd 2bbf 62ce 4abf
00000200: 22db 563e dc67 b0bf 98b1 ebbe dfe6 e03d
00000210: cf61 b0bf ab43 033f 4cd0 ec3e 8ed1 2e3e
00000220: 7d5f 09be 4469 823e d692 90be e679 c53f
00000230: 6f2e 3f3f 020e 663f af91 4d3e 8ea0 7b3d
00000240: 6e23 d5bf 8370 45bf 053c 893f fee6 4abe
00000250: 8134 a1be 0177 b1bf f4c4 2cbe debf 4fbf
00000260: 1e6e 8b3e fb96 9e3f 2f73 c7bd 63eb 06bf
00000270: efa4 233f a0ad 7bbe 61be 81be 3235 80bf
00000280: fb47 14bf 9265 49be 404c 3bbf c103 eabe
00000290: 96af 70be a8e0 073f 9e4e 6cbe 7681 88bd
000002a0: 2b6a 7abf 6180 093e a266 4a3f 9ecb 2c3e
000002b0: 4e7b fd3e 8bb5 a9bd a91f 92bf cde7 703f
000002c0: 1f09 833e 6040 5dbe 49a5 603f 73e6 5ebe
000002d0: 49a4 753e be4e fd3e 83fe a9be 4c90 383b
000002e0: c625 0ebe bdd1 a83e f7aa ecbe 63a5 b9be
000002f0: 9b08 45bd 221e 813f e2f1 333f 2e42 013e
00000300: a974 303e c7cd fe3e 7343 623e 656a a93c
00000310: 277b 56be 4314 b53d 226a a6bf dd5f 8c3d
00000320: 0264 50be cc31 e83e 5320 cfbe 448d 093f
00000330: 7f98 adbe f2df c63f 6585 23be 9ad4 af3f
00000340: a1d5 d43e 9492 bc3b 8d42 713c 9170 8a3d
00000350: f67d 943e 109f ac3e 7a9f 1f3e 5f09 073e
00000360: 9cc4 a3bd ac61 753e aa28 223f 9fb8 053f
00000370: 3b7e bfbc 0832 623e 97d1 363f 9b3e 73bf
00000380: 0f22 eebe 3318 073f 4689 8bbe 039d 6dbe
00000390: 2872 ec3e 4070 bdbd a0f5 163f 12d3 a03f
000003a0: 11d1 c9be 636c 0740 6fb2 2f3f 5553 6dbe
000003b0: 3ee6 8d3e 1dbd 8cbf ea1d 60bf 21ee 443e
000003c0: 3bbb d33e 26a5 bb3f 3f67 4d3d 2c36 b03e
000003d0: 6955 7f3e 5467 16bf 45a3 8c3f ba53 c9be
000003e0: 9140 40be a202 fabe 00dd eebe 6849 e8be
000003f0: 0c79 6d3f fcb3 9cbe 1e69 87be 40f6 16bf
-0.4803794 -0.10455542 -0.49240577 -0.15164739 -1.0330071 -1.6573575 0.11826728 -0.8583254
-0.3207743 0.15816379 -0.3881296 -0.22316056 -0.111963056 -0.7900663 0.48678043 0.3402318
0.7613785 -0.14496146 -1.2670335 -0.09655861 -0.16131806 0.4556023 -0.6232069 0.5094167
-0.61206144 0.15117441 0.6571491 -1.7233067 -0.35528192 0.08346152 0.14342582 -0.06533429
-0.76828855 -1.0225738 -1.4814734 -3.284325 -1.0117568 0.19228575 -0.23292756 0.0069770166
-0.38629743 0.32763427 0.7522161 -0.42814076 0.29950276 0.088833556 0.40404123 -0.38034382
-0.3303761 -0.1648244 0.37813687 1.633636 0.8300717 0.11517679 0.97679204 -0.83849734
-0.05388488 -1.2296263 -0.92671716 -0.7504698 0.9207195 -0.5311957 -0.58147246 -0.0034014664
0.2513016 -0.1339288 0.26519665 -0.3380459 0.15983397 1.5101321 -1.1578008 0.11343842
1.5538691 -0.22257917 1.6558447 0.2261494 0.44486663 0.3261382 0.0776827 -0.22569472
-0.25390863 1.4947891 0.5300486 -0.20964344 0.29861692 0.5189631 -0.21702649 -0.597491
0.13024731 -0.6067176 0.34424102 -0.10141741 0.13999395 0.30947372 -1.235829 -0.12307192
1.1690719 -0.21462406 -0.41584718 -0.8756506 0.13971652 -0.5242671 0.29132563 -0.25250173
0.14760435 0.43478686 -1.1272457 -0.83603317 0.06382105 -0.5064407 -0.3876497 0.32946494
-0.6862973 0.68207514 0.83477646 -0.3332505 0.14270511 -0.27934557 0.30691805 -0.45567214
0.042067766 -0.06958522 -0.18575992 -0.14342213 -0.20093769 -0.09235934 -0.67086595 -0.79221165
0.2098203 -1.3781695 -0.4603393 0.10981535 -1.3779849 0.5127513 0.46252668 0.17072126
-0.13415332 0.25470936 -0.28237027 1.5427825 0.7468023 0.89865124 0.20075105 0.061432414
-1.6651437 -0.77124804 1.0721442 -0.19814679 -0.3148537 -1.3864442 -0.16872007 -0.8115214
0.2723245 1.2389826 -0.097387664 -0.5270292 0.63923544 -0.24577951 -0.2534056 -1.0016234
-0.57922333 -0.19667652 -0.73163223 -0.4570599 -0.2350448 0.53077173 -0.23076865 -0.06665318
-0.9781825 0.13427879 0.79062855 0.16874549 0.49508137 -0.0828658 -1.1415912 0.941037
0.25592896 -0.21606588 0.87752205 -0.21767597 0.23988451 0.49474138 -0.3320199 0.002816218
-0.13881597 0.32972518 -0.46224186 -0.36258993 -0.04810391 1.0087321 0.7029096 0.12622902
0.17232002 0.4976637 0.22096042 0.020680616 -0.20945416 0.08841755 -1.3001139 0.06854222
-0.2035065 0.45350492 -0.4045435 0.5373118 -0.33905408 1.5537093 -0.15968855 1.3736756
0.41569236 0.005754778 0.01472534 0.067597516 0.2900235 0.33715105 0.15588179 0.13187169
-0.07996485 0.2396304 0.633433 0.52234834 -0.023375621 0.22089398 0.7141356 -0.95017403
-0.4651036 0.527713 -0.2725317 -0.23204426 0.46180844 -0.092499256 0.58968544 1.2564414
-0.39417318 2.1159904 0.68631643 -0.2317632 0.27714723 -1.0995213 -0.87545645 0.19231464
0.41353783 1.4659774 0.05014729 0.3441633 0.24934925 -0.58751416 1.0987326 -0.3932169
-0.1877463 -0.48830134 -0.46652985 -0.45368505 0.9276283 -0.30606067 -0.26447386 -0.589695

g.0.bias f4 [100]
00000000: c7a2 2ebf 362d e3be 2f98 95bf 4ab6 b03e
00000010: f019 043d 220f d83b 7b71 3b3f d923 51be
00000020: b83c 30bf b117 c7bd fd4e d9be efab 23bf
00000030: 951c df3f e735 46bf 93af d13e 9aa7 de3f
00000040: f428 c43e e758 7b3f 0426 c33e 5637 9d3e
00000050: da1b 49be 7488 4d3f 1e82 7b3e 6520 73bf
00000060: 4dbb d63d 309e 7bbf cab0 803f cd55 07bf
00000070: 1719 7ebf 38e6 ccbe b38a 9a3e 9e11 0bbe
00000080: 5d67 413f 2f59 9c3d f856 073f 25e6 23bf
00000090: 8182 4cbf ad5a 4dbf e976 cdbe 040d 4a3f
000000a0: 11bd 1dbf 413d 413e 82f2 233f 7892 c1be
000000b0: fb0b 99bf d2bd 963f d90a 0fbf 853d 713f
000000c0: f3f3 93bf 51d5 743e 3fd9 783f fd0e cabe
000000d0: c109 703f 28b7 75bf 5201 8d3d 3833 a7be
000000e0: 54c1 3c3f e2ee b0bd 3439 ecbe 587d 643e
000000f0: acfc 0abf b899 42bd 57bc d73e 8e02 7bbf
00000100: a4b2 773f e999 543f 203b 1b3e 3d0d c73e
00000110: 4709 60be 607c f03e 7b48 abbf 6c1b 12bf
00000120: 01c4 a53c 64ab 3cbe 230a 0b3f e903 9c3f
00000130: de02 f93d 6b9f f3bc 2cda 233f fa02 52bf
00000140: 41f3 dc3e fd0c c1be 74a9 b63d 56da d8be
00000150: ef89 193f 186c 363f e57a 65be 7460 debf
00000160: be52 cf3f d81f a9bd 38f1 513f 5d07 b2be
00000170: 5dab 4f3f 881c a03f 8ed9 4d3b 55e5 c6bf
00000180: 2221 a13f d6ef 9fbf 6587 673f 0c66 3b3d
-0.6821713 -0.4437043 -1.1687068 0.34514076 0.0322513 0.006593601 0.7322003 -0.20423831
-0.6884265 -0.09721316 -0.42443076 -0.63934225 1.7430598 -0.77426 0.40954265 1.7394898
0.38312495 0.9818253 0.3811494 0.3070628 -0.19639531 0.80286336 0.24561355 -0.94971305
0.104849435 -0.9828825 1.0053952 -0.52865297 -0.99257034 -0.40019393 0.30183944 -0.13580939
0.75548345 0.07634198 0.5286708 -0.6402305 -0.79886633 -0.80216485 -0.40129784 0.7892611
-0.6161662 0.18871023 0.6404191 -0.3780706 -1.1956781 1.1776679 -0.5587593 0.94234496
-1.1558822 0.23909499 0.9720649 -0.3946456 0.93764883 -0.959826 0.068850175 -0.32656264
0.73732495 -0.08639313 -0.46137393 0.2231344 -0.54291797 -0.04750988 0.4213588 -0.98050773
0.9675696 0.8304735 0.15159273 0.38877288 -0.21878539 0.4696989 -1.3381494 -0.5707309
0.020235064 -0.18424755 0.5431234 1.2188693 0.1215875 -0.029739102 0.6400478 -0.8203579
0.43154338 -0.37705222 0.08919039 -0.42354077 0.59976095 0.7125869 -0.22410162 -1.7373185
1.6197126 -0.08258027 0.82008696 -0.34771243 0.81120855 1.2508707 0.003141019 -1.5538737
1.2588236 -1.2495067 0.9044097 0.045751616

g.2.weight f4 [100, 100]
00000000: 20eb 5a3e 45a8 97be 89ed 33be d82a 01bb
00000010: 9ffe 263f 0fe4 7f3f 89b7 8b3e ba88 99be
00000020: b2c0 afbf 2288 8d3f 9e87 a7be 4fce 9bbf
00000030: 11ff 9f3d ee7c 37bf 3cac cc3e 2675 51be
00000040: 46bd 9e3e 17fc 04be db16 d13e cf5d 543c
00000050: 48c8 443e 95c5 9c3f 37dd 9dbd e002 80bf
00000060: cba9 623e 0b37 5bbf 7ea2 a73f face c8be
00000070: b020 24bf 56fc cabc 47e1 6fbd 8d34 dabe
00000080: 977e 933e 9bc6 9b3e a4fa abbf fc07 0bbf
00000090: 7881 5dbf ece8 c4be 8cdd a6bf cf37 fc3e
000000a0: 66e0 e2be 392d 3b3f 1ddc 4a3f 0113 cabe
000000b0: e062 a03d 2d40 3a3f 2a6d ddbc d8ac 7abe
000000c0: 2b29 08bf 0e2a 023f d36e b93e f926 043f
000000d0: 6531 4c3f f923 043e c3b0 59bf fa34 5dbf
000000e0: eec1 da3e 7ab2 6a3e b41f c3bf 5cd0 b93e
000000f0: d878 08bf 6453 383f f779 ef3d f79b 5abe
00000100: cd9a 70bf 6591 8c3f b38e 6dbf 0a3d 163f
00000110: 1404 ffbe 5ca0 71be 35a4 b6be 9b87 b7be
00000120: 709c 153f 81e0 973f e7c7 d3be 1570 81be
00000130: ea41 553e ef2e 97be af40 9b3e 6e57 b5be
00000140: 9d5e 6dbe 5d31 b13e 693c d13e 34e5 f0be
00000150: cf24 b13e 4f81 173f 2aa6 28bf 8837 a83e
00000160: 437e 60bd 3d27 ef3e 35e4 8f3f 796c 42bf
00000170: 85b2 7f3f b306 843f 213c 8b3d 6159 21be
00000180: bed5 303e 1074 0a3e 0f5a 1e3f 0287 48bf
00000190: 2b88 a43e 32d0 e8be fed2 be3d 394c a73e
000001a0: f051 b23f e377 b1bd 16aa f83e f6e2 8abe
000001b0: 2fd9 aabe c829 b13c b003 ccbf 831d d6be
000001c0: 952c 9ebe 1257 90bf d7e2 24bf 9753 8fbd
000001d0: b879 12bf cc96 5dbd 404b ff3d c04f 77be
000001e0: 16a2 42bd 5e9c 7a3f 496f 623f bedf eabe
000001f0: 6014 043f 3c4d 17bf 8480 c73e 08e7 eabe
00000200: 7134 623e afbd a3bd a226 963d 6222 e4be
00000210: da55 15bf da59 a53e 2f90 c9be 68c7 113f
00000220: 9a28 ad3e f6ae 31bf 31a8 b5bd e3ab 403f
00000230: 0fbf 63bf 7ba5 04be 2424 8f3e 1d37 45be
00000240: 45ea 3bbf dfb0 9bbe fe5d 9cbe e6d3 e03e
00000250: fbe5 2bbf 97dd 853f 1dd5 d9be 9e64 a93e
00000260: 058f 043f 12c2 d5bd 0365 a5bd 9631 e83e
00000270: 55f1 1e3e 2c03 7bbf c3ba e6be 6b8b 2cbf
00000280: 295b 3cbe ddd3 a73e c2b3 2bbc dcd5 993e
00000290: 4382 40bd 871c 4a3f 072e 7dbf 75d7 253f
000002a0: 1cb2 d2be d7ce e3be b7d8 20bf 09da b0bf
000002b0: 970b 08bf 2a02 383e 2262 753d 47fd 1cbe
000002c0: 78db f43b a55c 563f 561b db3d c2be 3abf
000002d0: d66d 5dbe 97f3 03be b52c 133f 68df 22bf
000002e0: efcd 873e 250d 27be fcfa 3f3f e3c3 d2bd
000002f0: e667 acbd 7e3e f33e 9b98 233e 99a6 8c3d
00000300: b228 73bd 2cae ad3e e496 6e3e d1a2 253f
00000310: d5fa d6be be74 a53e 7e5b 283f 50f8 b7be
00000320: 1fc7 2fbf bb8b 8abe 070c 51bf 8a6c c03e
00000330: 17af 61bf 3a1c 54be f3e8 bf3d 3f80 dcbe
00000340: 06c5 3b3d 2534 b2be 60d4 6e3e da9b 1c3f
00000350: 7dea 403f 55ae 2b3f 43f0 3a3f f965 643f
00000360: 73bb aeba 79a2 243f 6c19 f93d a2c8 8bbe
00000370: 5b68 8b3e 6854 afbf 383a 04bf 537f a13f
00000380: 5e04 5dbf 331e aebe 70ff 0d3c 29a5 16be
00000390: c22b 04bf 8580 623d e926 763e 7137 12be
000003a0: eeec 943f 4298 833d ab76 6d3f 4947 8fbd
000003b0: f6c4 50bd a943 a8be 8dfa dd3e 1d94 38be
000003c0: a4ed 9c3f e6df adbd d546 f1bd 6e14 15bf
000003d0: 4a88 393e 502e 90be 20c7 5dbe 5a47 ea3d
000003e0: c7e5 6ebc 3deb abbf 1bc9 be3c e3cc cdbf
000003f0: fc4d 3ebf 8d47 41bf 272c 4c3f 4de3 29be
0.21378756 -0.29620567 -0.17571081 -0.0019709375 0.6523227 0.99957365 0.27288464 -0.29987127
-1.3730681 1.105717 -0.32720655 -1.2172335 0.07812322 -0.71675 0.39975154 -0.20454845
0.3100378 -0.1298679 0.4083775 0.012961819 0.19217026 1.2247797 -0.07708209 -1.0000877
0.22135083 -0.85630864 1.3096464 -0.3922041 -0.6411238 -0.024778526 -0.05856445 -0.42618218
0.28807518 0.3042496 -1.3435864 -0.5430906 -0.8652568 -0.38458955 -1.3036361 0.4926133
-0.44311827 0.7311588 0.79242116 -0.39467624 0.07831359 0.72754174 -0.027029593 -0.24479997
-0.5318782 0.5084542 0.36217365 0.5162197 0.7976287 0.12904347 -0.8503534 -0.8640896
0.42726082 0.22919646 -1.524405 0.36291778 -0.5330939 0.72002244 0.11693185 -0.21348558
-0.9398621 1.0981871 -0.92795867 0.5868689 -0.498078 -0.23596328 -0.35672155 -0.35845646
0.5844183 1.1865388 -0.4136345 -0.25280824 0.20825925 -0.29527995 0.30322787 -0.35418266
-0.23180623 0.34607974 0.40866402 -0.47049868 0.34598395 0.59181684 -0.65878546 0.32854867
-0.054807913 0.46709624 1.1241518 -0.75946766 0.99881774 1.0314544 0.06798578 -0.15756752
0.17269036 0.13520837 0.6185617 -0.78331006 0.32135138 -0.4547134 0.09317587 0.3267534
1.3931255 -0.08665445 0.48567265 -0.27126282 -0.33368823 0.021626368 -1.5938625 -0.4181939
-0.30893388 -1.1276572 -0.6440863 -0.06998365 -0.5721698 -0.05409889 0.12465525 -0.24151516
-0.04751786 0.9789485 0.8845106 -0.45873827 0.5159359 -0.59102225 0.38965237 -0.45879388
0.22090317 -0.07995164 0.073315874 -0.44557482 -0.58334124 0.32295114 -0.39367816 0.56944895
0.3382004 -0.69407594 -0.088699706 0.7526228 -0.8896341 -0.12953751 0.2795726 -0.19259305
-0.7340434 -0.3040838 -0.3054046 0.43911666 -0.671478 1.0458249 -0.42545405 0.33084577
0.5178073 -0.104374066 -0.08075907 0.4535033 0.15521748 -0.98051715 -0.45064363 -0.67400235
-0.1839415 0.32778826 -0.010479869 0.30045974 -0.046999227 0.7894978 -0.9889836 0.64781886
-0.41151512 -0.44493744 -0.6283068 -1.3816539 -0.53142685 0.17969576 0.05990804 -0.15330993
0.007472452 0.83735114 0.10698573 -0.72947323 -0.2162393 -0.12885891 0.5749009 -0.6362214
0.26524302 -0.16313608 0.74992347 -0.10291269 -0.084182546 0.47508615 0.15976183 0.068677135
-0.059364982 0.33921945 0.23299748 0.64701563 -0.41988245 0.3231563 0.65764606 -0.35931635
-0.6866321 -0.2705973 -0.8165898 0.3758281 -0.8815779 -0.20713893 0.093706034 -0.43066594
0.045842193 -0.34805408 0.23323202 0.6117531 0.753578 0.67062885 0.7302286 0.892181
-0.0013331011 0.64310414 0.12163052 -0.27301508 0.27228054 -1.3697634 -0.51651335 1.2616981
-0.8633479 -0.34007415 0.008666858 -0.14711441 -0.5162927 0.055298347 0.2403828 -0.14278962
1.1634805 0.06425525 0.927592 -0.069960184 -0.050969087 -0.3286412 0.43355218 -0.1802525
1.2260022 -0.08489971 -0.11781088 -0.582343 0.18118396 -0.28160334 -0.21657991 0.114393905
-0.01458115 -1.3431164 0.023289254 -1.6078151 -0.74337745 -0.754998 0.7975487 -0.16590615

g.2.bias f4 [100]
00000000: 27a4 9d3e ff1a e4be 0a98 293f b930 a03f
00000010: 78f7 833f d63a 97be d68d 223d 1b00 9a3f
00000020: 68af c1bf 07ee 18bf ec8e 743d 175a 483f
00000030: 8de9 23bf 24a8 92bf e5ad 913f c6b4 893f
00000040: 6f07 39bf 15f1 e3be 3ffe 73bf 30fa 15bf
00000050: 1de2 7cbe c221 c83f 7f50 2ebf 74ce 87bc
00000060: 1ba5 b8bf 2287 59be 6396 c63e d24e 8ebf
00000070: 167a 163d f837 9e3e 38b3 743f e68c c53e
00000080: cc6a efbe 58d4 b63e caea 3abf 0482 c9bf
00000090: cf4c 3d3f 379d 80be 7335 e1bf 3cf7 363e
000000a0: 656f 55bd 8f50 60bf 2049 0b3e 0ba9 f9bc
000000b0: 0c13 41bf 55f4 68bf de36 07bf 4d00 7a3f
000000c0: a2bf 8e3e 448c 403f 2904 7a3d 2da3 61bf
000000d0: d441 e2bd 755b 48bf d5bd 6cbd 3916 d5bf
000000e0: 7363 7cbf 1af6 79be 6d27 5fbf 4368 083e
000000f0: 4f05 f7bc 828e d83f c56d e63e 6fa1 bebe
00000100: b6f1 3e3f a7c1 d53e e6db d9be 53b1 84bf
00000110: 50c4 8e3d 5d8f 3cbf 2e49 473d fb2e 403b
00000120: 566b 3dbf ef9b 7c3f 8acc 33bf 26db 263f
00000130: 0011 343f d0a2 a7be 152a d73e dd16 493e
00000140: c56e 0ebf 01ff 2d3e b785 9cbf 44d7 17bd
00000150: e69c babe 80f4 eb3c 7b26 64be b9fc b0bd
00000160: f0a6 5e3c 801b 333f b48d 24be a577 c53e
00000170: ca88 913e 9df9 97be 2552 82be b829 a33d
00000180: f8ef 0abe a3c4 40bf 6ec9 c0bf 3770 ddbe
0.307893 -0.44551846 0.6624762 1.2514869 1.0309896 -0.29537076 0.039686047 1.2031282
-1.5131655 -0.597382 0.059706613 0.78262466 -0.64028245 -1.1457562 1.1381193 1.0758293
-0.7227697 -0.44519868 -0.95309824 -0.5858488 -0.2469563 1.5635302 -0.6809158 -0.016577937
-1.4425386 -0.21242955 0.3878661 -1.1117804 0.036737524 0.30902076 0.95585966 0.3858406
-0.46761167 0.3570888 -0.7301451 -1.5742803 0.73945326 -0.25119945 -1.7594436 0.1786775
-0.052108187 -0.8762292 0.13602114 -0.030476114 -0.7541969 -0.9099782 -0.52818096 0.9765671
0.2788058 0.7521403 0.061039124 -0.8813961 -0.11047712 -0.7826455 -0.057798225 -1.6647407
-0.9858925 -0.24410287 -0.87169534 0.13321023 -0.030153899 1.691849 0.45005623 -0.3723254
0.7458757 0.41749308 -0.42550582 -1.0366615 0.069710374 -0.73656255 0.048653774 0.0029324878
-0.73991907 0.98675436 -0.70233977 0.65178144 0.7033844 -0.32741404 0.42024294 0.19637628
-0.5563777 0.16991808 -1.2228307 -0.037070528 -0.3644783 0.02880311 -0.22280304 -0.08641953
0.013589606 0.69963837 -0.1606968 0.38567844 0.28424674 -0.29682627 -0.25453296 0.079669416
-0.13568103 -0.75300044 -1.5061471 -0.43249676

g.4.weight f4 [1, 100]
00000000: 09bf 42bc 1524 07bd d8c9 e13c f2d1 80bc
00000010: 11d4 8c3e c2fd 8dbd d07a 4ebd d3c8 9dbe
00000020: acbe 8b3e d48e fabc 0a07 4e3c b48d bfbd
00000030: 4018 02be fb2c 513e d39a 94bd cc94 f2bd
00000040: 57dc 1d3d 943b e13d 7054 f4bd 396b ccbc
00000050: 0206 27ba f229 f2bd 2608 27bd 5422 ea3c
00000060: 1a5a 5f3e ff2f 16bd 25b8 283e 1bfd 673d
00000070: 9cd3 85bd 9b8b cabb 6646 5fbd 607d 5c3c
00000080: 7532 753d d6fb 1a3d 08a8 48bd ea76 803e
00000090: 577c cabc 6249 ccbd d66a ba3e b10d cabd
000000a0: 2a57 c8bd cca9 8abe 99a6 3c3d 0b2a 57bd
000000b0: f341 f53b 794e 2bbb a3bf 303c 859f 913d
000000c0: 6683 9c3d ec9c fd3c 0c7a 833d 179e e13d
000000d0: da64 e13c c04a b43c 109d a23d 4f2e 953e
000000e0: 80cd a7ba 6362 cbbd 239c 96be 590b 77bc
000000f0: 70c8 923d 6573 93be 8d20 d13b 8fa2 72bb
00000100: bd98 ab3c a22e 35bd 7d19 e6bd 16b0 3f3d
00000110: efcd 58bb 1544 8b3d bda0 c43c 4e73 7cbe
00000120: d9ce 81bd 3961 47bc 2cad 24bd 291c 50bd
00000130: 5062 95bc 2541 073c d93c c3bd f297 dfbd
00000140: 8a08 94bc 433f ef3c adde 623d 83e8 d33c
00000150: 60ce cfbb a847 cdbd 55e9 8dbd 1318 6bbd
00000160: 3b66 62bd 6750 643e 05cd c53c 34d3 b33d
00000170: 69fa 523e ac3d 4c3d e5d0 fd3c 48e3 4e3d
00000180: eada 7c3c f3d3 1d3d 76df 963e 56f5 273d
-0.011886367 -0.032993395 0.027562067 -0.01572511 0.27505544 -0.06933166 -0.050410092 -0.3081728
0.2729391 -0.030585684 0.01257492 -0.093531996 -0.12704563 0.20427315 -0.07256093 -0.11844787
0.03854021 0.10997692 -0.11930168 -0.024953471 -0.00063714397 -0.11824407 -0.040779255 0.028580822
0.21811715 -0.036666866 0.16476496 0.056637865 -0.06534502 -0.006181193 -0.054510497 0.013457626
0.059862573 0.037837826 -0.048988372 0.25090724 -0.024717493 -0.09974934 0.36409634 -0.09865893
-0.0978225 -0.2708267 0.046057317 -0.05253033 0.0074846684 -0.0026139303 0.010787877 0.07110504
0.0764225 0.030958615 0.06419763 0.11016481 0.02751391 0.0220083 0.079401135 0.29136893
-0.0012802333 -0.09930875 -0.29415998 -0.015078389 0.07167137 -0.28798977 0.006382054 -0.0037023162
0.020946855 -0.044233926 -0.1123533 0.046798788 -0.003308173 0.06800095 0.024002427 -0.2465336
-0.06338281 -0.012169176 -0.040204212 -0.050808106 -0.018235356 0.008255278 -0.0953309 -0.10917653
-0.018070478 0.02920497 0.05538814 0.025867706 -0.0063417405 -0.10023433 -0.0692927 -0.057396006
-0.055273276 0.22296296 0.024145612 0.08780518 0.20603336 0.049863502 0.030983398 0.05050972
0.015433053 0.03853221 0.29467362 0.041005455
