models/adult_AF_mlp_s3.pth (torch, 44325 bytes, 5 tensors)

g.0.weight f4 [100, 2]
-0.43533796 -0.3550733 -0.08910072 -1.8488331 0.0015139754 0.21607864 1.3689126 -0.045612354
-0.2766259 -0.112611614 0.083510004 -0.3275345 -0.8560681 0.047759622 -2.3490922 0.041402627
-0.749536 0.1723391 -0.023652311 -0.07294285 0.24414417 -0.18884069 0.5742198 -0.24713825
-0.9004669 -0.3048649 0.04143975 0.11142086 -0.53895885 -0.044824272 -0.35255927 -0.09668466
0.02763015 -0.08208474 -0.09408587 0.026203193 0.014890083 -1.8079937 0.026127478 0.15319283
0.19912261 -0.02887391 -0.10453418 -0.16871707 -0.02148644 0.2367976 -0.61557007 0.10889552
0.43568602 1.618371 0.010822202 0.09260285 -0.048660327 1.8252115 0.097717464 0.2264995
-0.10279654 -0.042983647 0.75758106 -0.07708529 -0.09837481 0.054189358 -0.83954483 -0.0048503913
-0.2752545 0.0028992821 0.071932435 0.18039195 0.023872226 -0.010177443 0.6086077 1.8112736
-0.04485143 0.16184911 0.106948465 0.1835412 0.35551858 1.130229 0.03206 -0.14432973
0.036718883 0.10018175 -0.8153671 0.14118387 0.9061742 -0.15911677 -0.16235118 -0.49781546
0.0035529244 -0.11080442 -0.022022896 0.16468635 -0.22297886 0.30155987 -0.28385514 0.05737652
-0.028819464 -0.0894888 -0.048779126 0.22952493 0.027777113 0.015389152 0.3454123 -0.11919475
0.37989223 0.109092936 -0.039220802 -0.055083543 -0.109199554 0.17770085 0.20267665 -0.10110768
-0.8539036 -0.2983719 -0.31616664 -0.0059717232 0.6865439 1.80073 0.035076953 0.19509214
0.17166105 -0.2186095 -2.1244292 0.017465409 0.026565501 0.14191426 -0.1882519 0.24136722
0.16823925 0.023425516 0.9864117 -0.023043891 0.04855027 -0.21004024 -0.051339313 0.03617403
-0.05650655 0.3220998 -0.5004424 0.15970512 0.024310805 0.13814424 0.049138293 -0.3375904
-0.043251 -0.24636424 0.36521548 -2.1708186 0.05413498 1.9432365 -0.0019442793 0.034849856
0.035005692 1.6871395 0.83719033 -0.13034332 -0.064179644 -0.0012116905 -0.046304516 -0.03509159
-2.3105996 0.07522534 0.19200207 -0.19098295 -0.3934682 -1.0361058 0.68641627 -0.14290206
0.02798451 -0.03449733 -0.060308978 -0.03248694 -0.19486639 -0.14317647 -0.3366325 0.16730094
0.049777362 0.20095922 -0.06904178 0.28692934 -0.007819794 0.10234074 0.42553857 1.0879388
-0.0062860018 -0.012791678 0.17356974 -0.19440751 -0.9409439 0.057208523 -0.046582647 -0.20895162
0.046093974 0.12520239 0.036361087 -0.03183805 -0.030894626 0.05042513 -0.008698745 0.2976374
00000000: 9ee4 debe 2bcc b5be 707a b6bd 90a6 ecbf
00000010: 9670 c63a b843 5d3e 8738 af3f 05d4 3abd
00000020: e9a1 8dbe eba0 e6bd 4b07 ab3d 9ab2 a7be
00000030: 4727 5bbf 989f 433d 8757 16c0 cd95 293d
00000040: 97e1 3fbf a979 303e 7ec2 c1bc 1063 95bd
00000050: ee00 7a3e 745f 41be 1200 133f cf11 7dbe
00000060: 0085 66bf 4117 9cbe babc 293d 9f30 e43d
00000070: 35f9 09bf a899 37bd a682 b4be 9b02 c6bd
00000080: a058 e23c 0b1c a8bd 18b0 c0bd 14a8 d63c
00000090: 89f5 733c 566c e7bf 4b09 d63c 95de 1c3e
000000a0: cce6 4b3e fa88 ecbc 0416 d6bd 2bc4 2cbe
000000b0: 5504 b0bc 127b 723e 0096 1dbf 9d04 df3d
000000c0: 3d12 df3e c826 cf3f 9b4f 313c 90a6 bd3d
000000d0: 0d50 47bd 88a0 e93f 1820 c83d 7cef 673e
000000e0: fe86 d2bd 9f0f 30bd d5f0 413f e4de 9dbd
000000f0: bb78 c9bd a9f5 5d3d 69ec 56bf 08f0 9ebb
00000100: 28ee 8cbe e201 3e3b 5051 933d abb8 383e
00000110: b08f c33c 4abf 26bc b7cd 1b3f d0d7 e73f
00000120: 22b6 37bd c6bb 253e cc07 db3d 39f2 3b3e
00000130: 8806 b63e 58ab 903f 5951 033d 2ccb 13be
00000140: 8a66 163d 172c cd3d e6bb 50bf 8192 103e
00000150: 08fb 673f 82ef 22be 633f 26be abe1 febe
00000160: 2ed8 683b 6eed e2bd 5c69 b4bc 8aa3 283e
00000170: 9254 64be 0e66 9a3e 7655 91be a403 6b3d
00000180: cc16 ecbc e745 b7bd 9fcc 47bd 9508 6b3e
00000190: d48c e33c c822 7c3c e2d9 b03e 611c f4bd
000001a0: 3c81 c23e 1e6c df3d fea5 20bd 489f 61bd
000001b0: 04a4 dfbd 36f7 353e 788a 4f3e 8b11 cfbd
000001c0: 6d99 5abf 34c4 98be 98e0 a1be 72ae c3bb
000001d0: 57c1 2f3f 527e e63f daac 0f3d 3cc6 473e
000001e0: eac7 2f3e 2bdb 5fbe a6f6 07c0 9e13 8f3c
000001f0: e59f d93c f951 113e 1bc5 40be f828 773e
00000200: e946 2c3e dee6 bf3c 7a85 7c3f 8bc6 bcbc
00000210: a6dc 463d ca14 57be 2c49 52bd 382b 143d
00000220: 6a73 67bd 44ea a43e fe1c 00bf bd89 233e
00000230: 7427 c73c af75 0d3e 3c45 493d a6d8 acbe
00000240: f627 31bd e846 7cbe 86fd ba3e b1ee 0ac0
00000250: a4bc 5d3d f9bb f83f 30d7 feba b9be 0e3d
00000260: 2162 0f3d 30f4 d73f 1b52 563f b878 05be
00000270: 9e70 83bd 96d1 9eba cea9 3dbd 33bc 0fbd
00000280: dde0 13c0 be0f 9a3d 319c 443e 0991 43be
00000290: aa74 c9be 1d9f 84bf fab8 2f3f eb54 12be
000002a0: c53f e53c 134d 0dbd 8c06 77bd 0711 05bd
000002b0: 0e8b 47be da9c 12be 185b acbe f050 2b3e
000002c0: 59e3 4b3d 41c8 4d3e c765 8dbd 67e8 923e
000002d0: 981e 00bc 0698 d13d 31e0 d93e 9441 8b3f
000002e0: cefa cdbb 3094 51bc 44bc 313e c312 47be
000002f0: b3e1 70bf 7c53 6a3d 72cd 3ebd 6af7 55be
00000300: 09cd 3c3d 0e35 003e 5def 143d 9d68 02bd
00000310: ba16 fdbc 958a 4e3d 2e85 0ebc ee63 983e

g.0.bias f4 [100]
-0.26197857 0.3053243 -0.026709134 0.48999685 -0.1299734 0.115728326 0.9952742 -0.7592448
0.7547178 -0.034668714 -0.28995365 -0.4722682 0.9943569 -0.033318557 -0.33798343 -0.19734819
0.017480751 -0.07325952 0.04820785 0.042240545 0.13457039 0.04578187 -0.08097514 0.6183426
0.6507868 0.01779803 -0.041607723 0.015273774 -0.074233025 -0.9679334 0.03405872 0.9319595
0.1999932 0.023611734 -0.0029011194 0.7766881 -0.09064263 0.03796162 0.21857382 0.05791786
0.06275318 0.8644328 -0.99028283 0.05580854 0.018742329 0.13253915 -0.15402485 -0.1173654
-0.020096816 -0.1448699 0.048374325 0.20555581 0.22603822 -0.061375067 0.0026744842 -0.20005323
0.9506761 0.26977554 0.61898875 -0.048238162 0.100767866 -0.67756873 -0.021040704 -0.1086005
-0.051172934 -1.1989443 0.017058834 0.032238744 -0.09723888 0.4065623 -0.03407378 0.14592329
-0.032217115 -0.24225351 -0.2630527 0.07341048 -0.12443211 -0.9371191 -0.021457477 -0.031500753
-0.58545655 0.1447161 -0.08436451 -0.758805 0.06921166 -0.071731575 -0.15272735 -0.19267747
-0.017086646 -0.032215748 -0.035831034 0.23585802 -0.015846083 0.15362509 1.111948 0.040275898
-0.017558103 0.018288344 -0.028279813 -0.124027066
00000000: 0e22 86be 7753 9c3e 1dcd dabc dee0 fa3e
00000010: bf17 05be f902 ed3d 4aca 7e3f de5d 42bf
00000020: 3035 413f c800 0ebd ce74 94be 23cd f1be
00000030: 2c8e 7e3f 0a79 08bd 2a0c adbe a515 4abe
00000040: cb33 8f3c 1609 96bd 9875 453d 6c04 2d3d
00000050: d2cc 093e c585 3b3d 4bd6 a5bd b34b 1e3f
00000060: f799 263f 2dcd 913c dc6c 2abd da3e 7a3c
00000070: 7c07 98bd 7cca 77bf 2881 0b3d e694 6e3f
00000080: 04cb 4c3e 656d c13c b520 3ebb 08d5 463f
00000090: d8a2 b9bd a57d 1b3d d1d1 5f3e 473b 6d3d
000000a0: bd84 803d 784b 5d3f 2d83 7dbf 7f97 643d
000000b0: 8389 993c 58b8 073e b1b8 1dbe 455d f0bd
000000c0: 14a2 a4bc c658 14be 2824 463d 397d 523e
000000d0: 9076 673e 6c64 7bbd 6646 2f3b c1da 4cbe
000000e0: 825f 733f 0520 8a3e 0c76 1e3f 6195 45bd
000000f0: 625f ce3d 2575 2dbf 8e5d acbc f069 debd
00000100: b69a 51bd 0277 99bf f8be 8b3c c60c 043d
00000110: 2e25 c7bd ef28 d03e f390 0bbd ea6c 153e
00000120: 18f6 03bd 4e11 78be d8ae 86be 3c58 963d
00000130: 43d6 febd 0ae7 6fbf 97c7 afbc ef06 01bd
00000140: 7be0 15bf 7530 143e 4dc7 acbd 0b41 42bf
00000150: d8be 8d3d 01e8 92bd 8f64 1cbe 3e4d 45be
00000160: 4bf9 8bbc a9f4 03bd 90c3 12bd c484 713e
00000170: a5cf 81bc e54f 1d3e 5054 8e3f 57f8 243d
00000180: 03d6 8fbc 70d1 953c 11ab e7bc e701 febd

g.2.weight f4 [100, 100]
0.4930795 1.0435365 0.10018594 -0.396994 0.48000368 0.24725577 0.2947692 0.21773073
0.28741482 -0.17611988 -0.26667526 -0.3514742 0.67687994 0.27311966 0.3098838 0.518815
-0.13488944 0.3492422 1.0781395 0.27851018 -0.376113 0.17148207 -0.34219286 0.2834618
-0.9255343 0.093576685 -1.0378361 -0.55429983 0.34155005 -0.3250745 -0.040087428 0.45172977
0.43433106 0.34223714 -0.058575384 -0.8930549 -0.13654462 -0.5232506 -1.0048612 0.3141659
0.209401 0.24598598 -0.3077012 0.3233176 0.4485371 0.22455911 0.29945078 0.7100047
0.15081853 -0.21106493 0.20142514 -0.585368 -0.6320584 0.0073584197 0.15997046 -0.4280816
0.6448743 0.43386763 -1.1361215 -0.5517495 -0.29397595 0.34118822 0.08489731 -0.07037843
-0.2296171 -0.37770784 -0.24472483 0.48031285 -0.10894349 0.49452597 0.026842682 0.46730825
0.17268471 0.9264262 -1.1501125 0.24847892 -1.1081554 -0.3261317 -0.21445306 0.309007
0.15675277 0.27458397 0.9588549 -0.32606068 -0.02832756 -0.28187186 0.2556153 0.30611062
0.25014955 -0.3349477 -0.16620114 -0.9970277 -0.18925151 0.3853168 0.39712495 -0.25943914
-0.04810627 -0.14336826 -0.02893452 0.30176866 1.1986899 -0.1656339 -0.32692862 -0.010209101
0.5612093 0.1164953 -0.260885 -0.31633452 -0.5400742 -0.0045155385 0.5242945 0.6339181
-0.07278179 -0.16709606 0.8738238 0.43630287 -0.3093616 -0.11558167 0.24648228 -0.5520564
-0.56062406 0.19238734 -0.21274768 -0.20126002 -2.0309277 0.03543476 -0.2135406 -0.21385254
0.3765555 0.4421681 0.22369927 -0.0775206 -0.057669815 -0.22762091 -0.17857291 -2.4989703
-0.32480276 -0.16145487 -1.2720491 0.25273305 0.346655 -0.25299147 0.42942303 0.5168708
0.17820561 -0.5355609 0.5652627 0.51341975 0.23239368 -0.59890103 0.19632344 -0.49286747
-0.5031307 0.055773508 0.51774335 0.12834366 -0.05159925 -0.038301386 -2.1458342 -0.14879805
-0.39114457 -0.09465321 -0.17524596 0.40792927 -0.61036146 0.20724882 -0.32825294 0.4729057
0.028315917 -0.35565463 -0.10792797 0.10944818 -0.025382506 0.854384 0.086105734 0.21200927
-0.09897291 0.4462883 -0.07835437 0.32286114 -0.36595842 -0.22042613 1.0710413 0.43878525
0.27796552 0.15987895 0.38889566 0.54082906 -0.04897667 0.28388813 -0.03150911 -1.4657177
-0.25315455 -0.329562 -0.19598372 0.17946868 -0.25404346 -0.007988989 -0.1748192 0.25683329
-1.4940559 -0.32564884 0.12194627 0.62493753 -0.0559124 0.117899455 0.10727163 -0.44186917
0.16255647 0.116063684 -0.042294297 -0.19030505 -0.18283801 -0.12477665 -1.3061486 -0.16798136
-0.079254955 -0.3210582 -0.647554 -0.01575473 0.19279996 -0.50512755 -0.32367215 -0.113718644
1.9214985 0.0074473736 0.7116134 0.005779936 -0.19060467 -0.18158734 0.012382958 0.043779742
-0.3201352 0.093791515 0.34493914 3.2234213 -0.20677304 0.21920992 1.6212969 0.21538165
-0.28777555 0.1547063 -0.27332795 -0.5799323 -0.15257314 -0.0024219127 -0.11882605 -0.03151649
0.13177548 -0.29730988 -0.022962214 -0.02955785 0.17230666 -0.12357563 -0.01580302 0.20576482
00000000: eb74 fc3e 9b92 853f 492e cd3d cc42 cbbe
00000010: 0bc3 f53e 9e30 7d3e fdeb 963e cef4 5e3e
00000020: 0928 933e c558 34be a989 88be 6df4 b3be
00000030: 0148 2d3f 57d6 8b3e 17a9 9e3e 0fd1 043f
00000040: 7520 0abe e0cf b23e 7a00 8a3f e398 8e3e
00000050: e291 c0be ff98 2f3e e733 afbe e821 913e
00000060: d1ef 6cbf 22a5 bf3d d0d7 84bf 98e6 0dbf
00000070: a6df ae3e 2a70 a6be b732 24bd 2049 e73e
00000080: a460 de3e b539 af3e beec 6fbd 3f9f 64bf
00000090: 5ad2 0bbe c0f3 05bf 4b9f 80bf 5ada a03e
000000a0: 376d 563e c0e3 7b3e 038b 9dbe e289 a53e
000000b0: a8a6 e53e d3f2 653e 9d51 993e dec2 353f
000000c0: 2c70 1a3e 6821 58be 6442 4e3e adda 15bf
000000d0: 94ce 21bf e61e f13b 4ccf 233e 832d dbbe
000000e0: 7b16 253f e623 de3e 6e6c 91bf 753f 0dbf
000000f0: 0484 96be 39b0 ae3e a4de ad3d 9122 90bd
00000100: bf20 6bbe ec62 c1be 2599 7abe 91eb f53e
00000110: c41d dfbd 8232 fd3e 2fe5 db3c 0743 ef3e
00000120: 43d4 303e 442a 6d3f e336 93bf 4271 7e3e
00000130: 09d8 8dbf bcfa a6be 9599 5bbe 2a36 9e3e
00000140: cc83 203e 4596 8c3e 8477 753f 6df1 a6be
00000150: 330f e8bc 8251 90be 02e0 823e 88ba 9c3e
00000160: 9a13 803e 447e abbe a230 2abe 353d 7fbf
00000170: 26cb 41be 3e48 c53e f653 cb3e 35d5 84be
00000180: 150b 45bd 21cf 12be 1608 edbc 6c81 9a3e
00000190: ac6e 993f ef9b 29be 3063 a7be 1344 27bc
000001a0: 6aab 0f3f 1695 ee3d b892 85be 99f6 a1be
000001b0: 4e42 0abf 15f7 93bb 2a38 063f 7548 223f
000001c0: 9e0e 95bd 3b1b 2bbe ebb2 5f3f 1763 df3e
000001d0: a564 9ebe 15b6 ecbd da65 7c3e 9153 0dbf
000001e0: 0f85 0fbf 3001 453e 87da 59be 1b17 4ebe
000001f0: b8fa 01c0 0a24 113d 63aa 5abe 29fc 5abe
00000200: e2cb c03e db63 e23e 6c11 653e 1fc3 9ebd
00000210: 2f37 6cbd 7515 69be d1db 36be 21ef 1fc0
00000220: 8c4c a6be 6d54 25be 81d2 a2bf 3a66 813e
00000230: c47c b13e 1988 81be 56dd db3e a551 043f
00000240: 887b 363e 851a 09bf 0eb5 103f 7a6f 033f
00000250: 9cf8 6d3e 9451 19bf 0309 493e 2059 fcbe
00000260: 2ccd 00bf c372 643d d48a 043f 856c 033e
00000270: bc59 53bd eae1 1cbd 5955 09c0 845e 18be
00000280: 1a44 c8be 8bd9 c1bd ad73 33be 1bdc d03e
00000290: a640 1cbf 0939 543e c510 a8be b220 f23e
000002a0: c8f6 e73c 5d18 b6be 5709 ddbd 5e26 e03d
000002b0: f9ee cfbc e9b8 5a3f 3458 b03d f518 593e
000002c0: 4fb2 cabd e67f e43e 4278 a0bd 0e4e a53e
000002d0: e75e bbbe 63b7 61be e217 893f 76a8 e03e
000002e0: 7f51 8e3e 4fb7 233e 551d c73e c673 0a3f
000002f0: c39b 48bd c959 913e b20f 01bd a39c bbbf
00000300: 799d 81be 5abc a8be f5af 48be a3c6 373e
00000310: fc11 82be 40e4 02bc ce03 33be a77f 833e
00000320: 393d bfbf 72bb a6be f7be f93d e8fb 1f3f
00000330: 6704 65bd 4575 f13d 3ab1 db3d ad3c e2be
00000340: 3475 263e ccb2 ed3d c93c 2dbd 54df 42be
00000350: e339 3bbe e68a ffbd e12f a7bf 4e03 2cbe
00000360: 6c50 a2bd be61 a4be 19c6 25bf 1010 81bc
00000370: 5a6d 453e 0a50 01bf 5bb8 a5be 52e5 e8bd
00000380: aaf3 f53f 1909 f43b 4c2c 363f 9e65 bd3b
00000390: df2d 43be 08f2 39be e4e1 4a3c 6352 333d
000003a0: c3e8 a3be c415 c03d dd9b b03e 894c 4e40
000003b0: 50bc 53be 9178 603e a886 cf3f 028d 5c3e
000003c0: 5157 93be 546b 1e3e a4f1 8bbe 7176 14bf
000003d0: 223c 1cbe f4b8 1ebb 125b f3bd 6f17 01bd
000003e0: 27f0 063e 0039 98be 411b bcbc 4e23 f2bc
000003f0: 2871 303e 3815 fdbd 5675 81bc 03b4 523e

g.2.bias f4 [100]
-0.053186603 -0.945647 0.29232323 -0.25992066 -0.08247751 -0.33007118 0.01374021 0.106903
-0.01566187 0.032390717 0.11556954 1.1687812 0.73505956 -0.3523504 1.319414 -0.25159305
-0.32830814 0.07655167 -0.30584586 -0.33551246 0.014130305 -0.12836678 0.27646923 -0.6887084
-0.6246502 0.44814843 -0.27215663 -0.3357237 0.56802934 0.4701005 2.5874767 -0.0032598756
-0.0779037 0.18529189 0.17021006 -0.09988812 0.15554544 -0.046990395 -0.056812778 0.5673944
-1.12906 0.46024165 -0.059885416 1.5225829 0.29540774 -0.001347085 -0.11298961 -0.273282
-0.17971523 0.28780478 0.25690022 -0.35510808 -0.07625701 -1.5122083 -0.100583255 0.5996196
0.4201818 0.25806767 -0.71190965 0.17777115 0.15081938 0.00880434 0.35139453 0.5723708
-0.565743 -0.16176341 -0.8971822 0.096328616 0.033237502 0.18958455 -0.2151129 0.08151193
-0.1500359 1.4358331 -0.08026252 0.20834693 1.5815684 -0.5346237 0.18155152 0.2912343
0.18262923 0.009123344 0.4344121 0.029522117 -1.0105665 -0.47714394 -1.2851164 -0.34828702
-1.091182 0.7332578 0.06864403 0.47090736 -0.8084143 -2.585669 1.1578737 -0.026777314
1.0484176 -0.5635995 0.12826742 0.77437603
00000000: 32da 59bd ec15 72bf 64ab 953e 5214 85be
00000010: f8e9 a8bd 17ff a8be 9e1e 613c f6ef da3d
00000020: 524d 80bc 21ac 043d b9af ec3d 9f9a 953f
00000030: dd2c 3c3f 4667 b4be 8fe2 a83f ced0 80be
00000040: 0118 a8be 1fc7 9c3d d497 9cbe 4ac8 abbe
00000050: cb82 673c 9572 03be 608d 8d3e 324f 30bf
00000060: 13e9 1fbf b673 e53e 1d58 8bbe fae3 abbe
00000070: 5f6a 113f 03b1 f03e 3899 2540 a3a3 55bb
00000080: fa8b 9fbd 28bd 3d3e 8c4b 2e3e 2592 ccbd
00000090: 4e47 1f3e 0079 40bd 84b4 68bd c240 113f
000000a0: 0a85 90bf cba4 eb3e 694a 75bd ffe3 c23f
000000b0: af3f 973e ac90 b0ba 1967 e7bd 9eeb 8bbe
000000c0: 4507 38be 265b 933e 6d88 833e bad0 b5be
000000d0: a32c 9cbd 0b90 c1bf 98fe cdbd ac80 193f
000000e0: 1222 d73e 7221 843e b63f 36bf a409 363e
000000f0: 6570 1a3e 1440 103c fce9 b33e e586 123f
00000100: 89d4 10bf 4fa5 25be bcad 65bf f047 c53d
00000110: 0c24 083d 7422 423e 8e46 5cbe baef a63d
00000120: 03a3 19be 61c9 b73f ad60 a4bd e658 553e
00000130: d570 ca3f 19dd 08bf a4e8 393e aa1c 953e
00000140: 2803 3b3e 147a 153c 436b de3e 5ed8 f13c
00000150: 3e5a 81bf 364c f4be b27e a4bf ad52 b2be
00000160: daab 8bbf c8b6 3b3f 3e95 8c3d c51a f13e
00000170: 3df4 4ebf 9a7b 25c0 3535 943f 195c dbbc
00000180: 8c32 863f 0f48 10bf 8958 033e 823d 463f

g.4.weight f4 [1, 100]
-0.014901218 -0.13831873 0.14543505 0.07491204 -0.015834076 0.008428673 0.03433656 0.05220555
-0.017242765 -0.018098196 -0.00457808 0.10618423 -0.12647603 0.00088017364 -0.06541744 0.023947725
0.024333544 0.028583167 -0.013328481 0.017881997 -0.005795452 -0.08888213 0.0014935308 0.03765709
0.03314093 -0.008635711 0.006922813 -0.06727519 -0.057654284 0.007377336 -0.24916844 0.011979652
0.0024132344 0.0024523328 -0.01757073 0.0135373175 0.0076543046 0.013320112 -0.016595384 -0.009621808
0.0015272817 -0.017416026 0.011456634 -0.17486641 0.024784734 0.0151538765 -0.0039522164 -0.0034546498
-0.0067298925 -0.0030325276 -0.019383313 0.007046481 -0.012253037 0.08003219 -0.018939974 -0.026986042
-0.012342896 0.010502034 0.11243155 -0.008222111 -0.013266846 0.0065175514 0.051109582 -0.1417827
-0.06267494 0.0038036983 0.047332477 0.008708594 -0.022074845 0.01531466 0.017356325 0.0060501415
-0.008660955 -0.12527555 0.010414954 0.024430411 -0.047379512 -0.105198935 0.0012943568 0.025810488
0.00020399597 -0.012376245 0.0010769811 0.008910581 -0.041693576 0.02063817 0.059168678 -0.16623312
-0.068804115 0.28488114 0.005146935 0.022071484 0.066507176 0.23920196 -0.05929918 -0.026864193
0.07143563 0.025040813 0.0021108696 -0.033818994
00000000: 3d24 74bc 6da3 0dbe edec 143e 7c6b 993d
00000010: 77b6 81bc 6b18 0a3c 7ea4 0c3d 7dd5 553d
00000020: b340 8dbc ab42 94bc b803 96bb 1e77 d93d
00000030: ef82 01be 74bb 663a 94f9 85bd 052e c43c
00000040: 2457 c73c 3f27 ea3c b45f 5abc 447d 923c
00000050: c6e7 bdbb d607 b6bd 94c2 c33a 523e 1a3d
00000060: c9be 073d cc7c 0dbc c4d8 e23b 93c7 89bd
00000070: e626 6cbd 94bd f13b 0326 7fbe 4d46 443c
00000080: 5b27 1e3b 51b7 203b 7ef0 8fbc a0cb 5d3c
00000090: f6d0 fa3b 993c 5a3c 0bf3 87bc caa4 1dbc
000000a0: 122f c83a 0eac 8ebc 9bb4 3b3c 2e10 33be
000000b0: 5b09 cb3c f747 783c 9881 81bb 6867 62bb
000000c0: 6e86 dcbb 5fbd 46bb c1c9 9ebc 2be6 e63b
000000d0: f6c0 48bc ebe7 a33d 0128 9bbc d511 ddbc
000000e0: dc39 4abc b910 2c3c 8342 e63d 08b6 06bc
000000f0: 2f5d 59bc 2f91 d53b 4858 513d 7c2f 11be
00000100: b85b 80bd 7847 793b b3df 413d 7eae 0e3c
00000110: 4ed6 b4bc 57ea 7a3c da2e 8e3c 4440 c63b
00000120: aee6 0dbc 3c48 00be 7ca3 2a3c 4922 c83c
00000130: 0511 42bd 8a72 d7bd 68a7 a93a 8470 d33c
00000140: c0e7 5539 bcc5 4abc 7d29 8d3a affd 113c
00000150: e2c6 2abd 6111 a93c db5a 723d 0439 2abe
00000160: 2ce9 8cbd f1db 913e 9fa7 a83b 42cf b43c
00000170: ea34 883d 5cf1 743e b2e3 72bd 4c12 dcbc
00000180: d84c 923d 6422 cd3c 8456 0a3b c985 0abd
