models/adult_ALLR1_mlp_l0.500_s0.pth (torch, 45925 bytes, 5 tensors)

g.0.weight f4 [100, 6]
000000 7e 01 a9 bd 08 0f 14 bd 2d 68 4f be 8f 62 c9 bd
       -0.08252238 -0.036147147 -0.20254584 -0.09833252
000010 08 8c e5 c0 47 82 6c 3d b2 c1 c4 bd 37 d2 a0 3d
       -7.1733437 0.05774143 -0.09607257 0.07852595
000020 22 53 c2 39 da 0e b1 3d 55 58 91 3f 79 19 88 3f
       0.00037064502 0.08645411 1.1355082 1.0632774
000030 63 84 d8 bb 68 62 98 3d 03 f9 b4 3d 82 af b8 3d
       -0.0066075786 0.074406445 0.08836558 0.090178505
000040 5b f3 57 bf 71 59 7c 3f 2a 7c 29 be e8 ff 83 3d
       -0.84355706 0.98573977 -0.16551271 0.064452946
000050 eb 5a db 3c 10 4e 0d bd 93 bd dd bf 35 69 42 be
       0.026776752 -0.034498274 -1.7323478 -0.18985446
000060 d8 64 d7 3d 73 6d f3 3d a3 86 5c 3c 49 aa a1 3d
       0.10517281 0.1188611 0.013459834 0.078938074
000070 8b be 96 3e a2 8f da 3e 89 e4 b1 3d 32 5c a7 3d
       0.29442248 0.42687708 0.08686168 0.08171882
000080 9f 4e b4 3d 17 95 d1 3d 92 e1 1a c0 ec 32 eb 3c
       0.08804058 0.10233515 -2.4200177 0.028710805
000090 0e 3b 6e bc 43 cf 9b 3d 11 65 87 3c 31 ad c4 3d
       -0.014540447 0.076078914 0.016527684 0.09603346
0000a0 98 57 16 3e 4d 83 36 3d c0 c8 e6 bc 64 e0 58 3d
       0.14681852 0.044558812 -0.028171897 0.05294837
0000b0 a0 a2 95 bd 85 e7 e2 bc 97 b3 74 bf 06 39 09 3f
       -0.07306409 -0.027698288 -0.9558653 0.53602636
0000c0 62 7f f8 3d d7 df d1 3d 95 b3 82 3d f4 20 04 3e
       0.12133671 0.10247772 0.06381909 0.12903196
0000d0 83 36 02 3f b9 95 28 bf dc c0 e8 3b c5 28 0e bd
       0.5086443 -0.6585346 0.0071030688 -0.03470685
0000e0 3d 60 84 bd fa 18 15 bc d1 a2 28 3e 94 e7 42 3e
       -0.064636685 -0.009100193 0.1646836 0.19033653
0000f0 48 df d2 3c 43 ab 22 3e c4 b9 b6 bd 17 8f c5 bd
       0.025741234 0.15885644 -0.08922151 -0.09646433
000100 5d 0c c5 3f 57 47 32 3e 29 cb 41 3d 7a 95 25 be
       1.5394398 0.17410026 0.04731289 -0.16170302
000110 10 ab 9b 3d 09 1f c3 3c c0 b5 29 3e 7d 2a ba 3e
       0.07600987 0.02381851 0.16573238 0.3636054
000120 be 79 9a 3f 05 96 3f 3f d3 39 e1 3e 65 18 20 bf
       1.2068403 0.74838287 0.4398943 -0.62537223
000130 0c d1 40 be 87 c0 08 be 85 cf 44 3d 66 60 ee bd
       -0.18829745 -0.13354693 0.04804947 -0.1163948
000140 bf b3 fa 3d 2b ce e4 3b 20 eb e9 3f 71 c4 53 bf
       0.12241315 0.006982585 1.827488 -0.8272162
000150 f4 65 71 3e da c3 41 3c c4 86 20 3e e8 de c0 3d
       0.23574048 0.01182648 0.15676409 0.09417516
000160 6e 04 9b be a2 9f c2 3c e8 03 ce bd ba f8 a8 bd
       -0.30276817 0.02375776 -0.10059339 -0.08250566
000170 dd 6e e0 bd de d4 c7 bc 61 42 ec bf ef 36 df be
       -0.109586455 -0.024393495 -1.8457757 -0.43596599
000180 4a f7 14 bc 83 e8 a4 bd ae 38 2a bd 88 e5 44 bd
       -0.009092161 -0.080521606 -0.04155796 -0.04807046
000190 cb 41 8b 3f 75 ac 58 40 a8 fe 7a bd 44 78 0d 3e
       1.0879453 3.385526 -0.061278015 0.13815409
0001a0 7f 9c 8e bd 7e cc a3 bd a1 61 65 3f ce 1f b0 3c
       -0.06963443 -0.07997988 0.89602095 0.02149954
0001b0 98 c1 86 bd cb ff d7 bc 2c 7b b9 bd c0 86 7a bc
       -0.06579894 -0.026367089 -0.09056696 -0.015290916
0001c0 a9 8d 06 c0 c6 1d 39 3f 34 0b 30 3c 06 92 66 bb
       -2.1023962 0.72311056 0.0107448585 -0.0035182252
0001d0 bd bd 19 3e 6f 57 2e 3d a2 1e 02 3e 5a 09 e5 3d
       0.15013786 0.042563852 0.12706998 0.11183424
0001e0 b8 66 b5 bc 9c a9 04 3c 81 17 9b 3c bb ab 8b bd
       -0.022143707 0.008097079 0.018932106 -0.06819864
0001f0 76 ef c1 bf 4f fc 7a c0 86 ee b9 3d 76 f3 72 be
       -1.5151203 -3.9216497 0.09078698 -0.23725685
000200 d1 fd 26 3f de 66 3f c1 00 98 00 3e 81 8e cb bd
       0.65231043 -11.962614 0.12557983 -0.0993929
000210 f6 e3 6b 3c ef 7f 3d bd a6 f1 59 3d 09 ef c0 bc
       0.014397612 -0.046264585 0.05320897 -0.02355148
000220 40 20 cc 3e d2 29 ec bd 4a 8a 82 bd 13 20 53 be
       0.39868355 -0.11531414 -0.06374033 -0.20617704
000230 bb 58 df bd 2d 58 09 be 96 e6 91 3f be 75 ff bd
       -0.10905596 -0.13412543 1.1398494 -0.124736294
000240 ee ae d3 3c 37 18 03 be b5 31 bd bd 86 09 79 bd
       0.025840249 -0.12802206 -0.092379965 -0.060800098
000250 db 02 98 3f 05 25 0d bf 8a 12 0a be a1 47 86 3d
       1.1875871 -0.5513461 -0.13483635 0.06556631
000260 8d 1b 2f bd 33 08 82 bd 69 bd 4d bf 01 94 c2 bf
       -0.042750884 -0.0634922 -0.8036714 -1.5201417
000270 15 c3 ca 3c 06 e2 c9 bb 8f c0 11 be dc b3 38 3d
       0.024751225 -0.0061609773 -0.14233612 0.045093402
000280 39 02 cf 3d 6a 70 18 3e 43 09 fb bd 7f 4b 31 bd
       0.10107846 0.14886633 -0.12257626 -0.04328489
000290 de 8f 1a be 5e ba 20 be 28 20 3d bc fb 7e f0 be
       -0.15093943 -0.15696093 -0.011543311 -0.46971878
0002a0 80 86 4c be b5 28 31 3d 42 5d 99 3d 34 0e 94 39
       -0.19973183 0.043251712 0.07488491 0.00028239342
0002b0 21 45 02 40 d8 29 d1 3b 7a aa d9 bd af 9e 8c 3a
       2.0354693 0.006383162 -0.10628219 0.0010728444
0002c0 bf c8 05 be 65 42 44 bd 09 bb 1f 40 56 e8 34 bf
       -0.1306486 -0.04791488 2.4957907 -0.70667017
0002d0 9d ce fc 3d 78 0d 0e 3e ac a8 f1 3d 85 c0 43 bd
       0.12344096 0.13872325 0.1179975 -0.047791023
0002e0 4c 9e 96 3d cd 8c 35 3e b6 35 59 be f4 a9 8b bd
       0.073544115 0.17729492 -0.21211895 -0.06819525
0002f0 fe 2b ab be 18 4e a4 be 57 a2 03 3d 4d e4 63 bd
       -0.33432 -0.3209083 0.03213724 -0.055637646
000300 c2 ed 9a bc 6d f8 8c bd 31 97 b7 3d 05 d9 22 bd
       -0.0189122 -0.06883321 0.08964384 -0.039757747
000310 76 42 4a 3e 70 c7 a0 3e 06 47 0c 3c 12 67 af 3d
       0.19751915 0.3140216 0.008561855 0.08564581
000320 7b 5f a4 3d 58 ee ba bb 7e 8d 13 3f 24 16 44 3f
       0.08026024 -0.0057046823 0.57637775 0.76596284
000330 5a 0d 47 3b 3e 8f b6 bd cd c1 68 bd 34 01 6b bd
       0.0030372948 -0.0891404 -0.056825448 -0.057374194
000340 4f 3c 6b 3f 7b 41 b8 be 51 7e a7 3d f8 31 25 3e
       0.918889 -0.35987458 0.0817839 0.16132343
000350 80 9e b1 bc ba 55 50 3d 54 1e 24 3f 6d f8 eb 3e
       -0.021682024 0.050863005 0.6410878 0.4608797
000360 0f dd 46 bd f7 16 a3 bd 32 82 34 3b f4 38 09 3d
       -0.04855066 -0.079633646 0.0027543423 0.03350158
000370 c4 95 c5 be bd 08 e4 40 6c 9c 40 bb 88 39 2b 39
       -0.38590825 7.1260667 -0.002939011 0.00016329263
000380 a1 36 da bd 16 b7 c8 bd 7b 79 51 c0 c9 65 ec bd
       -0.10654951 -0.09800546 -3.2730396 -0.115428515
000390 c6 a3 8e bc 66 c2 49 be ab f2 f0 bc ca 9f c7 3d
       -0.017412078 -0.19703063 -0.029412588 0.09747274
0003a0 6e 8e a7 3f 3f 62 d0 3f 87 b0 af bd ba 82 3e bd
       1.3090341 1.6279982 -0.08578592 -0.04651139
0003b0 e4 07 1a bd 4c 07 2b 3d 05 5e d2 be 70 1b 4c bf
       -0.03760518 0.041755006 -0.41087356 -0.79729366
0003c0 6b c6 ff 3d c4 67 56 3e 1b 2b f8 bd e8 41 0c 3c
       0.12489017 0.20938021 -0.12117597 0.008560635
0003d0 fc 9b e4 3f 19 7b 0a bf 88 60 54 bc d0 f3 37 bd
       1.7860103 -0.5409408 -0.012962468 -0.044910252
0003e0 2b 9d b8 bd 99 d5 a7 bd b6 f3 ca be 80 d4 bb 3e
       -0.090143524 -0.081950374 -0.39639062 0.36685562
0003f0 e6 a3 7c 3d f0 09 60 bc a5 4f 00 3e 1a 3b 97 3d
       0.061679743 -0.013674244 0.12530382 0.073843196

g.0.bias f4 [100]
000000 73 b8 92 bf d4 aa 76 bf 0f 51 95 bb 36 df 10 40
       -1.146254 -0.96354413 -0.004556782 2.2636237
000010 ea 18 c8 3d c9 1e 07 c0 03 cc 32 be 33 29 3a 3c
       0.09770377 -2.111254 -0.17460637 0.011362362
000020 0a 39 45 3f 45 b0 c5 be 39 75 79 3d e5 03 63 3e
       0.7704016 -0.38611045 0.060902808 0.22169454
000030 19 a4 88 40 c6 47 14 be 18 0b d2 3e 6f 18 3c 40
       4.2700315 -0.14480504 0.4102409 2.9389913
000040 65 5a ae 3f fa 3c 05 be 74 f2 b2 3f c2 bc f3 3d
       1.3621336 -0.13011542 1.3980241 0.11901237
000050 62 6a 3f bf 1b 11 ad 40 54 a3 c3 be 57 01 8e be
       -0.747717 5.408338 -0.38210547 -0.27735397
000060 1b 4d 3f 3e 0e 96 77 be 20 c9 8b 3e 7e b7 9c 3e
       0.18681757 -0.24178335 0.27301884 0.30608743
000070 0a be f3 bf b6 83 a9 bf 50 d7 02 bf 29 67 f4 bf
       -1.904237 -1.324332 -0.5110979 -1.9093982
000080 d7 41 a1 be 6d 9c 12 3e 1a 26 d4 3e 6e e8 47 3c
       -0.31495544 0.14317484 0.4143532 0.012201412
000090 66 9f b0 bf 68 b9 e2 bf 77 a2 10 bf 0a d0 74 be
       -1.3798645 -1.7712831 -0.564979 -0.23907486
0000a0 86 d3 00 c0 37 ba f3 3e e0 7c 33 3f 01 74 04 3d
       -2.0129104 0.47603008 0.7011242 0.032337192
0000b0 70 69 d5 bf 4f 5d 8b 3f 32 2a 80 3d ff 11 0a 40
       -1.6672802 1.088785 0.06258048 2.1573484
0000c0 b5 b9 cb 3c b8 e4 a2 3f 2e 8c b1 3f 90 fd aa be
       0.024868825 1.272605 1.3870904 -0.33396578
0000d0 af 90 d7 3f d7 21 5a be 45 a1 a3 3e 9b 7b c8 be
       1.6841029 -0.21301971 0.31958976 -0.39156803
0000e0 6f ad bd be 12 62 bc 3f e1 5a a1 be da 12 c9 3d
       -0.37046382 1.4717429 -0.31514648 0.09818049
0000f0 66 ae 2b bf d8 16 e3 be ee ef 9c 3e 2c b4 40 be
       -0.67062986 -0.44353366 0.30651802 -0.1881873
000100 91 58 b2 bd f9 12 cc bd 7a 7d 5e 3d 0f f4 43 40
       -0.08708299 -0.09964556 0.054318883 3.0617712
000110 34 db a8 bd 38 2c 45 3e 70 76 08 c0 30 2e 29 be
       -0.08244935 0.1925515 -2.1322289 -0.16521525
000120 9e fb 31 bc fe 76 fb 3d ec 9c 35 bf 18 3f ae be
       -0.010863213 0.12278555 -0.7094257 -0.34032512
000130 c9 91 56 3e 5f 4d 10 bf 8d 0f c3 3f 32 f2 2d be
       0.2095405 -0.5636806 1.5239121 -0.16986921
000140 ec 75 79 3e 7d d3 15 3f 59 27 87 3f fc 11 c1 c0
       0.2436139 0.5852583 1.0558883 -6.0334454
000150 88 62 82 3d 03 a6 82 be f5 d1 3a be 7d c0 37 c0
       0.063664496 -0.25517282 -0.18244155 -2.8711236
000160 51 32 71 bd cb 20 9c be bf 51 30 be 4c fa f1 bf
       -0.058885876 -0.3049377 -0.17218684 -1.890451
000170 52 29 80 3e b0 b3 75 bc ae 74 be bd e2 7c 1e c0
       0.25031525 -0.014996454 -0.09299599 -2.4763722
000180 a9 1d fc 3f ae 9b c9 bc 59 af 03 3f 38 d1 90 3e
       1.9696552 -0.024610367 0.51439434 0.2828462

g.2.weight f4 [100, 100]
000000 83 00 f8 bf e4 dc 3a 3f e2 b6 a8 bf cf 26 26 bf
       -1.9375156 0.729933 -1.3180811 -0.6490297
000010 70 b1 f1 3b e9 fc b6 bf 78 3c 08 3f b3 ae d6 bf
       0.0073758885 -1.4295932 0.5321727 -1.6772064
000020 af 3f 95 3f 59 16 55 bf 3d b6 70 3f 48 2c a4 3d
       1.166006 -0.83237225 0.94028074 0.080162585
000030 2d ba 7f 3e 07 df e9 3f df ad 7e bf 08 92 bf 3d
       0.24973364 1.8271188 -0.99484056 0.09354025
000040 31 d0 af 3e cf e6 33 3f a7 fe bb bf 6e ce 96 be
       0.34338525 0.7027406 -1.4687089 -0.29454368
000050 e0 b4 8d be 41 e3 a9 bf d3 52 c0 bd f9 12 c9 3f
       -0.2767706 -1.3272477 -0.093907975 1.5708915
000060 f3 08 cf 3f 9b cc aa be 3a 15 49 bf 22 71 8a 3d
       1.6174606 -0.33359227 -0.78548014 0.067598596
000070 db 19 8e 3f cb ed e8 3f 9c 4f 64 3f 28 c6 67 3e
       1.110164 1.8197569 0.89183974 0.22634184
000080 a3 38 fb bc 95 65 68 3e 6a de dc 3f f6 b9 ed be
       -0.030666655 0.22695 1.7255375 -0.4643094
000090 11 fd c5 bf 73 5d b9 bf 1c 27 36 be 8e 58 3c bd
       -1.5467855 -1.4481643 -0.17788357 -0.04598289
0000a0 98 74 bb 3e 11 99 86 bf b3 f1 82 bf 4e b6 53 3f
       0.3661239 -1.0515462 -1.0230011 0.8270005
0000b0 24 b8 83 3f e4 8a 72 3f e5 50 13 3e 0a a7 6e bf
       1.029057 0.9474318 0.14386328 -0.9322363
0000c0 1e db f3 3e 9b d5 03 3f c1 2f cd 3f 51 87 bc be
       0.4762811 0.5149781 1.6030198 -0.36821988
0000d0 1b 2a 6a bf 36 7f b8 bc cf 6e 0e 40 8a 3e 00 c0
       -0.914705 -0.022521596 2.2255132 -2.003817
0000e0 35 a5 b8 3e 3f 38 ef 3f 78 a8 6f 3b 02 e0 29 c0
       0.36063543 1.868904 0.003656892 -2.6542974
0000f0 37 1d 7e bf c7 68 58 bf 76 4b 2d be 38 a2 26 3f
       -0.9926333 -0.8453488 -0.16923317 0.65091276
000100 3c cc e7 be 3d 8b d8 be d6 9f 0a 3f 04 68 54 3f
       -0.45273006 -0.4229373 0.5415014 0.82971215
000110 16 d6 e7 3c 42 2e 22 3f 8f a9 5a bd f7 19 96 3f
       0.028300326 0.63351834 -0.05338436 1.1726674
000120 47 7c 05 be 00 b2 50 bd cc 78 9f 3d 07 5a 31 3e
       -0.1303569 -0.050951004 0.07786712 0.17319499
000130 c4 0f a1 be 3d 33 33 3c 19 a2 04 3f eb 3b f7 be
       -0.3145734 0.010937509 0.5180984 -0.482879
000140 e6 ad 77 3f af 43 13 3f c7 4b 52 3f 6f 95 62 3f
       0.9674972 0.5752515 0.8214688 0.8850927
000150 c1 b4 13 be 22 21 a1 3e 7b 8c e2 3e 21 82 8c be
       -0.14424421 0.3147059 0.44247803 -0.2744303
000160 ba 08 03 bf 6e 96 47 3e b4 ac 8a 3f 5a 8a 81 be
       -0.5118519 0.19490978 1.0833955 -0.25300866
000170 cd d8 12 bf 57 97 a5 bf 80 4f 5b ba 07 16 31 c0
       -0.5736206 -1.293681 -0.00083660334 -2.7669694
000180 45 c9 a4 3f b6 5d 3d bf 89 c0 40 bf 96 04 8a 3c
       1.2873923 -0.73971117 -0.75293785 0.01684789
000190 28 04 4d bb 23 e9 46 3c 0c a2 42 3e a0 c4 89 be
       -0.0031282995 0.012140545 0.19007128 -0.26907825
0001a0 4c 96 df 3d 9b a4 3c 3e cb e8 4e 3e 40 63 32 be
       0.10917339 0.18422167 0.20205991 -0.17420673
0001b0 12 fa 5c 3b 75 02 52 bc fd 75 0c be cb c3 5f 3a
       0.003371839 -0.012817969 -0.13716884 0.00085359503
0001c0 f7 98 b6 3e 3a d7 80 be ce a3 0b 3d e4 ec 5f 3e
       0.35663578 -0.25164205 0.034091763 0.2186771
0001d0 08 c6 9b be c4 02 67 bd 1c 96 79 3e fb a0 68 be
       -0.30424523 -0.056399122 0.24373668 -0.22717659
0001e0 25 05 00 3e 56 58 96 c0 55 c3 f7 bd 68 57 eb bd
       0.12501962 -4.698283 -0.120978035 -0.11491281
0001f0 d5 ee ed bd 8f a0 a9 bd 64 6b 3d be 75 64 f0 3d
       -0.11617819 -0.08282577 -0.18497998 0.11737911
000200 5f 64 46 3c d4 0e 9b be 79 63 1b be f2 48 1f be
       0.012108891 -0.3028475 -0.15174665 -0.1555517
000210 e5 03 d5 3d 55 f3 59 be 04 25 58 be 87 b0 a7 3d
       0.104011334 -0.2128423 -0.2110787 0.08187967
000220 0d 60 e5 bc ce 75 17 3e 7e da 49 bd 95 01 8c be
       -0.027999902 0.14791033 -0.049280636 -0.27344957
000230 a3 8c d9 3b be 4b 2b 3e 83 0a 29 be 23 e6 98 3e
       0.0066390797 0.16728112 -0.16507916 0.2986308
000240 fb c7 d0 3e e6 f9 31 be 70 54 8f 3e 02 d1 18 be
       0.40777573 -0.17380485 0.27994108 -0.1492348
000250 cd 38 44 3e ad 8b 9a 3d 3a a3 fc 3c d3 cc 7a 3e
       0.19162293 0.07546172 0.030839551 0.24492197
000260 ae 20 a3 bd e7 73 0f be 4c 08 63 be ca fc 99 3e
       -0.079652175 -0.14009057 -0.22171134 0.30075675
000270 1e 5b 9a 3e 23 ac b9 3d 33 98 0a be e0 77 76 3e
       0.30147642 0.090660356 -0.13534622 0.24069166
000280 f9 f7 7f be d3 ff ab 3e fd 5c 17 3e 64 80 b9 3d
       -0.24996938 0.33593616 0.14781566 0.09057692
000290 42 c8 52 3d fa 02 13 3e 75 be 93 bd 56 02 3c 3b
       0.051460512 0.14356604 -0.07214061 0.0028687916
0002a0 81 89 bd 3e 7c c6 e4 3d 2b 91 c3 3e 42 3c 68 3e
       0.3701897 0.111706704 0.38196692 0.22679237
0002b0 ce 66 15 be 95 66 bd bc af 6b da 3d 4e fa b3 3e
       -0.14589998 -0.023120204 0.1066507 0.35151905
0002c0 fc ff 1a 3e 52 2c 56 be d4 c9 88 3d 5b 23 33 3d
       0.15136713 -0.20915344 0.06679121 0.04373489
0002d0 1a f3 15 be 30 db 13 3e 8e 0c 83 3e e3 7f 81 40
       -0.14643517 0.14439082 0.25595516 4.046861
0002e0 79 4f 22 be f7 0c bd 3d c2 7f 8d 3e 66 56 d0 3e
       -0.15850629 0.092309885 0.27636534 0.40690917
0002f0 64 81 7e 3e 27 30 55 bf ec 13 df bc 56 c6 8a 3e
       0.24854046 -0.832766 -0.02723118 0.27104443
000300 d5 65 18 be 83 76 37 3e 2c 7b 76 3c c5 82 f6 3b
       -0.14882596 0.17916302 0.015044015 0.007522913
000310 54 6d 18 3e 6a 6b 19 3e 5e 6d 09 3e 93 b8 b0 39
       0.14885455 0.14982381 0.13420627 0.00033706854
000320 d1 7c 19 bf 41 ba d9 be d5 8f 82 3f 5c 21 a3 3f
       -0.5995608 -0.42524913 1.0200144 1.2744555
000330 ee f1 fe 3e dd d7 79 bf ff ed 28 be 5d 1f ca 3f
       0.49793953 -0.97595006 -0.16497038 1.5790821
000340 3c 05 19 bf 77 79 0c 3f a1 2a fc bd 48 30 69 3f
       -0.5977361 0.5487284 -0.12312818 0.91089296
000350 fa 86 a7 3f 86 82 86 bf 04 a3 89 3f 32 03 54 3f
       1.3088067 -1.0508583 1.0752873 0.82817376
000360 c2 fd bb 3f 8b 29 e4 3d cd c2 b6 3f 0d 1b 87 3d
       1.4686816 0.11140736 1.4278198 0.065969564
000370 40 76 f1 bf 5c 77 af bf f7 05 04 bf be f4 a7 be
       -1.8864212 -1.37083 -0.515716 -0.3280391
000380 fa 15 3e bf b6 88 52 bf 62 a4 32 3f 92 80 0b be
       -0.74252284 -0.82239854 0.6978208 -0.13623264
000390 05 06 6f bf 55 18 86 bf 76 26 64 bf e6 2f 46 bf
       -0.9336856 -1.0476176 -0.89121187 -0.7741684
0003a0 71 70 15 bf 3b f1 cd 3e 14 be 80 bf fa a5 9b 3e
       -0.58374697 0.40223107 -1.0058007 0.30400068
0003b0 da 33 2a 40 66 9b 5e bf 0c 7f a9 3e 11 24 98 3d
       2.6594148 -0.8695587 0.33104742 0.07428754
0003c0 09 60 b6 bf 43 5f 21 3f 7e 05 a3 3f f3 ef 8e 3e
       -1.4248058 0.6303598 1.2736051 0.27917442
0003d0 19 75 a8 bf b5 35 88 bf e2 13 9e 3e 90 7a 90 3f
       -1.3160735 -1.064139 0.30874544 1.1287403
0003e0 23 4f 2b 3e a9 9c 15 be ee 52 31 c0 40 0c 18 3f
       0.16729407 -0.14610542 -2.7706866 0.5939369
0003f0 0f 34 bd 3f 09 b0 3c be 9d 54 d4 be 16 87 2a 3d
       1.4781512 -0.18426527 -0.41470805 0.041632734

g.2.bias f4 [100]
000000 3f 6a 61 3f 26 8f 4a 3d 8e f4 ad 3f a5 06 c7 3f
       0.88052744 0.049452923 1.3590257 1.5548903
000010 2d 5a f2 bf 2e bf 08 40 70 5f 5f 3f 14 47 0e 40
       -1.893377 2.1366687 0.87255 2.2230883
000020 b8 10 2f c0 71 98 84 3f e2 09 9b bf de 5f ac 3f
       -2.7353954 1.0359021 -1.2112391 1.3466756
000030 42 28 9c 3f 08 eb 88 bf 59 fd bb bf a4 58 b4 3e
       1.2199786 -1.0696726 -1.468669 0.35223877
000040 9e 89 50 3e 28 c2 94 bf 0a e4 a2 3f 90 d7 15 c0
       0.20364997 -1.1621752 1.2725842 -2.341282
000050 09 43 09 3f 8a 3b 0d 3f 3f 3f 78 3f 3d 29 bd 3e
       0.5361791 0.55168974 0.96971506 0.36945525
000060 96 da ef 3f d4 3d bc 3e 3a 37 7b 3f 0c 2c e2 3e
       1.8738582 0.3676592 0.98131144 0.4417423
000070 4d c4 57 bf a0 23 3d 40 26 21 4d 3f c1 b3 9d 3c
       -0.84283906 2.9552994 0.80128706 0.019250752
000080 1c 41 2b 40 22 00 e2 3e f0 2a 3a 3f 1d a8 a4 be
       2.675849 0.44140726 0.7272177 -0.3215951
000090 bb c3 ee be 22 6f ec 3e c6 fc 66 c0 5a d0 07 bf
       -0.46633705 0.46178538 -3.609178 -0.53052294
0000a0 ab 2b ce 3f 17 f2 ce 3f 69 44 f4 be a5 d2 11 bf
       1.6107076 1.616763 -0.47708443 -0.56962043
0000b0 78 c6 81 bf 7c fb 3f bf 1b b0 8e 3e c5 e8 e9 bf
       -1.0138693 -0.7499311 0.27868733 -1.8274161
0000c0 f5 99 1f be 95 08 00 3f a7 e0 6f be c2 58 cd bd
       -0.15586074 0.50013095 -0.23425542 -0.10026695
0000d0 62 6d 89 be 94 9f 51 be 61 50 d9 3e ea c8 41 be
       -0.26841265 -0.2047103 0.42444137 -0.18924299
0000e0 63 17 17 bf c1 5f d5 bc 8d e7 84 3e 99 d0 a3 3f
       -0.5902006 -0.026046636 0.2595791 1.2798034
0000f0 d4 e1 74 be 8e e9 2f 40 bf 68 40 3f 82 80 af be
       -0.23914272 2.74863 0.7515983 -0.3427773
000100 06 09 a3 bf 4b f4 09 3e 0d 37 2d bf 11 48 24 c0
       -1.2737129 0.13472097 -0.67662126 -2.5668986
000110 89 8e 5f bd e2 3d 09 3d 9a 6c f6 be 17 cf b2 be
       -0.05457929 0.03350628 -0.4812973 -0.34923622
000120 df 7e c6 3f 69 cd d3 3d 5a f9 2a 40 45 07 e4 3e
       1.5507468 0.10341913 2.6714692 0.44536796
000130 96 ad 12 c0 af 5f 8e bf 84 89 48 3f d3 49 03 40
       -2.2918448 -1.112295 0.7833483 2.0513809
000140 12 4b 9b be 7f 24 44 3f b1 f7 78 3c 34 67 15 3f
       -0.30330712 0.7661819 0.015195773 0.583606
000150 19 89 9e 3e 9a a1 0b c0 87 19 b2 bd ec 98 f0 be
       0.30963972 -2.1817384 -0.08696275 -0.4699167
000160 94 58 f1 3e cd d7 13 40 68 21 7f 3e 5d 4c 02 3f
       0.47137892 2.3100464 0.24915087 0.5089777
000170 72 6e 8b bf 96 bd b9 3e 68 e6 32 3e fe 18 b9 bf
       -1.089308 0.36277455 0.17470706 -1.4460752
000180 fa 71 dd 3e e2 8b 9f bf 9d 0e 21 c0 68 b6 fe 3c
       0.4325102 -1.2464564 -2.516517 0.031092837

g.4.weight f4 [1, 100]
000000 9e da 3f bd fc f5 fc 3e 5d 92 b7 3c 3d 7d c3 bc
       -0.04683935 0.4940642 0.022408659 -0.02386343
000010 e5 e7 20 bd cc 46 70 bd f5 8d d9 3c 58 27 31 bd
       -0.03928365 -0.058661267 0.026556948 -0.04325041
000020 ab f5 4d 3e 55 8d 3d bd 6a 4d 59 3d 35 32 8e bd
       0.20113246 -0.046277363 0.053052343 -0.0694317
000030 f5 ef 2f 3d 30 64 2d 3d f5 be 2e 3d 74 10 bb 3b
       0.04295345 0.042331874 0.04266258 0.0057087485
000040 ed d8 c3 bc 64 ea 74 3c bb 68 90 3c a5 55 9c bd
       -0.02390715 0.014948461 0.017628064 -0.07633523
000050 c2 f7 c9 3b be 4f 1e 3c 66 4e e7 3b e9 ef 02 bd
       0.0061635682 0.009662567 0.0070589064 -0.031967077
000060 5a f9 2e 3e 90 8d 8c bc 05 a3 b7 3c 4e 8c 09 bd
       0.17087308 -0.017157346 0.022416601 -0.03358107
000070 88 67 9d bd b8 de 06 be 0c 93 8b 3b c5 e8 4a bd
       -0.07685763 -0.13170898 0.0042594727 -0.049538393
000080 4a 58 25 be ff e0 97 bd 0e 3f 18 3d e8 44 bc 3d
       -0.16146961 -0.074159615 0.03716951 0.0919283
000090 3a fd 2e bd c1 3d 48 3d 13 49 a1 3e ce 50 a8 bc
       -0.042721964 0.048887018 0.31501064 -0.020546343
0000a0 ce 0a 15 3e 2e 5e f6 bd 77 4f 4d bb 80 d2 16 38
       0.14554903 -0.12029682 -0.0031327882 3.595883e-05
0000b0 39 03 84 bd d4 85 04 bd 51 11 86 3d d8 a0 61 be
       -0.06445927 -0.03235419 0.065462716 -0.22034013
0000c0 62 e1 cf bc a3 e7 56 bd dd 34 29 3c 82 dd ef bc
       -0.025376026 -0.052467 0.010327545 -0.029280428
0000d0 b9 7d 29 bb fa cf e9 3d f8 26 f5 3b a5 dc 8e bc
       -0.002586229 0.114166215 0.007481452 -0.017439196
0000e0 da 2f b0 3c 37 22 16 bf 06 69 67 bd ce 6e 07 3c
       0.021507192 -0.5864596 -0.056496643 0.008266164
0000f0 90 fa db bd 1e 74 bd be 10 b5 88 3d c7 d7 56 3c
       -0.107411504 -0.37002653 0.0667516 0.013112969
000100 e1 c2 9e 3d 05 5d cc 3b d6 21 81 bd 85 21 72 3d
       0.07752014 0.0062366747 -0.06305282 0.059113998
000110 3b 7f b5 3c 57 0c 6b bc 6e 07 e0 3b 4e 34 dd 3c
       0.022155395 -0.014346204 0.006836823 0.02700248
000120 74 ee 81 3d 34 d3 60 3b b8 95 70 be 63 1e fc 3c
       0.063443094 0.0034305574 -0.23494613 0.030776208
000130 11 ce a0 be 3a f2 90 3d a3 6c 97 bb bb 3d e4 bc
       -0.31407216 0.07077451 -0.004621105 -0.027861467
000140 cd fb 60 3d 8c c3 25 bd e7 1b ce 3b 25 20 a2 bd
       0.054927636 -0.04046969 0.0062899473 -0.07916287
000150 10 a0 fb bc ef dd d9 3d 6d 63 bd 3b 1f 56 8b 3d
       -0.030715972 0.106380336 0.0057796747 0.06803536
000160 ff 55 90 3d 01 d1 a5 3d 17 ef 23 bd 79 34 df bb
       0.070476525 0.08096505 -0.040022936 -0.006811675
000170 0d cf 36 3c d2 46 b3 bc e4 f6 91 bd 72 d6 ac 3c
       0.011157763 -0.021884356 -0.07127169 0.02109835
000180 02 32 fb bb 6b 5b 2e 3d 2d 4f 6b 3e db 87 a4 3b
       -0.0076658735 0.04256765 0.22979422 0.005021078
