models/adult_ALLR_mlp_l0.500_s0.pth (torch, 45925 bytes, 5 tensors)

g.0.weight f4 [100, 6]
0.0011540734 -0.0047117453 0.00028549542 -0.006916319 0.0062178746 0.013775899 0.017599218 -0.0069239624
0.0036794222 -0.008233484 0.0047956724 0.018539201 0.020359622 0.006979583 0.012117399 0.009250151
0.002914357 0.016099174 -0.015913907 0.0029437447 -0.007119434 -0.0015087825 -0.0041037607 -0.013360641
0.015294178 -0.011439774 0.015268807 0.011882442 0.010250501 0.027894605 0.0024241358 -0.007332493
-0.012734914 -0.038236614 0.0028701932 0.00016949093 -0.001457236 0.00024375968 -0.0019751089 0.005302403
-0.010917041 -0.010158212 0.0136147505 -0.0058710882 0.008046336 -0.0055844085 0.011432633 0.030032339
-0.017915852 -0.0019215202 -0.011497452 -0.0071108844 -0.005569232 -0.036743566 -0.021070478 -0.0061086016
-0.0142350765 -0.021669673 -0.009983621 0.0078110825 0.0052866507 0.0024977396 0.0027821006 0.0044258423
0.0054885424 0.0021789111 0.0020451474 0.006546751 -0.00054371066 -0.00078322197 0.0020855495 -0.009604399
-0.012833277 -0.0009205423 -0.010713306 -0.0059890463 -0.0066160113 -0.011917621 -0.0054813838 0.00019549055
-0.0011762434 0.0027405163 -0.001163364 -0.013449506 -0.002218694 -0.019042734 0.007348415 -0.009238617
-0.11879711 -0.05413863 -0.0024678844 -0.0025289843 0.0067406287 0.013954175 -0.0024679264 -0.00041457755
0.018604284 -0.0014947297 0.006614816 -0.0028209286 -0.0071709156 0.04380314 -0.0051678475 -0.009119775
-0.007589855 -0.014110011 -0.010318684 -0.012136916 -0.0026234651 0.0026311772 -0.005962077 -0.0016891808
0.0035927475 -0.012028813 0.007410359 -0.0058753197 0.0068 -0.0013273668 0.0029567452 0.011717308
-0.0008685561 -0.015246633 0.011764936 -0.013292259 -0.123560175 -0.07916677 -0.026002716 -0.0031262299
-0.013370911 -0.0108563155 -0.0030568386 -0.026463453 -0.011942658 -0.0008780473 -0.009073072 -0.0043506455
-0.004732279 -0.020636225 0.025427701 -0.00030560512 0.017273536 0.02170071 0.013268597 0.020529635
-0.005073535 0.0063876547 -0.0075185834 -0.011295273 -0.0026238528 -0.026883155 -0.004217093 0.0042141485
-0.0059872814 -0.0029966703 -0.0041596503 -0.010265021 -0.0026107386 -0.021747662 0.0059237923 -0.0070069768
-0.12673333 -0.0568053 -0.03583383 -0.0009074211 -0.026884496 -0.030686684 -0.014190786 -0.026285145
0.014700554 0.0028273163 0.016842006 0.03091136 0.0024954984 0.019232783 -0.031156741 0.006942317
-0.021211803 -0.015492973 -0.015030184 -0.044398557 -0.02052133 0.005758723 -0.015594761 -0.0061342935
0.0040880544 -0.029295543 -0.027270691 -0.0023978609 -0.019404624 -0.01971848 -0.005539418 -0.022378923
-0.023798173 0.0014762506 -0.01105695 -0.0051788 -0.010263783 -0.017383704 -0.021810424 0.0011008936
-0.014952153 -0.016832523 -0.010046835 -0.01418213 0.021277219 0.0048989 0.014827741 0.021152403
0.008816318 0.011286556 0.0015997407 0.01668503 -0.0067961738 0.009565564 0.13833481 0.056806594
-0.0067054154 -0.0013967467 0.0007055158 0.011550342 0.008446208 -0.0060737147 -0.016266916 -0.002075379
-0.013836801 -0.020170256 -0.008553641 -0.017715683 -0.00937143 0.005466182 -0.01869144 -0.018748097
-0.005899596 -0.018305149 0.007043622 -0.0043421183 0.003707642 -0.0028176547 0.0013737518 0.052370425
-0.004230229 -0.017880265 -0.0026716175 -0.010200487 -0.0067210854 0.010247561 0.012309538 0.0040525068
0.021193579 0.030139003 0.0047538793 0.012872555 0.01155658 -0.003503806 0.011448074 0.006278787
00000000: 4744 973a fc64 9abb 8cae 9539 4aa2 e2bb
00000010: 50bf cb3b 4fb4 613c 3c2c 903c 68e2 e2bb
00000020: 7622 713b bce5 06bc 0425 9d3b 86df 973c
00000030: 39c9 a63c fcb4 e43b 0e88 463c f28d 173c
00000040: ccfe 3e3b 6ae2 833c e25d 82bc d7eb 403b
00000050: 244a e9bb 57c2 c5ba d778 86bb 97e6 5abc
00000060: 6f94 7a3c e46d 3bbc 052a 7a3c 93ae 423c
00000070: b8f1 273c 3a83 e43c 40de 1e3b 6945 f0bb
00000080: 1aa6 50bc ff9d 1cbd da19 3c3b 60b9 3139
00000090: ba00 bfba be99 7f39 d470 01bb c8bf ad3b
000000a0: 64dd 32bc a16e 26bc 6710 5f3c 4262 c0bb
000000b0: c7d4 033c 6afd b6bb f04f 3b3c 6106 f63c
000000c0: 44c4 92bc 85db fbba cf5f 3cbc 6c02 e9bb
000000d0: 1b7e b6bb 6c80 16bd ff9b acbc aa2a c8bb
000000e0: 3d3a 69bc 9984 b1bc 5792 23bc 1cf4 ff3b
000000f0: a43b ad3b 1eb1 233b e753 363b a806 913b
00000100: 3bd9 b33b 10cc 0e3b e107 063b 2186 d63b
00000110: ce87 0eba 2351 4dba b7ad 083b c55b 1dbc
00000120: aa42 52bc 8c50 71ba dd86 2fbc c33f c4bb
00000130: 20cb d8bb 2042 43bc 2e9d b3bb 98fc 4c39
00000140: 2e2c 9aba 3c9a 333b 057c 98ba 515b 5cbc
00000150: 8267 11bb 82ff 9bbc f9ca f03b 915d 17bc
00000160: e64b f3bd 78c0 5dbd 3bbc 21bb 51bd 25bb
00000170: 7ee0 dc3b 0da0 643c efbc 21bb a85b d9b9
00000180: 0368 983c ceea c3ba 19c1 d83b 54df 38bb
00000190: 00fa eabb ec6a 333d 0c57 a9bb 1c6b 15bc
000001a0: 52b4 f8bb ad2d 67bc b30f 29bc ead9 46bc
000001b0: 71ee 2bbb d46f 2c3b 875d c3bb 8167 ddba
000001c0: 4d74 6b3b 8014 45bc 99d2 f23b c185 c0bb
000001d0: 89d2 de3b 0afb adba f4c5 413b f4f9 3f3c
000001e0: d0af 63ba 04cd 79bc b8c1 403c c6c7 59bc
000001f0: 1e0d fdbd 3022 a2bd a603 d5bc 6fe1 4cbb
00000200: aa11 5bbc b0de 31bc 3e55 48bb e2c9 d8bc
00000210: 23ab 43bc c22c 66ba 39a7 14bc dc8f 8ebb
00000220: 3c11 9bbb 4d0d a9bc c14d d03c a039 a0b9
00000230: 3b81 8d3c b0c5 b13c 8864 593c c42d a83c
00000240: e53f a6bb 884f d13b 735e f6bb cf0f 39bc
00000250: f2f4 2bbb 103a dcbc 8a2f 8abb d716 8a3b
00000260: f530 c4bb c963 44bb ad4d 88bb 9e2e 28bc
00000270: ed18 2bbb 2728 b2bc 5f1c c23b c89a e5bb
00000280: 62c6 01be adac 68bd 7ec6 12bd 00e0 6dba
00000290: e03c dcbc a462 fbbc 7880 68bc f253 d7bc
000002a0: 98da 703c 7f4a 393b 3ff8 893c d239 fd3c
000002b0: 848b 233b 128e 9d3c 6c3c ffbc 607c e33b
000002c0: 60c4 adbc 3dd6 7dbc 2941 76bc 43db 35bd
000002d0: 591c a8bc abb3 bc3b 2b81 7fbc 2f02 c9bb
000002e0: 16f5 853b 35fd efbc c966 dfbc 6e25 1dbb
000002f0: 72f6 9ebc a688 a1bc 0284 b5bb 0154 b7bc
00000300: 63f4 c2bc c07e c13a 3628 35bc ecb2 a9bb
00000310: 6d29 28bc 4568 8ebc c6ab b2bc dc4b 903a
00000320: e0f9 74bc 5ce4 89bc 7b9b 24bc 2a5c 68bc
00000330: 904d ae3c f486 a03b 0ef0 723c ce47 ad3c
00000340: 5172 103c 3feb 383c 64ae d13a 0baf 883c
00000350: 70b2 debb e2b8 1c3c a4a7 0d3e 08ae 683d
00000360: 1ab9 dbbb 0b13 b7ba 5df2 383a a53d 3d3c
00000370: f761 0a3c 0306 c7bb 3242 85bc 1503 08bb
00000380: c0b3 62bc 183c a5bc 9224 0cbc 7b20 91bc
00000390: a08a 19bc a81d b33b ca1e 99bc 9c95 99bc
000003a0: 6651 c1bb aef4 95bc 2fce e63b 5448 8ebb
000003b0: e9fb 723b 67a8 38bb 760f b43a 5f82 563d
000003c0: bc9d 8abb a279 92bc 4e16 2fbb f21f 27bc
000003d0: 8d3c dcbb 63e5 273c f2ad 493c e4ca 843b
000003e0: 289e ad3c 12e6 f63c 6ec6 9b3b 69e7 523c
000003f0: cf57 3d3c 1ca0 65bb b490 3b3c 48be cd3b

g.0.bias f4 [100]
0.018580196 0.014115971 -0.019133963 -0.0049178186 0.014403269 0.026098348 -0.018389035 0.022679767
0.0029298274 0.033725962 0.0009562335 -0.0027157995 -0.0068607866 -0.01998839 0.037121322 -0.010590398
-0.008183053 -0.003919281 0.0082553215 0.004064525 0.00839533 0.01886211 -0.010220295 -0.0135321915
-0.007780293 0.0010926658 0.03955455 0.021423098 -0.014259037 -0.009963574 0.014233732 0.029514868
0.0024502692 0.0032382407 -0.013945423 -0.033364907 0.018720271 0.00632652 -0.002296039 0.024385141
0.0110095665 -0.019611895 -0.015662104 0.026817458 -0.030373398 -0.0045958986 0.01032217 0.004642257
-0.036505338 -0.03177526 -0.014130908 0.017860204 0.0029829557 0.027569015 0.018535707 0.011160225
0.014419156 4.7707467 0.018439602 -0.0030623828 -0.025905022 0.004799834 -0.0035938355 -0.029444052
0.009288841 0.015067614 -0.0051113544 0.0055674445 -0.026806837 0.036366746 -0.008722633 -0.008800512
-0.014494978 -0.0026275488 0.0038037696 0.0007616045 -0.02200349 0.018003957 0.003934571 0.022981262
0.008646487 -0.015581133 -0.011384532 -0.001017629 0.02443127 -0.032351695 -0.014641129 0.0023025416
0.0024157998 -0.008137576 -0.008596623 -0.0018107928 -0.016383205 -0.034630846 0.011890775 0.0045969565
-0.002548956 0.013962772 -0.014357811 -0.0009698921
00000000: 7f35 983c ac46 673c d4be 9cbc a725 a1bb
00000010: b0fb 6b3c 34cc d53c 9aa4 96bc ebca b93c
00000020: 5902 403b 3c24 0a3d beab 7a3a 8efb 31bb
00000030: 73d0 e0bb b1be a3bc 870c 183d 5983 2dbc
00000040: 3612 06bc 506d 80bb 5441 073c b52f 853b
00000050: 918c 093c b684 9a3c 0673 27bc 20b6 5dbc
00000060: d4f1 febb c837 8f3a f403 223d 7e7f af3c
00000070: bc9e 69bc 423e 23bc 9934 693c 2ac9 f13c
00000080: b294 203b aa38 543b 587b 64bc a4a9 08bd
00000090: 415b 993c b24e cf3b 2479 16bb 59c3 c73c
000000a0: 7861 343c 20a9 a0bc d04d 80bc 49b0 db3c
000000b0: a2d1 f8bc 3199 96bb 521e 293c 131e 983b
000000c0: 9f86 15bd c626 02bd 5385 67bc 904f 923c
000000d0: b17d 433b 6ad8 e13c 32d8 973c 60d9 363c
000000e0: 533e 6c3c f5a9 9840 a60e 973c 42b2 48bb
000000f0: c536 d4bc ed47 9d3b 8e86 6bbb a734 f1bc
00000100: 3930 183c 27de 763c 267d a7bb 1c6f b63b
00000110: 039a dbbc 4cf5 143d 60e9 0ebc 0630 10bc
00000120: 587c 6dbc f432 2cbb aa48 793b 6aa6 473a
00000130: aa40 b4bc 097d 933c 93ed 803b 3343 bc3c
00000140: ffa9 0d3c 0248 7fbc 3086 3abc f761 85ba
00000150: 1624 c83c 3683 04bd 59e1 6fbc 3de6 163b
00000160: 6552 1e3b 7853 05bc dad8 0cbc 2058 edba
00000170: 1236 86bc 13d9 0dbd 86d1 423c 11a2 963b
00000180: 630c 27bb 1cc4 643c 063d 6bbc 5b40 7eba

g.2.weight f4 [100, 100]
-0.041343402 0.010360803 0.08479528 -0.038283113 -0.014386181 -0.012242642 -0.063780725 0.08756897
-0.021196645 -0.059315823 0.03547711 0.033080887 -0.12120619 -0.058140844 0.5560116 -0.028060941
-0.024033394 -0.07076627 0.06895427 0.096939854 0.5765941 -0.10147106 -0.011462094 0.058147233
0.05640461 0.0014941165 0.88580143 -0.028434053 0.0078037847 -0.08279665 0.08236996 0.06205556
-0.08243491 -0.077294216 0.021588719 -0.781165 -0.023940256 -0.01330101 -0.11329911 -0.011543172
-0.13735116 0.040848378 0.009577276 -0.05831914 -1.6266466 -0.05183715 -0.0026605753 -0.05035218
-1.0966238 0.057710685 0.002623272 0.97361094 -0.027429294 -0.057314977 -0.037785646 0.07751386
-0.04660292 2.2681265 -0.0243512 0.06418966 0.055775717 0.016144015 0.12889428 0.017015154
-0.051839057 0.019379081 0.10521965 0.14007396 -0.027791023 0.06638823 -0.075286366 -0.008622401
-0.06779327 0.05549514 0.050364327 -0.025791876 -0.01820834 -0.016374007 0.07154759 0.12487771
0.0705185 -0.082379274 -0.00702064 -0.09385548 0.119499 -0.5059779 -0.0030082925 0.060920745
0.0070116217 -0.080698125 0.05982643 0.04943227 -0.045150463 -0.032959804 0.04459005 0.05624351
0.026050074 0.08773645 0.090992786 -0.043839414 -0.0012187826 -0.0057906867 -0.0054566823 -0.019862259
-0.008885603 -0.03258386 -0.0071568293 -0.0014363732 -0.008007115 -0.025299735 -0.037671085 0.008633325
-0.0074330755 0.0135877 0.021565236 0.01186817 -0.008636839 -0.02357503 0.0069185267 0.0027576056
-0.15748434 -0.006110931 -0.012197099 0.014379211 0.0049340413 0.022159765 -0.0034978464 -0.019074315
0.0030977633 -0.026423901 -0.01023411 -0.014551694 -0.032100484 -0.020833738 0.030672878 0.051460687
-0.010594763 -0.012654784 -0.026410798 -0.0082746 0.021608757 0.03610575 -0.013071649 -0.0071913977
0.13117495 0.00074152043 -0.0006104582 -0.039516386 0.037170336 0.008604363 0.034186102 -0.2014319
-0.01686022 -0.01971633 -0.014146092 0.021304574 -0.013936383 0.061784733 0.0022331085 -0.01859442
0.0032813028 0.007902193 0.0044210684 -0.0037319218 -0.0037754797 0.013502102 0.0012850332 0.0006224492
0.02412141 0.037402343 -0.010335083 0.0035617105 0.040867463 -0.013827085 -0.015081286 0.009554902
0.015539985 -0.0015986809 -0.0041592713 -0.0052191075 0.024535904 -0.014098116 0.014776208 -0.0050499574
-0.008360716 0.1992549 0.016383851 -0.00039666938 0.009454478 0.0038224806 0.003010762 0.030654557
0.003157441 0.023924634 -0.0010156505 -0.005434684 -9.430043e-05 -0.011328994 0.029520288 0.004148871
0.030977225 -0.017665299 0.40049282 0.07248565 0.34732625 -0.4406376 -0.4259487 -0.17330581
-0.3060272 -0.246171 -0.116123535 0.0886032 0.41047782 0.031652935 -0.29458183 -0.050398063
-0.48660767 0.0898999 0.04017829 -0.06716664 -0.0358198 0.0014106994 -0.1325748 0.19346505
0.7030386 0.3330964 -0.5786973 -0.057429753 -0.09135214 0.35814252 -0.059828788 0.22129767
-0.005523998 0.24401072 -0.17065383 0.5356501 0.067772724 -0.35462743 -0.19428119 0.12967542
0.07583207 -0.18915424 0.3299655 0.31213176 0.9053336 0.2485465 0.2502553 -0.3285107
0.7568259 0.069880396 -0.274648 -0.12400151 -0.17853622 -0.088998586 0.45371926 0.26933017
00000000: b357 29bd 5cc0 293c 26a9 ad3d c1ce 1cbd
00000010: 04b4 6bbc 5d95 48bc 789f 82bd 5c57 b33d
00000020: 96a4 adbc 26f5 72bd 7250 113d d37f 073d
00000030: f33a f8bd 1825 6ebd c756 0e3f 0fe0 e5bc
00000040: aee1 c4bc e8ed 90bd e537 8d3d 6788 c63d
00000050: ac9b 133f 0fd0 cfbd 82cb 3bbc cb2b 6e3d
00000060: 8508 673d 3bd6 c33a e2c3 623f 88ee e8bc
00000070: e4b6 ff3b 4a91 a9bd 95b1 a83d f92d 7e3d
00000080: a2d3 a8bd 6e4c 9ebd d3da b03c 6efa 47bf
00000090: 5b1e c4bc 7bec 59bc 5d09 e8bd 931f 3dbc
000000a0: c8a5 0cbe a150 273d 02ea 1c3c 0de0 6ebd
000000b0: f535 d0bf 3153 54bd 0c5d 2ebb 163e 4ebd
000000c0: 2b5e 8cbf 0a62 6c3d 33eb 2b3b 913e 793f
000000d0: 66b3 e0bc 1cc3 6abd 1fc5 1abd 96bf 9e3d
000000e0: b4e2 3ebd fc28 1140 2b7c c7bc de75 833d
000000f0: 1475 643d 7440 843c ddfc 033e 5d63 8b3c
00000100: 3155 54bd e1c0 9e3c 667d d73d 8c6f 0f3e
00000110: 00aa e3bc 8df6 873d bd2f 9abd f944 0dbc
00000120: 33d7 8abd df4e 633d d34a 4e3d 7c49 d3bc
00000130: a829 95bc c822 86bc 8b87 923d e3bf ff3d
00000140: 016c 903d 77b6 a8bd 660d e6bb 4d37 c0bd
00000150: e4bb f43d c587 01bf c626 45bb 0888 793d
00000160: bfc1 e53b 0f45 a5bd 8f0c 753d 7e79 4a3d
00000170: b1ef 38bd dc00 07bd 0ea4 363d 985f 663d
00000180: f766 d53c 2baf b33d 6d5a ba3d f590 33bd
00000190: 8fbf 9fba cdbf bdbb f8cd b2bb 2db6 a2bc
000001a0: ec94 11bc a776 05bd d683 eabb b044 bcba
000001b0: 4630 03bc 6441 cfbc ff4c 1abd ca72 0d3c
000001c0: 2891 f3bb f29e 5e3c 94a9 b03c b772 423c
000001d0: 8781 0dbc 6c20 c1bc cfb4 e23b f2b8 343b
000001e0: 9343 21be 343e c8bb 57d6 47bc c896 6b3c
000001f0: bdad a13b 6588 b53c 203c 65bb bd41 9cbc
00000200: d803 4b3b f076 d8bc f8ac 27bc 3a6a 6ebc
00000210: cc7b 03bd 84ab aabc b045 fb3c 71c8 523d
00000220: a895 2dbc 0356 4fbc 755b d8bc 3092 07bc
00000230: d904 b13c 9fe3 133d 782a 56bc d1a5 ebbb
00000240: ba52 063e 9862 423a 2807 20ba efdb 21bd
00000250: ec3f 183d 50f9 0c3c ba06 0c3d 2a44 4ebe
00000260: 721e 8abc 2484 a1bc 03c5 67bc ee86 ae3c
00000270: 6d55 64bc fd11 7d3d 5859 123b 5353 98bc
00000280: 200b 573b 3378 013c 9cde 903b 4293 74bb
00000290: 0a6e 77bb ec37 5d3c 8f6e a83a dc2b 233a
000002a0: 439a c53c 3333 193d 7b54 29bc 966b 693b
000002b0: a464 273d ff8a 62bc 8017 77bc 2a8c 1c3c
000002c0: 6c9b 7e3c d48a d1ba 7f4a 88bb 0c05 abbb
000002d0: 85ff c83c c9fb 66bc e917 723c 1d7a a5bb
000002e0: 62fb 08bc 7a09 4c3e 6d37 863c 10f8 cfb9
000002f0: f4e6 1a3c 9582 7a3b 3450 453b 441f fb3c
00000300: 12ed 4e3b 98fd c33c 931f 85ba 6f15 b2bb
00000310: 28c3 c5b8 3f9d 39bc 88d4 f13c 41f3 873b
00000320: f3c3 fd3c d1b6 90bc 650d cd3e 5b73 943d
00000330: bfd4 b13e 409b e1be f315 dabe 1477 31be
00000340: 99af 9cbe 4014 7cbe 2dd2 edbd 9875 b53d
00000350: 262a d23e 82a6 013d 6ed3 96be 336e 4ebd
00000360: a424 f9be 701d b83d fe91 243d aa8e 89bd
00000370: c8b7 12bd 38e7 b83a b0c1 07be b41b 463e
00000380: 56fa 333f 9d8b aa3e 8225 14bf 763b 6bbd
00000390: d516 bbbd 755e b73e 080f 75bd db9b 623e
000003a0: a702 b5bb f2dd 793e e1bf 2ebe 5d20 093f
000003b0: 6dcc 8a3d ba91 b5be a6f1 46be a2c9 043e
000003c0: d84d 9b3d a6b1 41be 3df1 a83e bccf 9f3e
000003d0: f1c3 673f f982 7e3e 7621 803e 8e32 a8be
000003e0: 58bf 413f 741d 8f3d aa9e 8cbe 81f4 fdbd
000003f0: 33d2 36be e444 b6bd e44d e83e a5e5 893e

g.2.bias f4 [100]
2.386219 -0.08003553 -2.8165524 3.0085304 -0.20695856 2.7289376 -0.01229698 2.5400784
-2.827289 -2.4968095 -2.3222427 1.931728 0.090495616 0.00415474 -2.1581442 0.13743798
-0.059245672 -2.5871165 0.051485892 -0.13637829 0.042114593 0.15628067 0.077265844 -0.13744578
-0.06892412 0.16452481 -0.10881202 0.01566017 0.12876236 -0.070393845 0.11762158 -0.10360729
-0.13092527 -0.114426866 0.08410739 -0.12686278 -0.072351106 0.107047655 -0.042842127 0.12569267
0.05232258 0.07414004 0.17798306 -0.1105875 -0.10351042 -3.0392318 0.11945056 0.005846322
-0.125853 0.07405945 0.102166034 0.0059331795 -0.088068835 -0.15777916 -0.07447196 -0.014386951
-2.5173185 0.11895677 0.069899425 0.09684497 0.085354745 3.1911116 -0.08959495 0.06476158
-3.3433778 0.101075806 0.085994266 -3.3154507 -0.12406137 -0.10395903 0.13864517 0.09648584
-0.11485051 0.13800837 0.09526449 0.07022507 2.5181177 -0.105296515 0.12474704 0.08422305
-0.05905539 0.17017375 -0.1066687 -0.13357332 0.09236995 -0.13442545 -0.022444759 0.1439104
0.08402801 1.185112 -0.08481117 -0.041810494 -1.003865 -2.5521822 0.07440908 -0.13525197
0.14643854 -0.095779285 -2.3259163 -0.08164251
00000000: d0b7 1840 abe9 a3bd 6542 34c0 c38b 4040
00000010: f2ec 53be eaa6 2e40 4679 49bc a590 2240
00000020: 4ef2 34c0 bacb 1fc0 a09f 14c0 dd42 f73f
00000030: c455 b93d 7c24 883b 091f 0ac0 8bbc 0c3e
00000040: 97ab 72bd 5193 25c0 dfe2 523d c0a6 0bbe
00000050: 5a80 2c3d 0a08 203e 8e3d 9e3d 96be 0cbe
00000060: 1728 8dbd 3179 283e d6d8 debd c249 803c
00000070: 48da 033e a62a 90bd 95e3 f03d 0f30 d4bd
00000080: 4611 06be a258 eabd 7f40 ac3d 51e8 01be
00000090: d12c 94bd cd3b db3d 3a7b 2fbd 94b5 003e
000000a0: 3450 563d bcd6 973d 3141 363e b37b e2bd
000000b0: 45fd d3bd c682 42c0 7fa2 f43d 8192 bf3b
000000c0: 9cdf 00be 7bac 973d 6d3c d13d 1e6b c23b
000000d0: 6f5d b4bd dc90 21be c184 98bd 3fb7 6bbc
000000e0: bf1b 21c0 9b9f f33d 6e27 8f3d a856 c63d
000000f0: 78ce ae3d 2c3b 4c40 8f7d b7bd b8a1 843d
00000100: e7f9 55c0 d500 cf3d c31d b03d 5830 54c0
00000110: e313 febd 79e8 d4bd 00f9 0d3e 5e9a c53d
00000120: bf36 ebbd 1152 0d3e 071a c33d 29d2 8f3d
00000130: d728 2140 b3a5 d7bd 607b ff3d 227d ac3d
00000140: 11e4 71bd 0742 2e3e 1f75 dabd 72c7 08be
00000150: 752c bd3d d3a6 09be 12de b7bc 3f5d 133e
00000160: e116 ac3d c0b1 973f 7bb1 adbd 7b41 2bbd
00000170: a67e 80bf f456 23c0 ca63 983d 7e7f 0abe
00000180: fcf3 153e ee27 c4bd d0db 14c0 3034 a7bd

g.4.weight f4 [1, 100]
-0.19977444 0.10544034 0.12816896 -0.13550766 0.07481728 0.10878738 8.318399e-06 -0.24465692
0.12657024 -0.09625035 -0.30589393 -0.1383875 -0.06460981 0.0015941059 -0.082103916 -0.17368285
0.032270107 0.07866192 -0.04775627 0.04462023 -0.018259572 -0.17028353 -0.016655734 0.1083322
0.0026799785 -0.14490674 0.11083732 -0.014754319 -0.21626079 -0.0018236414 -0.13872859 0.07726979
0.037309494 0.079360075 -0.11931614 0.0040084603 0.026478276 -0.010357041 0.008991001 -0.21008757
-0.117442325 -0.15843424 -0.10711078 0.06192605 0.09553326 0.09261256 -0.11518535 0.004195202
0.12228231 -0.088166125 -0.16415973 0.017357199 0.11292897 0.1638074 0.06865273 0.007667616
0.191785 -0.14931317 -0.087842375 -0.14406978 -0.0017848909 -0.1824576 0.056926485 -0.07087246
0.123581074 -0.08822193 -0.045694273 0.22061051 0.14970501 0.0067507327 -0.043374073 -0.10467018
0.121715754 -0.06784055 -0.06757027 0.0007168169 0.12449743 0.06849619 -0.093409665 -0.017448084
0.14158528 -0.048168514 0.09552266 0.0773609 -0.107049085 -0.008561657 0.006978834 -0.14878903
-0.09600704 0.3567345 0.11312352 0.12961277 0.19991036 -0.03846221 -0.006239292 0.11009925
-0.06266891 0.08089487 0.19551603 -0.021822484
00000000: ac91 4cbe 1bf1 d73d b93e 033e 85c2 0abe
00000010: cd39 993d ebcb de3d 408f 0b37 5887 7abe
00000020: a19b 013e e71e c5bd 219e 9cbe 74b5 0dbe
00000030: 2652 84bd 51f1 d03a 1926 a8bd ebd9 31be
00000040: a92d 043d 8019 a13d 149c 43bd b4c3 363d
00000050: 1995 95bc ce5e 2ebe 9b71 88bc 46dd dd3d
00000060: 94a2 2f3b 6f62 14be adfe e23d 19bc 71bc
00000070: 7873 5dbe 4007 efba de0e 0ebe a03f 9e3d
00000080: d7d1 183d 8987 a23d 055c f4bd 6759 833b
00000090: f8e8 d83c 94b0 29bc fe4e 133c 3221 57be
000000a0: 9a85 f0bd 963c 22be e65c dbbd 2ba6 7d3d
000000b0: f1a6 c33d a7ab bd3d 4ce6 ebbd e877 893b
000000c0: 266f fa3d 7190 b4bd 7d19 28be af30 8e3c
000000d0: 4e47 e73d 21bd 273e cd99 8c3d a040 fb3b
000000e0: 4963 443e 8de5 18be b4e6 b3bd 0787 13be
000000f0: 00f3 e9ba 2ad6 3abe bf2b 693d 9525 91bd
00000100: 1318 fd3d b3ad b4bd eb29 3bbd b9e7 613e
00000110: 454c 193e 4035 dd3b 03a9 31bd 525d d6bd
00000120: 1c46 f93d fcef 8abd 4862 8abd c5e8 3b3a
00000130: 82f8 fe3d bb47 8c3d 914d bfbd 49ef 8ebc
00000140: bbfb 103e 594c 45bd 62a1 c33d 646f 9e3d
00000150: 8d3c dbbd 3146 0cbc b4ae e43b 275c 18be
00000160: 579f c4bd e8a5 b63e 4ead e73d 36b9 043e
00000170: 4db5 4c3e 8d8a 1dbd fa72 ccbb b77b e13d
00000180: 8f58 80bd 36ac a53d 5b35 483e 11c5 b2bc
