models/adult_ERM_mlp_s4.pth (torch, 45925 bytes, 5 tensors)

g.0.weight f4 [100, 6]
00000000: 772c 0b3f 6e92 cebd ff02 a1be 0766 143f
00000010: 3dac 493d b8cb 8a3e be2c 373f fa01 533f
00000020: 36e1 25be 3c96 343f 39e7 1dbf 7e46 393e
00000030: 078c 793f 11c7 203f bf23 48bf 700c 443f
00000040: 47fa 2c3f 5f68 933e c04c 2b3d 2d74 933e
00000050: 7cbc 203e 08ef f23d b7b7 86bd ad89 4cbf
00000060: 0f21 d0bc 9952 82be 8429 833e b4e2 533f
00000070: d8c6 283f d2c5 5cbe d655 1040 e802 07bf
00000080: ea02 23be 9716 333f 9dae 9b3f 1152 3cbf
00000090: b1ca 55bf 22cd b2be a600 2d3f cb07 02bf
000000a0: cc10 b3be 983b 74be 147d 253a 03ca 7cbf
000000b0: 5075 01bf cb6f 8e3f 112e 20be 1091 91be
000000c0: 29f4 c6be 4196 c03f b9fb 0d3e 1ec1 333f
000000d0: fc52 f33e b5aa 1cbf a6dc 96bf 5209 ff3e
000000e0: 31db 2e3f e9ea 693f 0074 243f 666c 5f3f
000000f0: cbf2 1dbf 9b99 813f cd99 02bf 79f5 6b3f
00000100: a2cb af3e 4d4e 993f 1206 dfbe d1cb 80bd
00000110: 2ddc b2bd 29f9 df3d 1cdf f0bd 62ac 81c0
00000120: ed58 3abf a731 35be f002 f03d 0ffb bf3f
00000130: da04 333f 82e7 e4bd cd29 a0be 67a5 f33e
00000140: 1cc4 973e 101e 053f 1060 37bf 245d 9abd
00000150: ef44 89be fff2 8bbd 83ef 3c3f 7a59 95be
00000160: 6ee1 513e 8489 8ebe 7a61 2ebe 92f6 8a3f
00000170: 0168 093f 9545 e63e fa83 363f 43e3 fcbe
00000180: 026c aebf a929 8d3e d1f3 c93e 8630 b4bf
00000190: 1d9d fbbe 0f6d 183e f4e9 f53f 5966 b63d
000001a0: 2329 c7be 2830 623f 8722 b73e 55e6 28bd
000001b0: 7648 853d 6d57 59bd b965 df3d 8705 d8be
000001c0: 5a4b 51bf c943 ac3e fb21 a1bd 7581 363e
000001d0: dc00 8ebe fa7d 56bf 9ef9 f7bd 99ca 7cbd
000001e0: 59dd b23e 1e9c fa3e 30ae 3bbf c7d0 d3be
000001f0: d69f 1bbe 4690 c43e d13c 023f 9f51 173f
00000200: 804b 8c3e 700c 453f 98a8 2cbf f8fc 4840
00000210: 89b2 d8be 8478 03bf 03ea 303f ff57 06bf
00000220: 30ea 80be bfcb 5c3e 52ac 283f aa10 43bf
00000230: 08e9 bbbe e5eb 84be 8e94 36bf fded a53e
00000240: 3f73 bf3e d138 ffbe a3cf c7bc 4e6d 933e
00000250: 3405 043f 8e10 11be 168a bdbe 407c cd38
00000260: 01f5 273d 3e28 5dbc cf69 19bf e4a9 aabd
00000270: b648 11bf d74f 6c3f 5749 6a3e c7ca 8cbe
00000280: 6557 b8be 44be 16be 8e44 89be 24b6 babe
00000290: 8597 45be 3991 f23d 7506 923f 877b 81be
000002a0: a6cc de3f 9f4f abbf 3b45 993f 5e39 38bd
000002b0: 7de9 b23f 081c 39bf 6292 fd3d 3c63 123f
000002c0: 4f7b a9bd 9716 60bf 1894 4e3d a44a bd3e
000002d0: 037e 52bd 8226 66bf a444 06be a40f e4be
000002e0: 36c5 b5bf 5409 5cbf ab10 023f 7fa7 5fbf
000002f0: 60fe acbe e6c2 93be 7066 1fbd b96a 92bd
00000300: 4a49 6d3f b564 3ebf 0eb1 52bf 72c6 cc3e
00000310: 91d7 e9be 2449 a5bd 8c15 943f 061a c1bf
00000320: 1d9d bcbe 812d 90bf 3a36 e2be 843e 04bd
00000330: 988e c93d a5ac 95bb f400 82be f10f 4dbe
00000340: 16d3 2abf c675 983d da4e a83d 587a 6a3f
00000350: 4068 50bf dafd 673e a200 443e da00 783e
00000360: 2e6e 9e3c 085f 1abf d53f d63e 0718 c93f
00000370: 14c0 853f ed59 88be 1fa2 8cbf 50c0 e53e
00000380: b36d e13e b1d5 81be 2a4c 843d 0e06 9f3e
00000390: 745e f33d ffd1 853c d275 13be c34d a2be
000003a0: 9d28 823f 1611 2f3e 0796 b93e 59fa ae3e
000003b0: 3f08 b0be 38c2 c6bf f459 55be 5f63 533e
000003c0: ca30 5ebf c604 6a3e d246 633d 247e c93e
000003d0: 26b5 573f d96f a03d 320a 5ebf c826 843f
000003e0: 18ce 9b3e 4a8e 5f3f 455f d4bf e28d 9dbf
000003f0: b3f9 b7bf 7541 7bbe 5857 7a3c 2814 9fbf
0.5436472 -0.10086523 -0.31447598 0.5796818 0.049236525 0.2710855 0.71552646 0.8242489
-0.16199192 0.7054174 -0.6168094 0.18093297 0.9747929 0.6280375 -0.78179544 0.7658148
0.6756939 0.28790566 0.04182124 0.28799573 0.15696901 0.11861998 -0.065780096 -0.79897577
-0.025406389 -0.25453642 0.2561761 0.82767797 0.6592841 -0.21559837 2.255239 -0.5273881
-0.1591908 0.69956344 1.2162663 -0.73562723 -0.8351241 -0.3492213 0.67579114 -0.5079314
-0.34973752 -0.23850858 0.00063128886 -0.98745745 -0.5056963 1.1127867 -0.15642573 -0.28430986
-0.38858154 1.5045854 0.13865556 0.7021655 0.4752425 -0.6119798 -1.1786087 0.49811798
0.6830321 0.9137407 0.642395 0.8727478 -0.616986 1.0125002 -0.5101593 0.92171437
0.34335047 1.197702 -0.4355932 -0.06288875 -0.087334014 0.109361954 -0.11761305 -4.052293
-0.7279194 -0.17694722 0.1171931 1.4998492 0.6992928 -0.11176969 -0.3128189 0.4758713
0.29641807 0.51998997 -0.71630955 -0.075372964 -0.26810405 -0.06833457 0.73802966 -0.29169828
0.20496151 -0.2783929 -0.17029372 1.0856497 0.5367432 0.44974962 0.7129513 -0.49392137
-1.3626711 0.27570847 0.3944383 -1.4077308 -0.49143305 0.14885353 1.9212022 0.0890624
-0.38898572 0.8835473 0.3576853 -0.041235287 0.065079615 -0.05306189 0.10908074 -0.42191717
-0.817556 0.33645466 -0.078678094 0.17822821 -0.2773503 -0.83785975 -0.121081576 -0.06171665
0.349345 0.48947233 -0.73312664 -0.41370222 -0.15197691 0.38391322 0.5087405 0.5910892
0.27401352 0.76972103 -0.67444754 3.14044 -0.42323712 -0.5135577 0.69107074 -0.5247802
-0.2517867 0.21562098 0.6588794 -0.761973 -0.36701226 -0.25961223 -0.71320426 0.32408133
0.37392613 -0.49848035 -0.024391001 0.2879433 0.5157044 -0.14166471 -0.37019414 9.798305e-05
0.04100514 -0.013498364 -0.59927076 -0.08333185 -0.56751573 0.92309326 0.2287954 -0.27498457
-0.36004177 -0.14721018 -0.26810116 -0.36467087 -0.19296081 0.11844105 1.140822 -0.25289556
1.7406204 -1.3383673 1.1974252 -0.044976585 1.3977505 -0.723084 0.12381436 0.5718267
-0.082754724 -0.8753447 0.050434202 0.3697101 -0.051389705 -0.8990251 -0.13112122 -0.44543183
-1.4200809 -0.85951734 0.50806683 -0.87364954 -0.33787823 -0.28859633 -0.03891605 -0.07149262
0.92689955 -0.74372417 -0.82301414 0.39995152 -0.45672277 -0.08070591 1.1569076 -1.5086067
-0.36838618 -1.1263887 -0.44181997 -0.032286182 0.09841651 -0.0045677 -0.25391352 -0.20025612
-0.6672834 0.074443385 0.08218165 0.9159293 -0.8140907 0.2265543 0.19140866 0.24219075
0.019339647 -0.60301256 0.41845575 1.5710458 1.0449243 -0.26631108 -1.0986975 0.44873285
0.44029006 -0.25358346 0.0645984 0.31059307 0.1188325 0.016335486 -0.14400414 -0.31699952
1.0168644 0.17096362 0.36247274 0.34175375 -0.3438129 -1.5528021 -0.20835096 0.20643376
-0.86793196 0.22853383 0.05548746 0.3935405 0.84260786 0.07833833 -0.86734307 1.0324335
0.30430675 0.8732649 -1.6591574 -1.2308924 -1.4373077 -0.24536689 0.015279613 -1.2428026

g.0.bias f4 [100]
00000000: 179a 17bf c795 3e3f ba07 febe df0f 15bf
00000010: 7f3d 95bf 1363 203f de45 c03e 77f5 eebe
00000020: 5e86 40bf f770 e3bc 0163 6e3e 3520 993f
00000030: 5d9a ffbe f75b a43f 76de f2be 3305 1ebf
00000040: 1a76 1c3f 022b 50bf 1c5d 983f 3bfe ec3e
00000050: f6b5 0a3f d675 c1be d4fb a63e f856 393f
00000060: 2a1d 92bf a3c6 a83f 52a4 a03f 911f a0bf
00000070: 5df5 263e 3f4f 0c3f 0de9 89bf b8f8 97bf
00000080: d3e9 22bf eed3 ee3e 279f 993f b817 e83e
00000090: b5ca 43bf 6671 ec3e 9ad6 c2bf fa68 ea3e
000000a0: 9374 04bf 971f 90be 6022 afbd 1a06 abbf
000000b0: 54eb 89bf 26c3 58bf 5d95 60bf c4be 693f
000000c0: 6001 65bf 5ff7 c93e ca8a 5b3e dfb3 3d3e
000000d0: cf26 00bf fd01 1cbf 79e4 573f 6b73 003f
000000e0: 6325 753f 045f 6bbe 162a 0dbe b075 b6bd
000000f0: 2ec1 cbbe 2d1a eebe 0cd7 9cbf bb92 9b3f
00000100: f5d8 693f 05bf 043f a58a 873e a15c 4abe
00000110: 5eff 583e 479f 03bf 4ac7 9abd dfe5 96be
00000120: b327 593e b2d0 8c3f 62c3 6f3e 19a2 c73e
00000130: f270 be3d b787 8a3f 2908 333f bfb1 9bbf
00000140: 0e91 813f f1c4 64bf 4faa 263f 0eb5 953f
00000150: 9e0d 86bf f0a9 ad3e 5b90 96be 86b5 17bd
00000160: 889d d43e 6431 463d 429a 83bd 8ed5 7abe
00000170: dc66 713f 90ba 87bf 386f 5cbf db04 4dbf
00000180: f202 0c3f 10be 8d3f d122 973e b135 1dbf
-0.592195 0.7444729 -0.4961527 -0.5822734 -1.1659392 0.62651175 0.37553304 -0.4667165
-0.7520503 -0.027763827 0.23279954 1.1962954 -0.49922457 1.2840565 -0.4743535 -0.61726683
0.6111771 -0.81315625 1.1903415 0.46287712 0.541839 -0.37785214 0.32614005 0.7239833
-1.141515 1.3185619 1.2550147 -1.2509633 0.16304536 0.5480842 -1.0774246 -1.1872778
-0.6363804 0.46646065 1.2001694 0.45330596 -0.7648118 0.46180266 -1.5221741 0.45783216
-0.5174038 -0.281491 -0.085514784 -1.3361237 -1.0774941 -0.8467277 -0.8772791 0.9130671
-0.89455223 0.39446542 0.21439663 0.18525647 -0.5005922 -0.60940534 0.84332997 0.50176114
0.9576017 -0.22985464 -0.13785586 -0.08909166 -0.39795822 -0.46504346 -1.2253127 1.2154154
0.91346675 0.5185397 0.26472965 -0.19761898 0.21191165 -0.5141491 -0.075575426 -0.29472253
0.2120655 1.1001189 0.23414376 0.38990858 0.09298886 1.0822667 0.69934326 -1.2163619
1.0122392 -0.8936301 0.6510362 1.1695879 -1.0472906 0.33918715 -0.2940701 -0.03703835
0.41526437 0.048386946 -0.06425907 -0.24495527 0.94297576 -1.0603809 -0.86107206 -0.80085534
0.54691994 1.1073627 0.2951875 -0.6141005

g.2.weight f4 [100, 100]
00000000: b003 b33e a556 5c3e b643 0c3f 8e1e e9bc
00000010: b057 b9be c00c d53e c7f8 ebbe 0e69 f3bd
00000020: fcbe aa3f 58e6 793f 5271 823f 25e6 ebbe
00000030: e3f7 f6be dc4c 46be 8722 f5be 6372 273f
00000040: 6ea5 c5be c603 e23d 12c4 873e c016 94bc
00000050: 775d c23e 64ad 453f dd7b 01bf a132 6cbc
00000060: 7287 76be 140e 5bbe 4ba8 c73e cef7 9ebe
00000070: a095 e43d 2ec2 993e 3981 c7be 86cc a93b
00000080: a1d2 3d3d bfec c3bf c5cd 2abe bd49 133f
00000090: 0e31 c0be 496f 9ebd 491e 1e3e 232d d43e
000000a0: 6e2f 053f 7c5c da3e 4b30 95be dd70 333c
000000b0: 9b90 92bd 5d7c ccbe 298f 1f3e 6778 513e
000000c0: 5d99 d83e 9854 233f 16fa 2d40 c291 ed3e
000000d0: aa8c 2f3e 69dd 10bf 939c 73bd 6c0d 073f
000000e0: e3f8 eabd 55c1 eabf 6cd0 27bf a27f 1cbf
000000f0: 426e 06c0 4fc1 303e 24cf 4abe f651 073f
00000100: 09f6 d6bd c55f 0a3f 5482 723f 5192 ebbf
00000110: 0538 303e 15ec 03c0 4bec 283d 65f7 1ec0
00000120: a6a5 bfbf 8e81 1a40 83d3 cb3e dde8 ec3d
00000130: ba41 4dbd bfbd 373e 2a62 52be a124 b83d
00000140: c6fe 04be 4aa6 ed3e f05a 113f 6cbb 9abe
00000150: 0fc1 fdbe cc21 18bf 62f6 d93d 4352 90be
00000160: b481 a43e 20ff 2d3e 20fc 86bb d8bf af3f
00000170: 77c8 5ebe 470e 69be f1a1 6bbe 9b13 83be
00000180: 02c5 b8be 1895 73be 3d75 c03e 2945 6bbd
00000190: 8a56 b5bd 9194 87be 0960 8cbe d1f5 c23e
000001a0: 8380 e13e 149f 21bf b84c 0d3d a5d9 ec3d
000001b0: 6333 ab3e 3505 a03d 3574 4dbe fe5c 14bf
000001c0: 66dd 4d3e 403f 0dbf ad88 87be c6d2 6f3e
000001d0: f035 a23e 40c7 74be 619e f9be db97 933e
000001e0: 42b4 943e fb71 803c 8fd3 b33e c60d 8ebe
000001f0: d94d f83e 31c3 6fbd 3b63 d9be c8bd 513e
00000200: 479e 07bf 35c2 adbe 728e 353f 9b98 193f
00000210: ee74 f63d cb52 c1bd 8fa5 8b3d c35a 403b
00000220: 1d62 4dbe 6226 01be 538d 193f 50df e4bb
00000230: 5feb 0b3e 8386 163f 32c1 7e3e 11f7 1d3f
00000240: f561 c6bc c217 b33e 5827 9f3e d5c1 40be
00000250: 0557 24be 26e1 083d 56f6 3d3d c21f 3a3d
00000260: 4896 f83e a9ab 423e 77e3 20be 552c 1ebf
00000270: 1af4 2d3d 37fc 803e 3237 443d 476f d7bd
00000280: 7303 003e 4a92 a83e 3a95 f73e f187 debd
00000290: 50ab e13d 520e dd3d 6c38 563d 06e3 6b3e
000002a0: b85c db37 0357 29bd 335a fabe 737c 373d
000002b0: a5c0 2b3d cbbe ddbe 0d99 083e 90f0 2cbe
000002c0: c0c6 1e3d 0b61 10bf b642 c5bb e309 f93e
000002d0: f191 9fbe 5878 5e3f ae11 a93d aa7f b8be
000002e0: 8439 a73e b07e 7b3d b343 bb3d d073 b5be
000002f0: 5885 573e 8453 31bf 235a 15be f5cd 383d
00000300: 0b59 d6be 305e ab3e 2d6a 453e 0dda 993e
00000310: 7334 23bd 5c9c 9abe e81e 033e 7cb5 6ebc
00000320: 54ab 173f 756d 38bf 7974 f1bd 721f 5a3d
00000330: e11c 173e 0502 3fbf 04d7 86bd 0701 063e
00000340: 9474 a63d c5bf 3bbe 09b0 723e 1875 30be
00000350: f37c bdbd cb5d 4fbf 3334 603d ff2c cebd
00000360: 6c62 143f 8c18 9f3d de58 94be 6b50 ab3e
00000370: 998d 223e 5bdb b83c 8f0f 9cbe 3851 a4be
00000380: 787a 973e 73cd 56be 97f2 03bf e656 903e
00000390: 3650 53bf a2db 62be 7dec 773f f058 5b3f
000003a0: e4fd 223e 22a1 31be bbf5 8ebe 0aa5 3dbe
000003b0: e30f 23bf 7b07 923e 2e82 233f d9bd 273e
000003c0: f685 373e 003c 9b3e 1644 223f c218 cc3e
000003d0: 2ea4 c03e 4a80 8a3f a922 2f3e e683 febc
000003e0: 13e5 693e 48b2 613e 3a08 1bbd 5913 a5be
000003f0: 5c2e 043f d948 20be dab1 eabd 3eeb 3ebf
0.3496375 0.21517427 0.5479082 -0.028456952 -0.36199713 0.4161129 -0.4608824 -0.11885272
1.3339534 0.976171 1.0190833 -0.46074024 -0.48235998 -0.19365257 -0.47877905 0.65408915
-0.38602775 0.11035876 0.26516777 -0.018077254 0.37961933 0.772177 -0.50579625 -0.014416368
-0.24075106 -0.21392089 0.38995585 -0.31048435 0.11161351 0.3003096 -0.38965777 0.005181852
0.04634345 -1.5306624 -0.16680057 0.5753439 -0.37537426 -0.0773607 0.1544124 0.41440687
0.52025497 0.42648685 -0.29138407 0.010952202 -0.071564876 -0.39938632 0.15581955 0.20456086
0.42304507 0.63800955 2.718389 0.46400267 0.17143503 -0.56587845 -0.059475493 0.52754855
-0.114732526 -1.834025 -0.655524 -0.6113225 -2.1004796 0.17261241 -0.1980558 0.5285944
-0.10496146 0.5405238 0.94730115 -1.8404027 0.1720887 -2.0612843 0.04124097 -2.4838498
-1.4972427 2.4141574 0.39809808 0.11567853 -0.05011151 0.17943476 -0.20545259 0.089913614
-0.12987813 0.4641593 0.56779385 -0.30221117 -0.49561355 -0.5942657 0.10642697 -0.2818776
0.32130206 0.16991854 -0.004119411 1.3730421 -0.21756159 -0.22759353 -0.23010994 -0.25600895
-0.36087805 -0.23787344 0.37589446 -0.057439003 -0.08854397 -0.26480535 -0.2741702 0.38078168
0.4404336 -0.6313336 0.034496993 0.1156495 0.33437642 0.07813493 -0.2006386 -0.57954395
0.20103988 -0.55174637 -0.26471463 0.23420247 0.31681776 -0.23904133 -0.48753646 0.28826794
0.29043776 0.01567935 0.35122344 -0.27744883 0.48496893 -0.05853576 -0.4245852 0.20482552
-0.5297589 -0.3393723 0.7092048 0.5999848 0.12034021 -0.0943962 0.06818687 0.0029350973
-0.20056958 -0.12612298 0.5998127 -0.0069846287 0.13664006 0.58799 0.24878386 0.6170512
-0.024216631 0.34979063 0.31084704 -0.18823941 -0.1604882 0.033417843 0.046377502 0.045440443
0.48552155 0.19010796 -0.15711771 -0.61786395 0.04246912 0.25192425 0.0479042 -0.10519271
0.12501316 0.3292411 0.48356038 -0.108657725 0.110190034 0.10793747 0.0522999 0.23035821
2.615001e-05 -0.041342746 -0.48896942 0.04479642 0.041931767 -0.43309626 0.13339634 -0.16888642
0.03876376 -0.56398076 -0.0060199155 0.48640355 -0.31166032 0.8690238 0.08255325 -0.360349
0.32661068 0.061400115 0.09143772 -0.3543992 0.2104696 -0.6926806 -0.14585166 0.04511829
-0.4186481 0.33470297 0.19278784 0.30049172 -0.03984494 -0.30197418 0.12804759 -0.014569636
0.592458 -0.7204202 -0.117897935 0.053252645 0.1475711 -0.74612457 -0.0658398 0.1308633
0.08127704 -0.18334873 0.23699965 -0.17232168 -0.09252348 -0.8100249 0.05473728 -0.10067176
0.5796268 0.07768354 -0.2897405 0.33459792 0.15874328 0.022565534 -0.3048062 -0.32093215
0.29585624 -0.2097681 -0.5154204 0.28191298 -0.8254427 -0.22154096 0.9684523 0.8568258
0.15917164 -0.17346624 -0.27921852 -0.18519989 -0.63696116 0.28521332 0.63870513 0.16381015
0.17922196 0.30319214 0.6338514 0.3986264 0.3762526 1.0820401 0.17103066 -0.031068753
0.22841291 0.22040665 -0.037849642 -0.32241324 0.5163324 -0.15652789 -0.11459704 -0.745777

g.2.bias f4 [100]
00000000: da9c 4b3e bd29 6abf 042b a9bf db6b 78bf
00000010: 0965 263e 31ac 06bf cdd5 0ebe 3aec 32bf
00000020: bb58 ae3f f280 0e3f 7e67 ff3e 53e0 cebb
00000030: f4e5 303f 3e8d d93e 7812 313f 264d 903e
00000040: 22ed 243d 6c34 0dbf 60cd 323f 9b0d bebd
00000050: 6ade 943e 3841 de3e 34cf b53d a3f3 41bd
00000060: ba3f 7abf 403e 023e cbff 913f c13c 8e3f
00000070: 5a2c ed3b f720 8a3e 9c49 823f 4c1a 713e
00000080: 207b ac3f 6dbd 073f 0fe8 67be b768 85bf
00000090: a4c4 1b3f 697b a73e d5fd 053f fdfc 643e
000000a0: 46d0 6f3c 5ff2 9d3d e02e b2bd 3e38 8dbe
000000b0: 0ab8 3ebe 2ede 983f 67e5 b73f 9c6c 723e
000000c0: ae83 743f afee 0c3f a0d7 833f e400 b1be
000000d0: 89ba 7bbf 98fe 0f3f 2957 afbf c70b 20bf
000000e0: 36cd a63c a00e 213d a0ab 30bf 627b 693e
000000f0: 3e69 a83d ad73 163f ca83 a7be c3f1 9fbf
00000100: 978f 003e 4a54 edbc 54cc b7bf 61cc 86be
00000110: 8b46 973e 0919 debe 9a1c d0be da87 243f
00000120: da33 a7bf 70f7 f43d d110 bfbf 95a2 96be
00000130: 6c08 813e de09 47bf 8c64 11bf db4c 383f
00000140: 90d2 c83e c536 423e 3a04 bdbc 0017 0f3f
00000150: 89fd 85be 3743 8dbf b0f1 83bd 711c 613e
00000160: a451 163e 6388 dfbe d681 6b3f c9db 293f
00000170: 07f7 b23e 2f57 223f 6446 d3be 3187 2fbf
00000180: c999 3c3f 5b6e 70be 6c6f 25bf 6710 3ebf
0.19884053 -0.9146994 -1.3216252 -0.97039574 0.1624948 -0.52606493 -0.13948746 -0.69891703
1.3620828 0.55665505 0.49883646 -0.0063133626 0.6910088 0.42490572 0.69168806 0.2818386
0.04026521 -0.55158114 0.6984463 -0.09279939 0.29075938 0.43409133 0.088774115 -0.04735149
-0.9775349 0.12719059 1.1406187 1.1112291 0.007237953 0.26978275 1.0178714 0.23545188
1.3475075 0.53023416 -0.22647117 -1.0422581 0.60846925 0.32711342 0.5234044 0.22362132
0.014637059 0.07712244 -0.08700347 -0.27581972 -0.18624893 1.1942804 1.4366883 0.23674244
0.9551343 0.550517 1.0300179 -0.34570992 -0.98331505 0.56247854 -1.3698474 -0.6251797
0.020361524 0.039320588 -0.6901188 0.22800973 0.08223198 0.5877026 -0.32717735 -1.2495655
0.12554775 -0.028970856 -1.4359231 -0.26327804 0.29546008 -0.43378475 -0.4064682 0.64269793
-1.3062699 0.119612575 -1.4927007 -0.29420915 0.25201738 -0.7774943 -0.5679405 0.7199227
0.39223146 0.18966205 -0.023073304 0.5589447 -0.26169994 -1.1036137 -0.064425826 0.21983506
0.14679581 -0.43658742 0.9199499 0.6635099 0.34954092 0.6341428 -0.4126464 -0.6856566
0.7367216 -0.23479597 -0.6462314 -0.7424378

g.4.weight f4 [1, 100]
00000000: b6e8 703c 9c8c 863d ea46 b03e 71a8 383d
00000010: cbe7 b4bc b030 533d fb99 6f3d 6678 bb3c
00000020: 5da2 91bd 17d3 d4bd d28e 9b3d 5cd1 edbc
00000030: f761 85bd ed39 583d bb09 353c 3386 aa3e
00000040: b71f 983c 309c 3ebd 865d cebd 8ea4 e0bd
00000050: 738e 223e 7a0b de3c dc67 733c 3615 85bd
00000060: 6bb5 503d 938d dcbd 0ad9 a8be c7ab 98bd
00000070: 9836 bfbd 47cb a73c fc87 333e d66e cd3c
00000080: 1188 4cbd 1d75 f83c a28e dfbd 1d43 8a3e
00000090: 8403 79bd 7868 89bc c238 453e 2b3e 09be
000000a0: 4c0f 41bc bf6e 28bd 0ddb 03be 7895 95be
000000b0: 5e72 3ebb 397b fcbc 4bf4 87bd a209 9d3d
000000c0: a319 ba3d f3b8 7f3c 224d 173b 1e55 abbd
000000d0: 1087 1f3d 1594 673d 7aea f33d 9a85 febc
000000e0: 747a a73c b0e4 a6b9 e3f2 90bd 755b 2c3e
000000f0: 1e75 013d b88f b5bb 89d6 e2bd bcf9 ad3e
00000100: 943c 9b3c 3ea1 ebbd 81c1 863e 03fc 7abd
00000110: 1ca0 713c d0a1 2e3d 60b3 fe39 7c15 893c
00000120: 603a 5cbe 0def 77bc ed2c 963e 4c76 b53c
00000130: 272a 173e 5e4a 8e3d 6c51 92bc 842a 9c3d
00000140: 60e8 f0bb e6b2 a8bd b1da 58bd 31c5 043e
00000150: def7 86bd cc3c 1c3e 53ca 85bc fe5a ac3d
00000160: da2d 7a3d 67a0 13bd ac06 943d bd70 45bd
00000170: 76f5 87bc 3f25 45bd 227c c9bc b411 02bc
00000180: 6869 33bd 285e bf3d 71d0 893d b263 a63d
0.01470392 0.06569788 0.34429103 0.045082513 -0.022083184 0.051560104 0.058496457 0.022884559
-0.071110465 -0.10391825 0.075956 -0.029030494 -0.06512826 0.052789617 0.011049683 0.3330551
0.01856981 -0.04653567 -0.10076432 -0.10968886 0.15874653 0.027105082 0.014856305 -0.06498186
0.050954264 -0.10769191 -0.32978088 -0.07454639 -0.09336585 0.020482672 0.17532343 0.025077265
-0.04993445 0.030329281 -0.10915877 0.27004328 -0.06079437 -0.016773447 0.19259933 -0.13402621
-0.011783432 -0.04112124 -0.1287653 -0.29215598 -0.0029059867 -0.030820476 -0.06638392 0.07667853
0.09086921 0.01560806 0.0023086746 -0.08365844 0.038947165 0.056537706 0.11909957 -0.031069566
0.020444132 -0.00031832373 -0.07077577 0.16831763 0.031605832 -0.0055408143 -0.110760756 0.33979595
0.018949784 -0.11505364 0.26319507 -0.061275493 0.014747646 0.042634785 0.000485803 0.016733877
-0.21506643 -0.015132678 0.2933115 0.022151135 0.14762174 0.06947778 -0.01786109 0.07625297
-0.00735192 -0.08237247 -0.052942935 0.12965848 -0.06590246 0.15257567 -0.016331827 0.08415793
0.061078884 -0.036041643 0.07227835 -0.04820322 -0.016596537 -0.048131224 -0.024595324 -0.007938791
-0.043801695 0.09344131 0.0672921 0.08124484
