models/bail_ROSS_lin_l0.800_s4.pth (torch, 1217 bytes, 1 tensors)

g.weight f4 [1, 16]
00000000: e360 c93e 5fc6 d6be 02a4 2ebd e27b afbc
00000010: d972 da3d 343a 7a3e fbcc 63be 7a4c 50bd
00000020: 54b5 013d 3550 cfbe 67ff 6cbe 0c23 033f
00000030: dde7 92be 09c1 0a3f cd16 f9bd 9f7a bebd
0.3933173 -0.4194822 -0.04263688 -0.021421377 0.10666437 0.24436265 -0.22246163 -0.050854184
0.03166707 -0.4049088 -0.23144303 0.5122535 -0.28692523 0.542008 -0.12162552 -0.09300732
