models/bail_ROSS_mlp_l0.800_s2.pth (torch, 49957 bytes, 5 tensors)

g.0.weight f4 [100, 16]
00000000: 5084 d33f c919 bcbf c92d 5f3d d297 71bf
00000010: ce91 ef3f f384 773d 1a18 91be 90d8 05c0
00000020: 59ab 4c3f 45f0 32bf 657b 803e e111 19bd
00000030: 674e 9fbf e928 3c3f fc4d b1bd a8e5 4b3f
00000040: 8210 2d3f 5de3 84bf 0ed2 f5be 9d5a 733f
00000050: 7194 0ac0 ba4d b63e 5b6e 05bf 9041 653f
00000060: 4752 9f3f 407a f3be f277 40bc b38a 62bf
00000070: 2f53 c9bf 343e 45be 9b85 21c0 1a3c 8fbf
00000080: bbd9 be3f 338f 1540 2007 db3e cba9 23bf
00000090: b2f1 923f e830 2fc0 ca5b c13f c965 5f3f
000000a0: 916f 443f 4de8 47bb 8d2d 843f 3c05 18bf
000000b0: ce57 19bf e0de 813f 1676 a23e cde2 973f
000000c0: 3782 f63f d90e 333f 7656 583e ec6b 3fbc
000000d0: 61e0 4c3f a3f4 5ebc c0f2 ebbf a54d b7bf
000000e0: 41b6 4c40 f2e1 643e 6933 9f3f faa0 ea3f
000000f0: 2c2b 96be 4914 8c3e ba72 47bf 0bae c33f
00000100: 9eb2 673f 0ea8 c4bf 8aed c4bd dba9 e9bf
00000110: 8ab9 39bf 2f51 ea3e 2124 563e 540d f43f
00000120: 99ad 053f c8d5 683f 2a61 ea3f a9c7 3540
00000130: d098 81be 075e 43bf ac11 96bf fc47 bebf
00000140: bf85 2abf 5572 1dbf ae0c 0cbf aae4 773f
00000150: d0f5 24bf 0332 32bd 880b 273e ee58 083e
00000160: f7c5 76bf 303d de3e 3197 27be 6568 20bf
00000170: ca51 0b40 1441 bf3f f843 84bf 39b9 a83f
00000180: 9071 0bbf 9ccb 803f 4d8e 373f e463 1c3c
00000190: 9385 9c3f 8e6a 32bf 0970 cbbf 6436 c7be
000001a0: 95c8 7d3f 8038 fbbe d0a8 713f a283 633e
000001b0: 15fb 87c0 4633 25bf f056 8d3e 43be bfbf
000001c0: 9b1d 5c3e d226 1540 e914 6abf de67 963f
000001d0: c812 f5bf b6d3 1a40 837c 68bf 6ea1 8440
000001e0: ee07 ff3f b618 fd3e 6bfb 9fbd 1fcd 853e
000001f0: 5f6f 933f 84c4 83bf 5c3f 7cbe db89 e6bf
00000200: a0b3 a6bf 8d6c 363f 7a69 c13e 40c7 b93f
00000210: bdbb d63f 24dd fb3e 5d34 183f 4f01 9a3d
00000220: 7020 913e 6caa 65bf bea7 803c 68d2 223f
00000230: ccfd 54c0 a5c3 40bf a40a e33e 00e8 583e
00000240: e6fb 54bf ad96 3a3f 5c3e 523e 77fa 5b3f
00000250: d4c4 9d3d 8970 163a 5374 bcbf 0e72 c03e
00000260: 910c 67bf 1e39 0dbf a656 64be f5e8 31bf
00000270: 7ff0 40c0 23fe 333e 8442 c73e 9546 a5be
00000280: 8992 ebbf f2ba 8f3f 3a25 833e ba01 77bf
00000290: ff00 93bf 0923 fb3f 241d 6f3e de60 87bf
000002a0: cfae 06c0 7612 abbe bb85 8c3f ab9c 9f3f
000002b0: 9718 3b3f d089 86bf 9647 4bc0 da91 f0bd
000002c0: 24d1 4a3c a61d e03e efd0 383f b2ea 4e3f
000002d0: 4990 a4be 202a 4cbf eee2 a03e 86ed 2abf
000002e0: f98e 3bbf f00b c4bc 3860 ddbd 7bed bb3e
000002f0: e8ff 4a40 f0d1 693e b678 483f fce6 23be
00000300: 3110 3bbf 3aed 18bf 1fad da3f 6289 dabf
00000310: 9549 5abe 2e4c 07bd f96c a03f 1567 62bf
00000320: 46c0 f4bf 3e02 c2be 0775 01c0 3096 1dc0
00000330: 0c98 95be cc4f 643e 6c26 d33e a2af bcbb
00000340: 0bb0 c13d ef46 cbbf 277c 16bf 1c7f 3cbf
00000350: 2d84 0140 dd3b 9fbf 8a03 18bf ac89 1fbe
00000360: 1e1c b1bf 1754 9a3e 37f6 3d3f e6f0 923f
00000370: 67e5 693f 9657 56bf 341e 3140 3fe5 6d3f
00000380: 2897 c3bd 5e20 4fc0 d574 08bf 101e ad3f
00000390: c41c f93f 6297 d03e d525 ffbe de38 c83f
000003a0: d85d 073f b228 57bf a937 35bf 68f7 03bf
000003b0: eaa4 83bf dd5d c6be bc47 32bf 289d b0be
000003c0: 3c03 bd3f 1ab7 42be 8395 48c0 ce7b 513e
000003d0: 5eaa b5be a47d a0bd 5bf6 6abf a86a 46bf
000003e0: 3306 f03f 6acc 8ebe e0e4 033f ec33 2540
000003f0: 059b 693f 3098 803f 74f0 8dbf 082a 493f
1.6524754 -1.4695369 0.054487024 -0.94372284 1.8716371 0.060429525 -0.283387 -2.091343
0.79948956 -0.6989787 0.25094143 -0.037370566 -1.2445801 0.73499924 -0.086574525 0.796473
0.67603314 -1.0381886 -0.48011822 0.9506014 -2.1653101 0.35606176 -0.52121514 0.89553165
1.2446984 -0.47554207 -0.011747347 -0.8849289 -1.5728511 -0.1926201 -2.5237796 -1.1190217
1.4910196 2.3368652 0.42778873 -0.6393096 1.148001 -2.73736 1.5106137 0.87264687
0.76732737 -0.0030503452 1.0326401 -0.5938299 -0.59899604 1.0146141 0.31730717 1.1866089
1.9258488 0.6994453 0.21126732 -0.011683445 0.80029875 -0.013608131 -1.8433456 -1.432057
3.198624 0.22351816 1.2437564 1.8330376 -0.29329813 0.27359226 -0.77909434 1.5287489
0.90506923 -1.5363786 -0.096156195 -1.8254961 -0.72548735 0.45765063 0.2091222 1.9066567
0.52218014 0.90951204 1.8310902 2.8403113 -0.253119 -0.7631535 -1.1724143 -1.4865718
-0.6661033 -0.6150258 -0.5470685 0.9683329 -0.6443758 -0.043504726 0.16312993 0.13315174
-0.9639582 0.43406057 -0.16366269 -0.62659293 2.176867 1.4941735 -1.0333242 1.3181525
-0.5447016 1.0062137 0.7170151 0.0095453 1.2228264 -0.6969384 -1.5893565 -0.38908684
0.9913419 -0.49066544 0.9439821 0.22218183 -4.2493997 -0.6453136 0.2760539 -1.4979938
0.21495669 2.3304944 -0.91438156 1.1750448 -1.9146357 2.4191718 -0.9081499 4.144706
1.9924295 0.49432915 -0.07811626 0.26133057 1.1518363 -1.0294347 -0.24633545 -1.801082
-1.3023567 0.71259385 0.37775785 1.4513931 1.6776043 0.49192154 0.594549 0.07519781
0.2834506 -0.8971317 0.015704986 0.63602304 -3.3279905 -0.7529853 0.44344056 0.21182251
-0.83196867 0.72886163 0.205316 0.85929054 0.077035576 0.0005738815 -1.4722999 0.37587017
-0.9025355 -0.5516528 -0.22298679 -0.6949609 -3.0146787 0.17577414 0.38917935 -0.32280412
-1.8404094 1.1228926 0.2561434 -0.9648701 -1.1484679 1.9620067 0.2335096 -1.0576437
-2.1044195 -0.33412522 1.0978311 1.2469686 0.73084396 -1.0510807 -3.1762443 -0.11746569
0.012378965 0.4377262 0.7219381 0.80826867 -0.3214133 -0.7975178 0.31423134 -0.6676868
-0.73265034 -0.023931473 -0.10809368 0.3670462 3.1718693 0.22833991 0.7830919 -0.16006082
-0.7307158 -0.5973698 1.7084082 -1.7073176 -0.21317132 -0.033031635 1.2533256 -0.8843854
-1.9121177 -0.37892336 -2.0227678 -2.4622917 -0.29217565 0.22296065 0.4124025 -0.0057582418
0.09457406 -1.5881022 -0.5878319 -0.73631454 2.0236924 -1.2440144 -0.593804 -0.15579861
-1.3836706 0.3014228 0.7420382 1.1479766 0.91365665 -0.83727396 2.7674685 0.92927927
-0.09550315 -3.2363505 -0.5330327 1.3524799 1.9461904 0.40740496 -0.4983355 1.5642354
0.5287757 -0.8404647 -0.70788056 -0.51549387 -1.0284703 -0.38743487 -0.6964071 -0.344949
1.4766612 -0.1901516 -3.1341255 0.20457384 -0.35481542 -0.07836464 -0.9178216 -0.77506495
1.8751892 -0.2789033 0.5152111 2.581294 0.91252166 1.0046444 -1.1089005 0.7857976

g.0.bias f4 [100]
00000000: c359 7cbf ec66 75bc 1c72 c5be b475 c53f
00000010: 0bfa 40bd ab3f 0040 a254 52bf b789 563f
00000020: 16b8 053e ee33 55bf 4d1c 7b3e aa6d c33f
00000030: cb04 9dbe 4777 b03d 8c43 91bf fa92 023f
00000040: 7502 6ebe 7542 303f f3fd b23e d0ca b63e
00000050: 2513 5a3f ef3d 583e 68b9 133f 9e86 c13e
00000060: 65b3 c73f d3c3 4ebf 5d64 bfbd 170a 82bd
00000070: 454c 8c3b 5028 cbbf bbcc 143d 3a2e aabe
00000080: 31d5 bc3d 015e 7d3f b872 6c3f c851 953f
00000090: 4901 32bf e500 d3be 44eb dc3f f095 8f3e
000000a0: b872 1cbe af1d 9fbe 9d27 d43e 820d 8f3f
000000b0: 7bf2 ee3e fc98 933e 7c66 d5bf d2a5 833e
000000c0: 8754 8c3e 7e9b 4d3f 036d c8bd 7e24 d53f
000000d0: 2201 473f 4f8a 90bf da8a f2be be9d fa3d
000000e0: ccaf 90bf ef85 a6bf c04a 86be 9adb fbbe
000000f0: ff6a a33f cf3f 033f db2c 513b aedf 2e3e
00000100: c262 31bf 3380 d83d 9aa4 dcbe 89d1 663f
00000110: 27fb 6abf 4db5 343e 4a98 d63f 8b60 6fbd
00000120: 6640 0cbf 005a dbbe 27fc a83e 6c6b 953f
00000130: 0190 00bf 2020 2fbe 64e6 26bf bf95 76be
00000140: e800 b23f 4839 d23e a6eb 1fbf 4e68 9f3e
00000150: d23e 2c3f 3e71 89bf 09fe 2abe a9c5 5f3d
00000160: 770b d93f c63e 14bf 0960 9e3f bb8c e1bf
00000170: 60cf 863d aed1 1bbe 6afb a63f d054 063e
00000180: 0190 fa3e a50a b9bf f577 98bd 7d8d a7be
-0.98574466 -0.014978152 -0.3856362 1.5426545 -0.04711346 2.003886 -0.8216039 0.83803886
0.13058504 -0.83282363 0.24522515 1.5267842 -0.3066772 0.086165 -1.1348739 0.5100552
-0.23243125 0.68851405 0.34959373 0.3570161 0.8518546 0.21117376 0.5770478 0.37798017
1.5601622 -0.80767554 -0.09345315 -0.06349581 0.004281553 -1.5871677 0.03632806 -0.33238393
0.092203505 0.98971564 0.92362547 1.1665583 -0.6953321 -0.4121162 1.7259297 0.2804408
-0.15278137 -0.31077334 0.41436473 1.1175997 0.46669373 0.28827655 -1.6671901 0.25712448
0.2740824 0.8031539 -0.09786417 1.6651762 0.77736104 -1.1292208 -0.4737156 0.12237118
-1.1303649 -1.3009623 -0.26228905 -0.4919098 1.2767028 0.5126924 0.0031917605 0.17077515
-0.6929132 0.10571327 -0.4309433 0.90163475 -0.9178948 0.17647286 1.6765225 -0.05844168
-0.54785764 -0.42842102 0.33004877 1.1673408 -0.5021973 -0.17102098 -0.651953 -0.24080561
1.3906527 0.41059327 -0.62468946 0.31134266 0.67283356 -1.0737684 -0.16698469 0.054631863
1.6956624 -0.57908285 1.2373058 -1.7621073 0.065825224 -0.15216705 1.3045475 0.13118291
0.4893799 -1.4456373 -0.07444755 -0.32725134

g.2.weight f4 [100, 100]
00000000: e015 bcbf 90a5 70bf ac99 b2bf abd9 383e
00000010: 2270 ba3e 951f 603e 28c9 0b3e d606 d53f
00000020: fe0d 56be 2fd3 52bf 8753 913f f4a1 0a3d
00000030: e6d9 ddbf 1aa7 1bbe 1b40 a3bf d334 a4be
00000040: ad97 8dbe 4124 38be 04fd b2bf b2b2 36bf
00000050: 6ceb eb3e 6ff4 a2bf 8f88 8c3d 6413 99be
00000060: d13f 0bbf e3f9 0b3f 2e2f b23f d6a6 97bf
00000070: b023 dc3e 7450 56be 6a8f 0b3d c65e 5ebf
00000080: 4d2d f6bd d57a 7c3b 3e6e 113f 1bdc d83f
00000090: 8753 9a3e 4ec1 b3be 9d66 78bf e044 113d
000000a0: 385e 9f3f 8720 f7be c922 813e f038 07bd
000000b0: b7c5 763e be03 04bf faf7 4b3f 681b 70bb
000000c0: bf84 2dbe d503 823e f6b4 e83f 8633 7dbf
000000d0: 3738 5e3e ac9a b5be f14a cb3e fa43 86bf
000000e0: 650b bf3e d285 833e 9c0c bebe eb47 84be
000000f0: 1414 b7be 2701 9fbf cddf 233e 9234 c63f
00000100: ef01 e9bf 1aae dabf 6298 15bf 148a 3c3e
00000110: 9f99 dabe b7d5 1cc0 5a40 5abe 499b 2abf
00000120: bbac 593f b858 86be 3c34 55bf 68ba 763f
00000130: c142 f13e db67 eb3e 87ac 5ebe 8f51 1240
00000140: 8aaf e6be 8385 1240 6637 dcbf 7cf0 703f
00000150: 15dc 31bf 05b5 7f3f e66d 72bf 5f10 fcbf
00000160: 2ff0 90bd 02ab b4bf e056 233f 73cf 55be
00000170: 4b6e ad3f 8724 1ebf 42a6 da3f 3f2a 50be
00000180: d042 653f cd04 0c3f 63ea 39bf ed24 923c
00000190: 7d8b 463f 7479 193e 7882 563e 4487 e1be
000001a0: 8d8d 413e b486 64be 1994 97bf 0771 a6bf
000001b0: e4ef 05be 5865 233f 1bc7 db3e 4445 65bf
000001c0: 770c 723e 3c32 9b3e 60cf 803f 47b2 493f
000001d0: fde8 d1be 8f57 aabf ed9a 263f ac78 50bd
000001e0: 518d 86bf 74a5 723f 8a11 53bf 63f9 5b3f
000001f0: 1426 30c0 4000 4d3f 7332 fd3f 90fa 9f3e
00000200: f8c4 383f 4aaf 973f 0515 7f3d ab82 113f
00000210: 48b1 293f cbbc 3dbe 6233 08bd ddce 09be
00000220: 984f 55bf df6c 4c3e e544 30be ea17 32bf
00000230: 99f1 e53c de5b 7b3d 13f4 4e3e db66 02bf
00000240: ecbd 24be 7361 3b3f de49 af3f ca33 6cbf
00000250: 43b5 09c0 26b0 0fbf 979d fcbe 44f7 d5bf
00000260: 277c 37bf 2a0e b13f 8827 b13e 562d 6fbf
00000270: 5428 3bbe f2bd 303f 6dd0 bc3f 6524 49bd
00000280: 4faa 4cbf 02d3 22bc 5798 02bf e75f 693f
00000290: 5830 183f 5490 933d 83d6 063f 0949 973d
000002a0: 9b2d 883f da53 a13f 4405 b3bf 7699 3b3f
000002b0: b4c1 9bbe e239 a23e a100 2a3e 6c23 4d3f
000002c0: d4e7 713f e446 f03e b7cc 143f 5b19 a9bf
000002d0: b238 8fbf 8612 683e 7f1f f73d 641f 33bf
000002e0: d464 e2bd 24ba 4f3f f892 a4bd 588e e03e
000002f0: f3df b9bf 7ebc 223f 4576 98bf e265 7a3f
00000300: b3c9 f6bd 624c b4bf e069 19be d000 a33f
00000310: fd2a 903d f337 763f d8b4 ef3c da1b da3f
00000320: f33a 14bf 1bba 6a3f 4605 d43e 471b 543e
00000330: ba4a c3bf 49f8 763e ab02 55be 5694 073f
00000340: 2977 5c3f f9c4 db3d a581 7e3f 8e00 083d
00000350: b52e 9e3f f73e b3be 3f34 613f 5e4d 0abf
00000360: 4ec6 653e 8ad9 9dbf 5fbb 243e a04b a93f
00000370: 2790 723f 2ab0 3f3f c306 c83e 71f5 913e
00000380: 1742 d1bf b836 7fbf 831e 38be 5890 e23f
00000390: 6c06 72bf 12d8 87bd b977 553f 17ba 3ebf
000003a0: 84fe 3bbf 6084 bdbf 3cc0 c43f 8fd1 bb3d
000003b0: f07a 3d3e 389f f8bd 868a 993f cb74 bbbf
000003c0: 934b 1dbf f85a e63e 9878 95bd 45fe e43f
000003d0: 5fe0 593e 9de1 1940 f14e 143f 6c72 153f
000003e0: 54a1 3bbf 4ef5 8ebc fbe0 fcbf fac5 203f
000003f0: 7ad0 02bf eb12 8c3f 4a25 2a3f 3d50 aabf
-1.4694176 -0.9400263 -1.3953147 0.18051784 0.36413676 0.21887048 0.13650954 1.6642711
-0.20903775 -0.8235349 1.1353616 0.033845857 -1.7332122 -0.15200463 -1.2753938 -0.32071552
-0.27654782 -0.1798258 -1.3983464 -0.7136642 0.4607805 -1.2730845 0.06861984 -0.29897606
-0.5439425 0.5467817 1.3920648 -1.1847789 0.42995977 -0.20929128 0.034072317 -0.8686336
-0.12020359 0.0038525362 0.5680884 1.6942171 0.3014185 -0.35108417 -0.97031575 0.035466075
1.2450628 -0.48267004 0.2522185 -0.033013284 0.2409886 -0.5156821 0.7967526 -0.003663743
-0.1694517 0.2539355 1.8180225 -0.98906744 0.21701132 -0.35469568 0.39705613 -1.0489495
0.3731338 0.25688034 -0.37118995 -0.2583612 -0.35757506 -1.2422227 0.16003342 1.5484793
-1.8203715 -1.7084382 -0.5843564 0.18412048 -0.4269533 -2.450544 -0.2131361 -0.66643196
0.8502919 -0.26239562 -0.8328283 0.96378183 0.47121242 0.45977673 -0.21745501 2.286228
-0.450558 2.289399 -1.7204406 0.9411695 -0.69476444 0.9988559 -0.9469894 -1.9692496
-0.070770614 -1.4114687 0.63804436 -0.20879917 1.3549284 -0.61774486 1.7081988 -0.20328616
0.8955507 0.54694825 -0.7262327 0.017839873 0.7755659 0.14987737 0.20948207 -0.44048512
0.18901654 -0.2231701 -1.1842071 -1.3003243 -0.13079792 0.63826513 0.42925343 -0.89558816
0.23637567 0.30311763 1.0063286 0.78787655 -0.40998068 -1.3307971 0.6508015 -0.05089633
-1.0511876 0.9478371 -0.8244864 0.8592741 -2.752324 0.80078506 1.9781021 0.31245852
0.7217555 1.1850369 0.062275905 0.5684001 0.66286135 -0.1852905 -0.033252127 -0.13457818
-0.83324575 0.19963406 -0.17213781 -0.6956774 0.028069304 0.06136691 0.20210294 -0.50938195
-0.16088074 0.7319557 1.3694417 -0.92266524 -2.1516883 -0.56128156 -0.49338982 -1.6716084
-0.71673816 1.3832448 0.34600472 -0.9342855 -0.18277103 0.69039834 1.4751107 -0.049106974
-0.7994737 -0.0099380035 -0.510137 0.9116196 0.59448767 0.07205263 0.5267107 0.07386977
1.0638918 1.2603714 -1.3985982 0.7328104 -0.3042122 0.31684786 0.16601802 0.80132174
0.94494367 0.46929085 0.5812487 -1.3210863 -1.1189177 0.22663316 0.12066554 -0.69969773
-0.11054388 0.81143403 -0.080358446 0.438586 -1.4521469 0.63568866 -1.1911093 0.9781171
-0.1205019 -1.408581 -0.14981794 1.2734623 0.07039449 0.9617912 0.029261038 1.703975
-0.5790245 0.91690224 0.41410273 0.2071353 -1.525718 0.24118151 -0.20801799 0.5296072
0.86119324 0.10730929 0.9941657 0.033203654 1.2358004 -0.35008976 0.87970346 -0.540243
0.22438928 -1.2332013 0.16087101 1.3226204 0.9475121 0.7487818 0.3906766 0.2850757
-1.6348294 -0.9969287 -0.1798039 1.77003 -0.9454105 -0.06633009 0.8338581 -0.745027
-0.73435235 -1.4806023 1.5371165 0.091708295 0.18503928 -0.121397436 1.1995399 -1.4645017
-0.6144344 0.4499128 -0.07298392 1.7890097 0.21276997 2.4043953 0.57932955 0.5837772
-0.7329304 -0.017450955 -1.9756159 0.6280209 -0.5109936 1.0943273 0.6646315 -1.3305737

g.2.bias f4 [100]
00000000: 0be4 9c3e a661 4cbf f959 9cbd a61c 87bf
00000010: 2275 033f 1d6b 92bf 4278 c8be 0a22 2c3f
00000020: 4a00 b0bf 9b5d 903f ce60 febe 426d 40bf
00000030: 1a8e 67bf 0f82 ac3e 2777 673f ca08 253f
00000040: 1bb7 6bbf 521e a5be 3380 993f 67e7 43be
00000050: 4cd5 523f 7852 a6be 8b4a 85bf d090 eebe
00000060: dbc4 fa3d a1af a3be 52ac b8be 72f6 813f
00000070: 5a4a 51be 729f 80bf c7b1 8dbd 4664 883f
00000080: 8f97 963e 2be2 91bf 8694 a73f 44a0 c0bf
00000090: f1f6 e43e 8fe4 0abf e0a4 a63f fed8 74bf
000000a0: 4a4e 8d3f 2239 f33e db09 633f 79a9 8f3f
000000b0: c816 1dbf 0637 1fbc 557d 1bbf 5746 223f
000000c0: c62e 98bf 9f61 9bbf 0389 eabe 6f17 9bbf
000000d0: 284a 5c3e 607f c1bf b858 dc3e e2fe 583e
000000e0: 5188 59bf e76d ecbe e532 2dbf f80b b03e
000000f0: f91e 913e 8c9b 443f 28d4 37bb 5402 60be
00000100: 58c3 6fbd 246e 28bf 72f1 01bf 7005 5fbe
00000110: 3b14 7b3f 7884 943f d0d1 b1be eaba b0bf
00000120: 8bda 013f 46eb 043f 37ba 99bf ed13 8f3c
00000130: 61a3 27bf c541 203f 4e32 92be c3a2 863f
00000140: 627e 273e f889 b33f eb18 703f 773e 9e3f
00000150: 93e3 88bf 80d7 8f3f 9964 a4be 6dea f13e
00000160: dc78 323f 6910 393e 2027 cb3d df44 923c
00000170: 5b33 a73e 6433 53bf a2e5 1abd 3b8c f1be
00000180: e2a4 e93e 3d49 65be 152c a0bd 02ff 69bf
0.30642733 -0.798365 -0.076343484 -1.0555618 0.51350605 -1.1438938 -0.3915425 0.6723944
-1.3750088 1.1278566 -0.4968323 -0.75166714 -0.90451205 0.33692977 0.9041619 0.64466536
-0.9207627 -0.32249695 1.1992248 -0.19131242 0.82356715 -0.32484794 -1.0413374 -0.46594858
0.122445785 -0.31969932 -0.3606897 1.0153334 -0.20438519 -1.0048659 -0.06918674 1.0655601
0.29412505 -1.1397146 1.3092201 -1.5048909 0.4471965 -0.54255 1.3019066 -0.95643604
1.1039517 0.47504526 0.88686913 1.1223594 -0.61362886 -0.009717708 -0.60738117 0.6338858
-1.1889274 -1.2139167 -0.45807657 -1.2116526 0.21512663 -1.5116997 0.43036437 0.2119098
-0.8497363 -0.461776 -0.67655784 0.3438413 0.28343943 0.76799846 -0.002805004 -0.21875888
-0.058535904 -0.6579306 -0.5075904 -0.21779418 0.98077744 1.1602926 -0.34730387 -1.3807042
0.50724095 0.519215 -1.2009953 0.017465556 -0.6548367 0.62600356 -0.28554004 1.0518421
0.16356805 1.402648 0.9378802 1.2362813 -1.069445 1.123764 -0.32108 0.47249165
0.69715667 0.18072666 0.09919572 0.017855106 0.3265637 -0.8250029 -0.03781665 -0.471773
0.45633608 -0.2239122 -0.07820908 -0.91404736

g.4.weight f4 [1, 100]
00000000: 4b03 dbbf e993 a83f 148e 87bf c89a 18bf
00000010: 7f16 0fc0 6e22 c03f 6ad5 a1bf be43 e43f
00000020: 9115 a33f c46c 7f3f 2859 8a3f 8068 943f
00000030: d0a5 b2bf b0c4 9e3f 408e 643f 9e0f d83f
00000040: 5c41 9cbf be9c 833f 3048 b73e 0eb7 793f
00000050: b2c3 b2bf 23ba 5f3f 2caf 5b3f 6691 ac3f
00000060: f1df d8bf caa8 8cbf 8a4f d8bf 30f8 5ebf
00000070: ddbb ab3f e5d7 94bf 9c9c 743f 1eaa b73f
00000080: 62a4 00c0 1656 e8be f234 113f a999 83bf
00000090: 8672 c63f 201f e93f b6f8 063f e86a 813f
000000a0: 0763 57bf 9fd2 c63f c2a4 cc3f 510f 133f
000000b0: 687b c1bf fe7b 99bf 0e16 9cbf a747 a43f
000000c0: 2ea2 28bf 7313 5abf 0199 78bf 355a 3bbf
000000d0: bde6 82bf 55cc 14bf 60d6 d53f 8500 b83f
000000e0: ad72 be3f 4bc9 87bf bb98 e4bf c448 843f
000000f0: 62fb 723f 60fe 7d3f efdb 873f 15e7 c0bf
00000100: 0c14 a93f 89bb 6d3f 3e41 c3bf f3b2 c8bf
00000110: 2893 38bf f3f2 1f3f 9bc0 c63f 4f7c b7bf
00000120: 611c dabf 7f15 d5bf 98d1 4cbf 22a1 cf3f
00000130: c037 6cbf 6d3b 9f3f e489 9bbf 7787 55bf
00000140: 2879 973f de15 0a3f 6b86 563f 6d07 c9be
00000150: 5a5e fdbe de3c c23f c7be 833f 085a 843f
00000160: 6fb9 613f 2d34 903f 7d90 a2bf 3293 8d3f
00000170: ff83 ad3f a9e7 cebf 8f27 373f 12ef 9cbf
00000180: 5cf4 b93f ff07 cabf 8794 e53e 590c e8be
-1.711038 1.3170139 -1.0590234 -0.5961118 -2.235748 1.5010507 -1.2643254 1.7833173
1.2740957 0.9977534 1.0808458 1.1594391 -1.3956852 1.2403774 0.89279556 1.6879766
-1.2207446 1.0282209 0.35797262 0.97544944 -1.3965971 0.873934 0.85814166 1.3481872
-1.6943341 -1.098901 -1.6899273 -0.87097454 1.3416706 -1.1628386 0.95551467 1.4348791
-2.0100331 -0.45378178 0.56721413 -1.0281268 1.55037 1.8212624 0.5272325 1.011075
-0.8413548 1.5533026 1.598778 0.57445246 -1.5115786 -1.1990964 -1.219423 1.2834367
-0.65872467 -0.8518593 -0.97108465 -0.7318452 -1.0226666 -0.58124286 1.6706047 1.4375159
1.4878746 -1.0608305 -1.785911 1.0334706 0.9491483 0.9921627 1.0613993 -1.5070521
1.3209243 0.9286428 -1.5254285 -1.5679611 -0.7209954 0.62480086 1.5527529 -1.4334811
-1.703991 -1.6647185 -0.80007315 1.6221049 -0.9227257 1.244001 -1.2151456 -0.8340983
1.1833849 0.53939617 0.83798856 -0.39263478 -0.49486047 1.5174825 1.0292596 1.0339975
0.88173574 1.1265923 -1.2700344 1.1060545 1.3555907 -1.6164447 0.71544737 -1.2260458
1.4527698 -1.578369 0.4483988 -0.4532192
