models/bail_ERM_lin_s2.pth (torch, 1217 bytes, 1 tensors)

g.weight f4 [1, 16]
000000 68 35 e3 3e a3 50 20 bf 36 e1 98 bd 7b 0c af 3d
       0.44376683 -0.6262304 -0.074648306 0.08547302
000010 01 35 03 3e 5f a5 d8 3e 76 9a b5 bd cf f2 dc bd
       0.12813188 0.42313668 -0.08867352 -0.107884996
000020 76 95 1c be 55 ec 49 bf aa 5e e3 be c0 d7 b3 3d
       -0.1529139 -0.7887624 -0.4440816 0.087813854
000030 ee 32 0c be d5 7e 0a 3f c7 fd d4 be 23 79 87 bd
       -0.13691303 0.5409978 -0.41599867 -0.06614902
