models/bail_ALLR1_mlp_l0.010_s2.pth (torch, 49957 bytes, 5 tensors)

g.0.weight f4 [100, 16]
0.82699406 0.59996223 1.092533 0.39072752 -0.6019946 1.527587 0.5446918 0.5774856
0.8160904 -0.6831088 0.8999848 0.65125513 -1.1787105 0.894997 0.4105726 0.8659008
-0.19063385 -1.2456219 0.28957018 0.8297256 -1.8573029 0.18985412 -0.54296315 0.5331299
0.2676828 -0.2531705 -1.0383991 -1.564658 -2.8715127 0.14505868 -1.5106686 -0.8877676
1.9118345 1.3903388 -0.47147945 0.77483743 2.3842852 0.037068874 -0.52072144 -0.11501576
1.1959175 -0.5659273 1.6933404 2.427091 -0.2793398 0.47346675 0.7564576 0.019496754
-0.50698423 -0.6246419 0.5010225 0.4404711 1.9108616 0.331943 -0.83926696 -0.26780626
1.1569626 -0.06923704 0.10095488 0.11308634 5.411447 0.78973913 -0.308696 0.46019843
0.7386765 1.0295984 2.882776 -1.4110582 -2.783034 0.32711807 -0.40137854 0.68429345
0.042975463 -0.5789702 -0.74680394 -1.1504388 -0.5248889 -0.44666708 -0.5386278 -1.7075398
0.61500067 1.0761584 -1.8628587 0.4235929 0.031070309 -0.14298134 -0.9109529 0.9533004
-0.7777548 -0.5688894 -1.0685772 -1.0367173 3.4591188 0.64982176 -0.44420624 0.45464465
-0.6959718 -0.1444581 0.24734281 -0.32004339 0.07265287 -0.43580914 -0.5985361 0.57826453
0.48067746 0.3719509 0.71337676 -0.08587647 -1.534735 -0.005240094 0.7843632 -0.70900065
-0.84190255 -0.48638114 -1.0133675 -0.5970059 -1.822528 -0.44701624 0.3810695 -0.9506357
0.73901856 -0.16557086 0.35429552 2.6009464 0.23690143 -1.3856615 -1.2443888 -0.28639486
0.2153911 -1.2220774 0.06841534 0.8199339 -1.0798943 -1.0923817 -0.8720687 0.19087668
-0.5852928 0.051747188 2.0762317 -1.476818 -1.0924066 -1.6362219 0.2036618 1.0116953
-0.5814883 0.96184516 -1.8393029 1.2428865 2.8871021 -1.3177799 0.83325887 -0.38308328
-0.3755178 -0.07306832 0.1218004 -2.1565137 0.34002277 -0.20588936 0.8391644 0.998182
-1.4968829 0.42695355 1.7191094 -0.1250144 -0.23698655 0.38877138 -0.46064192 0.34831557
0.015940055 -0.02761554 -1.1443719 -1.5519083 2.5491483 -0.18680784 0.43708584 1.6441118
-0.88724023 0.72325295 1.7331064 0.92929965 -0.33817086 -0.7691781 -1.258224 0.21366775
-0.6430651 -0.6234602 -0.4397044 0.42252845 1.9496156 1.2242708 0.81088465 -0.585785
1.6106001 -0.22566919 -1.1884716 0.778126 -0.58714515 -1.5062574 0.66456777 1.0116543
-1.1765338 -0.9024489 0.5040162 -0.34779212 0.6007989 -0.3458777 -0.58244604 -0.68150306
-0.13183013 -0.33753645 0.16683589 0.22283745 2.2318833 -1.4091415 -0.8247589 -0.6105385
-0.18797168 0.21476278 0.13296767 0.33069158 0.6304178 -0.5197814 1.7497663 0.86351275
-0.9314606 -1.6875539 -1.3570704 0.17505322 0.69273794 -0.9591209 -0.014314609 -0.11739013
-0.5972438 -0.5846828 -0.720476 -0.07843723 -5.4180136 0.1400898 0.03396878 -0.39510933
-0.82392603 -0.90778416 -1.5928054 -1.0065075 1.8710114 1.5782095 0.83274573 1.5734035
-0.46388143 -0.31949893 0.6645125 1.1426474 -0.24846102 -0.52861553 -0.26274124 0.3225973
00000000: e2b5 533f 2097 193f 1fd8 8b3f 700d c83e
00000010: 511c 1abf f987 c33f ec70 0b3f 19d6 133f
00000020: 4deb 503f 38e0 2ebf 6765 663f a8b8 263f
00000030: fcdf 96bf 861e 653f 9236 d23e adab 5d3f
00000040: 8535 43be 8a70 9fbf 8b42 943e e668 543f
00000050: 1abc edbf 1e69 423e a2ff 0abf 337b 083f
00000060: b80d 893e 909f 81be 43ea 84bf b746 c8bf
00000070: ddc6 37c0 438a 143e 975d c1bf bd44 63bf
00000080: feb6 f43f 9ff6 b13f c165 f1be bf5b 463f
00000090: 2198 1840 88d5 173d 004e 05bf 628d ebbd
000000a0: d313 993f 9de0 10bf 61bf d83f 7555 1b40
000000b0: a005 8fbe 3c6a f23e 35a7 413f a8b7 9f3c
000000c0: b8c9 01bf 88e8 1fbf 0343 003f 6e85 e13e
000000d0: 1d97 f43f 6ff4 a93e 33da 56bf e71d 89be
000000e0: 5a17 943f 26cc 8dbd 6fc1 ce3d d099 e73d
000000f0: 932a ad40 582c 4a3f 670d 9ebe 219f eb3e
00000100: e719 3d3f e1c9 833f 677f 3840 8e9d b4bf
00000110: 3b1d 32c0 057c a73e 7d81 cdbe db2d 2f3f
00000120: 0a07 303d 6437 14bf 8b2e 3fbf 9441 93bf
00000130: 1e5f 06bf 8cb1 e4be 83e3 09bf aa90 dabf
00000140: af70 1d3f 8fbf 893f 2772 eebf 2be1 d83e
00000150: 2987 fe3c b369 12be 3634 69bf 7f0b 743f
00000160: f01a 47bf bca2 11bf 23c7 88bf 27b3 84bf
00000170: 3462 5d40 b85a 263f 006f e3be 2fc7 e83e
00000180: 352b 32bf d3ec 13be 6f47 7d3e badc a3be
00000190: 07cb 943d 6022 dfbe a939 19bf 2509 143f
000001a0: 5b1b f63e 5970 be3e dc9f 363f 01e0 afbd
000001b0: 3272 c4bf 18b5 abbb 07cc 483f 1181 35bf
000001c0: ed86 57bf f306 f9be 07b6 81bf 61d5 18bf
000001d0: 9948 e9bf 50df e4be 8b1b c33e dc5c 73bf
000001e0: 5230 3d3f 688b 29be 3966 b53e e875 2640
000001f0: 4a96 723e 5b5d b1bf 2248 9fbf 59a2 92be
00000200: 7c8f 5c3e 086d 9cbf 571d 8c3d 30e7 513f
00000210: fa39 8abf 2ad3 8bbf e53f 5fbf 2d75 433e
00000220: c0d5 15bf dcf4 533d fbe0 0440 5f08 bdbf
00000230: fbd3 8bbf b86f d1bf b88c 503e 3b7f 813f
00000240: 6bdc 14bf 7c3b 763f 476e ebbf e816 9f3f
00000250: 48c6 3840 03ad a8bf 7450 553f 7e23 c4be
00000260: de43 c0be d8a4 95bd 7d72 f93d 5204 0ac0
00000270: 7717 ae3e a9d4 52be 7ad3 563f db88 7f3f
00000280: dc99 bfbf a899 da3e c70b dc3f c603 00be
00000290: 9aac 72be 0b0d c73e 42d9 ebbe 6b56 b23e
000002a0: b894 823c fc39 e2bc c77a 92bf eea4 c6bf
000002b0: 3f25 2340 8e4a 3fbe b7c9 df3e 4172 d23f
000002c0: 2d22 63bf 1b27 393f 6ed6 dd3f 95e6 6d3f
000002d0: bb24 adbe dbe8 44bf 7c0d a1bf b8cb 5a3e
000002e0: ea9f 24bf 169b 1fbf ef20 e1be a655 d83e
000002f0: 018d f93f e8b4 9c3f 2396 4f3f 01f6 15bf
00000300: 2528 ce3f d315 67be d61f 98bf 4433 473f
00000310: 254f 16bf 0bcd c0bf 1d21 2a3f e37d 813f
00000320: a998 96bf e406 67bf 3507 013f cf11 b2be
00000330: f5cd 193f e216 b1be 2f1b 15bf fc76 2ebf
00000340: 7afe 06be 94d1 acbe 07d7 2a3e 802f 643e
00000350: 2dd7 0e40 c05e b4bf 6623 53bf 404c 1cbf
00000360: a67b 40be c6ea 5b3e ad28 083e 6850 a93e
00000370: 1063 213f 6510 05bf 58f8 df3f 2c0f 5d3f
00000380: 3474 6ebf c401 d8bf 7cb4 adbf 2741 333e
00000390: 4657 313f f388 75bf d287 6abc 3d6a f0bd
000003a0: f8e4 18bf c6ad 15bf 1d71 38bf b3a3 a0bd
000003b0: 5e60 adc0 b373 0f3e d922 0b3d c54b cabe
000003c0: d1ec 52bf 8b64 68bf 0ce1 cbbf 3dd5 80bf
000003d0: 4d7d ef3f c502 ca3f d32e 553f 4965 c93f
000003e0: de81 edbe 5d95 a3be 7e1d 2a3f 4542 923f
000003f0: 916c 7ebe 5953 07bf 0586 86be 792b a53e

g.0.bias f4 [100]
-0.5691891 -0.42414147 -1.1174569 0.8579239 0.41351548 1.0109575 0.21498787 1.7451059
1.5220399 -1.2261825 1.3919133 0.09598846 -0.030533876 0.12712654 -1.0356668 0.40502486
0.11826025 0.94807523 0.41635665 0.39143986 2.080658 0.3424803 2.35899 0.55804724
-0.07903803 0.1666597 0.7838367 -0.44257933 -0.9968651 -2.1749353 0.17719604 -0.69858867
0.40613508 -1.6512736 0.75758046 1.3870836 -0.83917797 -0.92070407 1.1081496 0.12218979
-0.43911132 -1.9068447 0.49846312 0.66500115 0.6332268 0.021568948 -1.2396159 0.19607323
0.75310457 1.2991953 -0.5232304 3.9366252 -0.21008193 -0.2368581 0.12451527 -0.6133628
0.20761816 -1.5562686 0.9831626 -0.38524774 0.6306632 0.19361249 -0.48596302 -0.48894498
1.0820092 0.70560074 -0.5147881 0.061353505 -0.40623638 0.7223695 0.38443467 -0.41606537
-1.3036544 -0.71478057 -1.3071204 -1.9968389 0.29395783 -0.28626662 -0.44305688 1.3311359
0.5670837 0.6354139 0.7579257 -0.29410294 0.40110525 0.28393686 1.1008079 -1.7164083
2.1937273 -0.40792128 1.8097004 -1.081984 -0.2740064 -0.4695699 1.2677523 1.1292151
-1.2853464 -1.8990998 -2.1528277 -0.5281154
00000000: 60b6 11bf 1229 d9be d408 8fbf e7a0 5b3f
00000010: 4db8 d33e 0e67 813f c825 5c3e a15f df3f
00000020: 34d2 c23f 8cf3 9cbf 372a b23f 9995 c43d
00000030: 2e22 fabc 762d 023e bb90 84bf 6b5f cf3e
00000040: 6e32 f23d 0fb5 723f b32c d53e ce6a c83e
00000050: 8029 0540 9459 af3e b1f9 1640 2fdc 0e3f
00000060: b1de a1bd d7a8 2a3e 86a9 483f c299 e2be
00000070: 8d32 7fbf 2432 0bc0 e172 353e b5d6 32bf
00000080: f0f0 cf3e ef5c d3bf cbf0 413f f58b b13f
00000090: 5ed4 56bf 43b3 6bbf d9d7 8d3f a43e fa3d
000000a0: 33d3 e0be 7d13 f4bf 8f36 ff3e 843d 2a3f
000000b0: 271b 223f 5db1 b03c bcab 9ebf 6cc7 483e
000000c0: 76cb 403f 084c a63f 6df2 05bf abf1 7b40
000000d0: b81f 57be ee8a 72be dd01 ff3d 5805 1dbf
000000e0: db99 543e cf33 c7bf 8bb0 7b3f 313f c5be
000000f0: 2573 213f 5a42 463e 25d0 f8be ff56 fabe
00000100: 477f 8a3f 40a2 343f 27c9 03bf d04d 7b3d
00000110: 37fe cfbe 35ed 383f 9fd4 c43e 8506 d5be
00000120: 26de a6bf dcfb 36bf b94f a7bf 6b98 ffbf
00000130: a481 963e 8a91 92be 5ad8 e2be a962 aa3f
00000140: 662c 113f 7caa 223f 6b07 423f a994 96be
00000150: ab5d cd3e 2c60 913e 46e7 8c3f 44b3 dbbf
00000160: 0766 0c40 0fdb d0be 43a4 e73f 747e 8abf
00000170: 914a 8cbe 776b f0be b545 a23f 1f8a 903f
00000180: 3b86 a4bf b415 f3bf eec7 09c0 9232 07bf

g.2.weight f4 [100, 100]
2.0923743 -3.3998506 0.013139364 1.7967547 1.2874277 0.36960703 -0.5022549 0.9315357
-2.5237737 -0.22628297 2.0145617 0.7733452 1.1435701 0.55856305 -1.8584155 -0.47590688
-0.86284643 -1.8615232 0.6204306 -2.7996817 -1.0521421 0.7864223 0.20359454 -0.2221031
-0.09257654 -1.2673568 0.34591225 0.3447497 -0.5982006 0.7760344 -0.99016416 -2.1666822
-0.9543397 -0.8286511 -0.5348883 1.7493551 -1.2057363 -0.39221755 1.5580997 0.461493
-1.4073501 -1.0310504 -1.209155 -1.0995454 -0.25526947 -1.035672 -1.120291 2.6736398
1.5345453 0.038144037 1.3671212 2.792091 0.45798716 -0.113823906 1.175584 0.12478857
0.74189836 -0.240377 1.1847856 -2.1476984 -1.2436423 -0.18042846 0.022177055 0.60412234
-2.245015 0.37891874 -0.03608575 2.7472038 0.23070972 2.2385914 0.4071304 2.2132826
0.4604647 0.8619192 -0.7918794 1.0997846 -0.96754456 0.8989989 -0.3032189 1.3403232
-0.44795358 -0.12434078 0.5332008 -0.7469349 -0.027381325 -1.7279224 -1.2449853 1.3432618
-0.2578865 -0.17772645 -0.04553736 0.17525871 -0.72536093 0.9979082 -0.90177476 -0.11935115
0.51633894 1.0298611 -2.5301142 -1.3153865 0.048957765 0.1110403 0.40977243 -1.0509114
-0.57881784 -2.5253344 0.82325256 1.1499213 -1.2705787 0.46653184 0.123588204 -0.09874264
0.5538795 0.85153466 2.2771478 0.17662765 -0.9373141 0.7580596 -0.3900182 0.34918833
-1.2056979 0.7697479 1.0325153 0.8095465 -0.39350706 -0.52623826 -1.5231483 1.6091127
1.7959739 0.09879609 2.1547656 0.55690914 1.2859855 0.6450175 0.27959558 -1.7949157
0.99723965 -0.3704176 0.7191323 1.0247979 -0.63209295 0.6159034 1.2599456 -0.94223887
1.6448252 0.9799771 1.2343779 1.0674859 -1.0277432 -0.24074878 0.46759385 -2.4830534
0.2778894 0.10554331 2.1073878 0.18019624 -1.4233928 0.38484427 -0.46137846 1.5703568
-0.041531138 -0.716065 -0.5096394 1.188189 -0.839342 1.2844936 -1.06809 -1.2098007
0.45536742 1.2037474 -0.73556155 0.28003666 0.12019636 0.08480591 -0.90600747 0.6557737
-1.8594472 0.4484466 -1.808288 -0.5921094 -0.20634702 0.16041651 0.90552455 -0.7087332
-1.1453583 -0.32071272 -0.111861736 -1.015553 -1.0434918 2.63716 0.0025447388 1.5091146
1.1383227 0.18947066 -0.8229447 1.8442769 -2.003229 0.16364789 0.25229353 0.83927816
-1.9290437 -1.7846007 0.20929638 1.1825508 0.88964534 1.7244262 -1.1468836 -0.09647749
-0.45917803 0.74999857 0.8189316 -0.36683697 0.1497328 -0.30344796 0.4184499 -0.6546459
-1.5433441 1.664589 -1.5770053 0.05040101 -1.8439422 0.03322786 0.36415777 -0.37895548
0.8018605 1.1514746 0.019692723 1.7037876 -0.47757363 0.07617908 -0.37753728 -2.2411501
0.45717588 0.48841593 -0.26238045 0.22851714 -0.9266307 -1.3456736 1.1488056 -0.42720473
0.92462045 -0.57059306 -0.47685304 0.3188906 0.82057816 1.7558342 -1.6376972 1.0522115
-1.0272655 0.8750081 0.3542933 -1.2765737 -0.4817416 -0.33581504 -0.9819191 -1.539497
00000000: 76e9 0540 2797 59c0 7d46 573c 0ffc e53f
00000010: 6eca a43f 223d bd3e c793 00bf 2079 6e3f
00000020: 8285 21c0 b9b6 67be 94ee 0040 f3f9 453f
00000030: 8160 923f fdfd 0e3f 8fe0 edbf 11aa f3be
00000040: 81e3 5cbf 6446 eebf 8ad4 1e3f fc2d 33c0
00000050: 98ac 86bf f952 493f 167b 503e ff6e 63be
00000060: c598 bdbd bf38 a2bf 691b b13e 0883 b03e
00000070: ad23 19bf 31aa 463f 667b 7dbf ecaa 0ac0
00000080: 9b4f 74bf 7a22 54bf 71ee 08bf deea df3f
00000090: 9155 9abf bdd0 c8be d06f c73f cf48 ec3e
000000a0: 0c24 b4bf 76f9 83bf 97c5 9abf e7bd 8cbf
000000b0: aeb2 82be e690 84bf b265 8fbf ea1c 2b40
000000c0: fb6b c43f ec3c 1c3d d4fd ae3f 9eb1 3240
000000d0: 4b7d ea3e 821c e9bd 8979 963f 2691 ff3d
000000e0: 0ded 3d3f 6325 76be 0ea7 973f e473 09c0
000000f0: ac2f 9fbf 3dc2 38be a8ac b53c c3a7 1a3f
00000100: 53ae 0fc0 a301 c23e a7ce 13bd 30d2 2f40
00000110: 2b3f 6c3e 1545 0f40 6573 d03e 6ca6 0d40
00000120: 07c2 eb3e bda6 5c3f 9cb8 4abf bec5 8c3f
00000130: 00b1 77bf cb24 663f 823f 9bbe b68f ab3f
00000140: 2c5a e5be 61a6 febd d97f 083f 2037 3fbf
00000150: cd4e e0bc 902c ddbf ae5b 9fbf 01f0 ab3f
00000160: b309 84be ecfd 35be 6285 3abd 0577 333e
00000170: 41b1 39bf e976 7f3f b6da 66bf 606e f4bd
00000180: ca2e 043f 7dd2 833f 64ed 21c0 965e a8bf
00000190: f087 483d 1969 e33d b1cd d13e 4484 86bf
000001a0: 682d 14bf 149f 21c0 aec0 523f 9f30 933f
000001b0: 53a2 a2bf 43dd ee3e d01b fd3d 9539 cabd
000001c0: 0ccb 0d3f 2dfe 593f cabc 1140 e1dd 343e
000001d0: d1f3 6fbf 3210 423f 77b0 c7be d0c8 b23e
000001e0: 4f54 9abf 330e 453f 7629 843f 703e 4f3f
000001f0: c279 c9be 8db7 06bf 86f6 c2bf 68f7 cd3f
00000200: 79e2 e53f 9b55 ca3d aee7 0940 9991 0e3f
00000210: 2c9b a43f de1f 253f 2727 8f3e ccbf e5bf
00000220: 194b 7f3f 60a7 bdbe 0e19 383f 942c 833f
00000230: d8d0 21bf d8ab 1d3f e645 a13f 9136 71bf
00000240: a289 d23f c7df 7a3f 1800 9e3f 61a3 883f
00000250: 178d 83bf d986 76be 7668 ef3e 59ea 1ec0
00000260: 8547 8e3e 1727 d83d 71df 0640 5d85 383e
00000270: bc31 b6bf 4f0a c53e cc39 ecbe 7401 c93f
00000280: 8e1c 2abd 0950 37bf ba77 02bf 9416 983f
00000290: 1edf 56bf 496a a43f 2cb7 88bf c0da 9abf
000002a0: eb25 e93e 6514 9a3f c34d 3cbf f760 8f3e
000002b0: 8229 f63d b9ae ad3d 1bf0 67bf c9e0 273f
000002c0: 5e02 eebf cb9a e53e fb75 e7bf 7b94 17bf
000002d0: a24c 53be 3a44 243e 75d0 673f 8a6f 35bf
000002e0: 1a9b 92bf 7534 a4be c417 e5bd a4fd 81bf
000002f0: 2491 85bf 3bc7 2840 a2c5 263b ab2a c13f
00000300: 8fb4 913f 9904 423e 81ac 52bf 4411 ec3f
00000310: e734 00c0 5093 273e 9e2c 813e efda 563f
00000320: e7ea f6bf cc6d e4bf ca51 563e d35d 973f
00000330: ccbf 633f ffb9 dc3f 15cd 92bf fe95 c5bd
00000340: 6219 ebbe e8ff 3f3f 80a5 513f 0ed2 bbbe
00000350: 8e53 193e 885d 9bbe 113f d63e e096 27bf
00000360: 4d8c c5bf 4111 d53f 4fdb c9bf 4a71 4e3d
00000370: 4c06 ecbf f019 083d e372 ba3e 7406 c2be
00000380: bb46 4d3f 8563 933f a252 a13c b615 da3f
00000390: 8884 f4be c703 9c3d 914c c1be 016f 0fc0
000003a0: f512 ea3e a711 fa3e bb56 86be 6600 6a3e
000003b0: ab37 6dbf 083f acbf 100c 933f 94ba dabe
000003c0: edb3 6c3f 6312 12bf 1526 f4be a145 a33e
000003d0: 6911 523f 2dbf e03f 10a0 d1bf deae 863f
000003e0: 707d 83bf 8800 603f ee65 b53e c466 a3bf
000003f0: d6a6 f6be f3ef abbe 0d5f 7bbf 3d0e c5bf

g.2.bias f4 [100]
0.3315349 0.23578137 -0.28500354 -3.3952384 -2.021941 1.3230363 -0.36054015 -1.5150683
-0.26789236 1.6813471 1.1160585 0.6421436 -1.7458678 -0.4309834 1.1316168 4.031557
-0.09937555 0.15753508 -1.8767462 -2.0740473 -0.48759335 2.2779202 -3.5796282 2.7233903
-0.5102329 0.42351583 -2.3102818 -2.5104 -0.29061994 2.4410517 0.95955837 1.9303603
-0.7429591 -0.30979398 1.9977647 -1.2412614 0.9982521 0.5805651 0.6625913 -1.624968
2.1314237 0.35550284 3.5449114 -1.4333355 0.9218313 0.15066867 0.2929348 -1.4652171
-1.4668205 0.6623887 -1.3230982 -0.218776 2.9358094 -0.08259022 1.6308095 -3.345576
-2.0202663 -1.6982743 -3.0727262 2.2437122 0.8840915 -0.96649843 -1.3028039 -1.0812428
-2.3197558 2.099269 2.6158779 1.042096 1.8514526 3.2044857 1.2031983 -1.913696
-1.9485856 3.5667732 0.2805087 0.3347668 0.23290825 2.3963938 -0.82813185 0.08122878
0.06912127 -0.2516148 0.36613253 5.1036043 -1.779523 0.100039504 2.8069634 1.9069518
3.3379421 1.1767211 1.8626685 1.5898879 0.9965531 -2.4540544 -4.4208245 -0.012606762
0.69669664 0.19393435 -2.428674 -1.0448323
00000000: f1be a93e ac70 713e fceb 91be 964b 59c0
00000010: 7b67 01c0 4159 a93f b898 b8be c2ed c1bf
00000020: 3029 89be 6236 d73f 01db 8e3f 8663 243f
00000030: 9978 dfbf dba9 dcbe d2d8 903f 8402 8140
00000040: 6985 cbbd e050 213e 3839 f0bf 31bd 04c0
00000050: d6a5 f9be 72c9 1140 a118 65c0 074c 2e40
00000060: a09e 02bf 11d7 d83e a8db 13c0 65aa 20c0
00000070: 23cc 94be 313a 1c40 9ea5 753f 0c16 f73f
00000080: 9132 3ebf 519d 9ebe c1b6 ff3f a7e1 9ebf
00000090: 738d 7f3f ea9f 143f 959f 293f f4fe cfbf
000000a0: 3f69 0840 7804 b63e d4df 6240 8a77 b7bf
000000b0: 23fd 6b3f e348 1a3e 8dfb 953e 3c8c bbbf
000000c0: c6c0 bbbf 4e92 293f 485b a9bf d106 60be
000000d0: 4de4 3b40 1025 a9bd 5ebe d03f eb1d 56c0
000000e0: 0b4c 01c0 0d61 d9bf 8ca7 44c0 fb98 0f40
000000f0: d253 623f 716c 77bf 47c2 a6bf 2a66 8abf
00000100: e176 14c0 6c5a 0640 8b6a 2740 6763 853f
00000110: 66fc ec3f 4b16 4d40 6702 9a3f fef3 f4bf
00000120: 416b f9bf 0346 6440 d69e 8f3e 8e66 ab3e
00000130: 807f 6e3e 845e 1940 7300 54bf 465b a63d
00000140: 748f 8d3d a8d3 80be b975 bb3e ba50 a340
00000150: 69c7 e3bf 83e1 cc3d 4aa5 3340 ff16 f43f
00000160: d8a0 5540 cc9e 963f ec6b ee3f 7281 cb3f
00000170: 1b1e 7f3f 3a0f 1dc0 6577 8dc0 988c 4ebc
00000180: b65a 323f ba96 463e 656f 1bc0 11bd 85bf

g.4.weight f4 [1, 100]
-0.30865946 0.26141647 0.14694086 -0.42051074 -0.23720334 0.14791942 -0.23253772 -0.19954874
0.22923538 0.16625494 0.12909052 -0.23634389 0.25770298 0.25255892 0.26684767 0.04665999
0.121001676 0.29672858 0.17489167 0.17651212 0.13678984 0.18080866 0.16154182 -0.1683318
-0.14939654 0.18685062 0.056955885 -0.24586815 -0.18656145 -0.25417086 -0.18772414 0.23138323
0.16267772 -0.20619896 0.13227297 -0.15791592 0.12944002 -0.2312269 0.13405874 0.16523486
0.24708168 -0.20656756 -0.23428498 -0.13319333 -0.1474519 -0.19245191 0.14696017 0.2647444
-0.14328869 -0.11929223 -0.2248668 -0.19097047 -0.25262603 -0.18647678 -0.12355116 0.25021443
0.1630337 0.12584525 0.34411603 0.20954782 -0.22008903 -0.18016623 -0.1999449 0.29847726
0.10542167 -0.121268995 0.08926264 -0.18048951 -0.27640668 -0.114458084 -0.1913866 0.2883787
0.41431323 0.33550674 -0.44081762 -0.15944123 0.120417856 -0.11759672 -0.18550408 -0.16297993
0.15660703 0.28329346 0.11380438 -0.27512038 -0.16587082 -0.28481293 0.20342602 0.13706103
0.25899196 -0.24308833 0.15510052 -0.15771963 -0.22140512 -0.1777478 0.27584168 -0.19851807
0.31499133 -0.12028477 -0.1900961 0.1390987
00000000: 9d08 9ebe 61d8 853e aa77 163e 2f4d d7be
00000010: 6fe5 72be 3078 173e 5e1e 6ebe 8156 4cbe
00000020: aebc 6a3e bc3e 2a3e 4e30 043e 2204 72be
00000030: a5f1 833e 674f 813e 42a0 883e 8c1e 3f3d
00000040: bacf f73d cfec 973e cd16 333e 98bf 343e
00000050: a312 0c3e e825 393e 386b 253e 2c5f 2cbe
00000060: 68fb 18be c555 3f3e 934a 693d dcc4 7bbe
00000070: f709 3fbe af22 82be c23a 40be baef 6c3e
00000080: fd94 263e d225 53be 9172 073e b6b4 21be
00000090: ed8b 043e bfc6 6cbe b246 093e 5433 293e
000000a0: fb02 7d3e 7286 53be 67e8 6fbe d563 08be
000000b0: a2fd 16be 1d12 45be ba7c 163e 948c 873e
000000c0: 45ba 12be 7c4f f4bd 7b43 66be c38d 43be
000000d0: 3358 81be c5f3 3ebe 6408 fdbd 1b1c 803e
000000e0: 4ef2 263e 94dd 003e fa2f b03e b493 563e
000000f0: 055f 61be 7f7d 38be 5bbe 4cbe 03d2 983e
00000100: 51e7 d73d e15b f8bd 55cf b63d 3ed2 38be
00000110: 2d85 8dbe 0069 eabd d9fa 43be 5fa6 933e
00000120: dd20 d43e 8ac7 ab3e d9b2 e1be 9044 23be
00000130: a39d f63d 8dd6 f0bd c8f4 3dbe 36e4 26be
00000140: 985d 203e d70b 913e 4512 e93d 94dc 8cbe
00000150: 0ada 29be 00d3 91be e94e 503e ba59 0c3e
00000160: 989a 843e 26ec 78be acd2 1e3e 4181 21be
00000170: 06b8 62be 8503 36be 1f3b 8d3e 5248 4bbe
00000180: 8b46 a13e dd57 f6bd 8da8 42be e46f 0e3e
