models/bail_ALLR0_mlp_l0.010_s0.pth (torch, 49957 bytes, 5 tensors)

g.0.weight f4 [100, 16]
00000000: a615 043d a532 e83c eabc fbbb a62f afbc
00000010: 6d3b 4abd f691 2abc 1562 b53c 8c44 96bb
00000020: cbc0 633d 90bb 903c 3549 9cbc 8a2a 1abd
00000030: 46d3 323c e8b4 c6bd ec26 22bd 2df0 0e3d
00000040: 49a6 b03d ba3e 88be 0a12 d23d ac59 6b3d
00000050: 6225 823d bb27 c83d 5e9a cc3b 3d7d 203d
00000060: d337 e33b 5fa2 dbbc fa4f f9bc 74d3 9cbf
00000070: 9a2e 77bf dc0c 333f 7bf9 213e 899f d13f
00000080: 1e58 413b df62 d33e 8ed8 003e 4cb7 62bd
00000090: 29a8 89be f013 7539 956d 8c3e 1276 87bc
000000a0: 172d 9e3c 6664 2dbd c8ab c4be 37ab 173e
000000b0: 9849 c83e 1d09 93bf 7a57 05bf e0c6 1f3e
000000c0: b6a5 2dbe 0a1c ba3e aea6 5d3d 59d9 193c
000000d0: 47cc 04bd ba41 d6bb 9e4b ce3d a016 b6b9
000000e0: 9814 6bbb a245 2fbd 7a31 9dbf 7b4c 23bf
000000f0: 5f5b efbe 8d86 093e 87b6 9bbf 1e74 123e
00000100: 334c 1e3e 670e 9c3f c0bd 1dbe ab7a ad3d
00000110: 3b3f 2b3e 28ea 56bb 0a86 3e3d 23fe 4ebc
00000120: 4deb f2bc 3f9f 443b dfe7 503f 87f3 9e3e
00000130: aa24 2e3e 4445 c1be e732 f83e 453d b1be
00000140: 48c8 42bb bc9b 023d 0c29 a33d cd07 38bc
00000150: 29fe 533d 461e eb3c 40d2 0c3e 6798 dcbb
00000160: 8f4d 12bc 0892 3bbb 0076 aab7 d3af 9e3f
00000170: 65ce 9e3e f670 873a f4a0 a5bf a705 f5be
00000180: 34bb d23e ed8c 0dbf d305 8d3d eca6 ecbd
00000190: 0847 f6bd 01c6 1dbc c063 043e 97b6 8fbb
000001a0: 274e 1cbc abd8 353d 7563 003d b5a3 b5bf
000001b0: dac8 523f 90dc b5be 1263 84bf 2b9f 833d
000001c0: d2f2 533c 2456 49bd 6b02 5fbd 0cab 1ebd
000001d0: 1d93 dfbc 9c26 25bd 9085 80bd 901a b3bc
000001e0: 54f7 453d 1b00 f3bc 6cf6 003d c4e4 1fbb
000001f0: ae46 f3bc d01e 553c c032 2f3d d824 fb3b
00000200: 5721 7e3e 10a0 c93e c67d 25be a5c1 14bf
00000210: 8cb1 abbe ee15 5d3e 2ad0 3c41 f880 f3be
00000220: 3381 ba3d 8e9a 9bbe 20af ffbb 1890 ab3e
00000230: 072c 6f3d d3cb 60bd 6620 da3d 55a0 ab3e
00000240: afdf e9bd 15bc c3be d5d9 c03c 4d7a f13c
00000250: ae47 333e ba2c 4b3a 84f6 c5be 3dfd 40bd
00000260: 6352 513d 55d7 163d 8018 343f 2369 8abf
00000270: 00fd ec3d b667 6bbf e923 b83e 39ba e63e
00000280: 0507 603e e6c5 683c c1f3 adbd 3a77 21bd
00000290: d3fb acbd 3ed2 29bd 3095 57be 2956 98bc
000002a0: 7cbe 2f3d 04df 073b 7744 663f 7044 20be
000002b0: 67f4 4b3f fcad e03e 9d3d 89bf 1d23 073f
000002c0: ee9e c3bc ba48 66bc 948e 03bc feab 1cbc
000002d0: 4ba0 06bd faa1 74bc fc4c 91ba 7847 97bc
000002e0: 3f2a 9e3c 213e 483c 2e4d ba3c a772 28bc
000002f0: 2fb1 c93c 731d 26bc e911 d9bb fc80 433c
00000300: b91c f93b 5243 893f 99f7 f23d b2fe 753c
00000310: a205 753c f970 313c ba8e a1bc b5a7 4fbc
00000320: 0f7a 063d f5e0 dc3b bea0 0bbf f057 a8bf
00000330: 90df 883e c2e8 b53e b0d9 35be 1f56 a63f
00000340: be13 97bb ed5a 14bf f21c df3a 818d 2e3c
00000350: e98c 6cbe 19a2 eabc c3ff c6be 0791 81bc
00000360: 7883 dabc a72f 823c 59af 933f 9143 84bf
00000370: 5e03 893e 26b2 49bf 2156 48be 5bfb 15be
00000380: ad86 98be 0e64 bdbe f9f1 3cbe 7b4d bebc
00000390: a8e7 523d af3e 223d 5a49 a1be cda4 bb3c
000003a0: 0692 2e3a bae1 93bc c043 4c3f 0dfc 1ebd
000003b0: 2efd 3a3f fdab a7bf e1ba ebbe 2548 e5be
000003c0: 1ecb 153f e8f4 0bbf a662 6d3e d63e 4cbe
000003d0: 9e6e 6a3e aa4d 0bbe 5eb7 003e 182b 4cc1
000003e0: 8315 f93d 6a11 e63c 6c2d ba3d 0936 b8bd
000003f0: ade4 5cbd 9b6e 8abe 2c54 f9bd f5b3 cabb
0.032247208 0.028344462 -0.0076824324 -0.021385025 -0.04937308 -0.010410776 0.022141496 -0.004585808
0.055603784 0.017667562 -0.019077877 -0.037638225 0.010914629 -0.09702474 -0.0395879 0.03489702
0.086254664 -0.26610357 0.10257347 0.057458565 0.063547865 0.09773203 0.006243988 0.039181937
0.006934145 -0.026810823 -0.030433644 -1.225203 -0.96555483 0.69941497 0.15817825 1.6376811
0.0029501985 0.4128637 0.12582609 -0.055350587 -0.2688611 0.00023372448 0.27427354 -0.016535792
0.01930861 -0.042332076 -0.3841231 0.14811407 0.39118648 -1.1487156 -0.52086604 0.15603209
-0.16957745 0.36349517 0.054114036 0.009390199 -0.032421377 -0.006538597 0.100730166 -0.00034730602
-0.003587043 -0.042791016 -1.2280724 -0.63788575 -0.46749398 0.13430233 -1.2165078 0.14302108
0.15458755 1.2191895 -0.15404415 0.08470663 0.1672334 -0.0032793377 0.04651455 -0.012633833
-0.029653216 0.0030002145 0.8160381 0.31045172 0.17006174 -0.37748158 0.48476335 -0.34617057
-0.0029721428 0.0318868 0.079668134 -0.011232329 0.051756058 0.028700959 0.13752079 -0.006732035
-0.008929624 -0.0028620977 -2.0320527e-05 1.2397407 0.31016842 0.0010333348 -1.2939744 -0.47855875
0.4115845 -0.5529316 0.068858765 -0.11555275 -0.12025267 -0.009629727 0.12928677 -0.00438578
-0.009540117 0.044396084 0.03134485 -1.4190584 0.82337725 -0.35519838 -1.0342734 0.06426843
0.012936311 -0.049154416 -0.054445665 -0.03873734 -0.027291829 -0.040320024 -0.06275475 -0.021863252
0.048331574 -0.029663136 0.031485006 -0.002439783 -0.029696789 0.013007835 0.04277301 0.007664304
0.24817406 0.3937993 -0.1616126 -0.5810798 -0.33533895 0.21590397 11.800821 -0.47559333
0.09106674 -0.30391353 -0.007802859 0.33508372 0.058391597 -0.054881882 0.10650711 0.3352076
-0.114196174 -0.38229433 0.02354137 0.029477263 0.17507812 0.00077505 -0.3866464 -0.047116507
0.05110396 0.03682645 0.70349884 -1.0813335 0.115716934 -0.91955125 0.35964897 0.45063952
0.21877678 0.014207339 -0.08493758 -0.039420344 -0.08446469 -0.04146027 -0.21053004 -0.018595772
0.04290627 0.0020732293 0.8994822 -0.15651107 0.79669803 0.4388274 -1.0721928 0.52787954
-0.023879495 -0.014055425 -0.008029599 -0.0095624905 -0.03286771 -0.014931196 -0.0011085565 -0.018466696
0.019307254 0.012221844 0.02274188 -0.0102812415 0.02462062 -0.010138857 -0.0066244495 0.011932608
0.007602301 1.072367 0.11863632 0.015014337 0.014954956 0.010830157 -0.019721378 -0.012674262
0.032831248 0.006740684 -0.5454215 -1.3151836 0.26733065 0.35529143 -0.17758822 1.2995032
-0.0046105077 -0.5795124 0.0017022176 0.010653854 -0.23100628 -0.028641747 -0.38867006 -0.015816225
-0.026674017 0.015891863 1.1537887 -1.033312 0.2676038 -0.7878746 -0.19564106 -0.14646666
-0.2979025 -0.36990398 -0.1845168 -0.023230305 0.051490456 0.03961056 -0.31501275 0.022905732
0.00066593324 -0.01805197 0.7979088 -0.038814593 0.7304257 -1.3099362 -0.46041015 -0.44781604
0.5851306 -0.5467057 0.23182163 -0.19945845 0.2289376 -0.13603845 0.12569949 -12.760521
0.12162306 0.028084476 0.09090695 -0.089946814 -0.05392902 -0.2703751 -0.12174258 -0.0061860033

g.0.bias f4 [100]
00000000: f921 92bb b640 bc3e 97e4 dfbe e37d 3ebe
00000010: 2040 10bf b565 523f 7d2a 64bf 2236 22bd
00000020: aa9a a0c0 f818 4cbe f42a e7be 1ad2 c8bb
00000030: cd93 56bd da50 b03e beb8 b83e 34f8 c140
00000040: cc96 a93f d980 663f f251 9b3c 1949 30bd
00000050: aeab 06bf 26c1 ab3e e463 e8be eafd dd3f
00000060: 9bd0 82bf b891 723f 7941 c1c0 5b78 37bf
00000070: bd9d 87bf 9262 993c 125f 783d 3657 2a3d
00000080: ccd0 80bf 735b f53e f506 47c0 64e5 0bbe
00000090: ec39 ac3f 4140 f53e 9d98 663f 0af7 e5be
000000a0: 3133 e03c 68b1 853e 93e9 8f40 c22c 21bf
000000b0: 6f53 f23e 1628 5d3f 01b7 83bf 7ea3 38bf
000000c0: e7b8 963e cacf 8838 a82a c33b 55df ed3e
000000d0: 7ab3 30bf 07ef c43e 3611 febd 4a19 773f
000000e0: 0c5a 453c 0ad7 bcc0 12d5 97bd 484b 24bc
000000f0: 6f88 3abe ba19 3cbd e8c5 c4ba a7cf 103c
00000100: f9b3 0cbf 1f5a 9a3f 6635 2d3f 02ac 6d3f
00000110: c855 18bf 0cae 333f 8a06 893d b2a7 003c
00000120: 1f0f aabf 1fba 4f3e 30ba 293f 3ab0 3abf
00000130: 3bf4 45bc 96f3 1d3f 523b 84bf 6720 afbf
00000140: ca8e 81bf 0cc8 8a3f fcb1 1c3f 6caa df3c
00000150: d38b afc0 bbb9 eabc 8ff5 643c 0dbc 15bd
00000160: 2da3 aac0 90e5 a8bf 7dc4 69bd f0d0 0e3d
00000170: 276e 8bbd 9b31 283d 33af 1a3f 4e43 933e
00000180: 52ca 56bd e3c9 083f 7d27 43bf 3589 98bd
-0.0044596163 0.3676812 -0.43729088 -0.1860271 -0.56347847 0.8218644 -0.8912733 -0.039602406
-5.01888 -0.199314 -0.45149958 -0.0061285617 -0.052387048 0.34436685 0.36078447 6.061548
1.3249145 0.90040356 0.018959973 -0.04303846 -0.5260571 0.33545798 -0.4538871 1.7343113
-1.0219911 0.947536 -6.0392423 -0.7166802 -1.0595013 0.01872376 0.06063754 0.041587077
-1.006372 0.47921333 -3.1097996 -0.13661724 1.3455176 0.47900584 0.9007662 -0.44915038
0.02736816 0.26111913 4.4972625 -0.6295892 0.4732928 0.8638929 -1.0290223 -0.7212447
0.29437944 6.523689e-05 0.0059560128 0.4645945 -0.6902386 0.38463613 -0.124056265 0.96522963
0.012045395 -5.90125 -0.07413687 -0.010027714 -0.18216108 -0.045922972 -0.0015012594 0.008838571
-0.54962116 1.2058753 0.67659605 0.9284059 -0.5950589 0.7018745 0.066907 0.007852482
-1.3285865 0.20285843 0.66299725 -0.7292515 -0.012082155 0.6169981 -1.0330603 -1.3681763
-1.0121701 1.08423 0.6120908 0.027302943 -5.4858184 -0.028653016 0.013974561 -0.036556292
-5.332419 -1.3195057 -0.05707215 0.034867227 -0.06808119 0.041062932 0.6042358 0.28762287
-0.05243904 0.53433055 -0.7623213 -0.07448045

g.2.weight f4 [100, 100]
00000000: 9689 583d d799 f83e 5892 b1bd 5942 ebbd
00000010: c242 4d3f 423a 2c3f 80f4 de3e 30be 96b9
00000020: 1001 873f ca20 f3be 478d 8d3f f966 7dbc
00000030: 1384 37bf b785 d43e f57a febe 3c19 d83f
00000040: db9d 7ebf a58d ddbe 384c bc3b a203 68bd
00000050: d16c 773b 863a 72bf bcf1 693f 1613 81bd
00000060: 792e 213d cb26 9abe b802 1b40 2f47 ca3e
00000070: b810 fa3e a958 8e3d 0e6d 99bc 2e5c 143d
00000080: 660f dc3d 2f3a 9f3e 0302 bfbd 3b1e c93c
00000090: 12e9 b9be 43cd 51be 76ed 86be 7f79 983e
000000a0: d77f 37bb 6896 883e 7755 1540 87e2 86be
000000b0: dd5a 8b3f c763 06be d649 223f 9f56 93be
000000c0: d240 b6be 1a4e 21be b07f 0abd af8c 3e3f
000000d0: c5dd a23e 477c aebe d0e4 933e 3363 ddbe
000000e0: ae21 f2be 0509 cd3e 3100 d4be a3fc 073d
000000f0: 86e2 debd d7f2 17be d90f dbbc 0873 5b3d
00000100: 8589 dcbe bcc0 92bf a215 54bd 1a7f 26bf
00000110: d5ef cebd e175 e03d ec63 613d 2abe c73d
00000120: 68b2 af3e dc4c 03bf 2df9 94be c478 833e
00000130: 7947 0a3d baa8 febd 8ec3 903d 86ef b33f
00000140: 9c36 adbd c523 783e 4d05 a5be 11f7 42bd
00000150: d8b7 733f 3d12 9abd f392 7ebc 8eaa 973a
00000160: 721e f1be bde4 f3bd 9a80 25be 8cfe 6bbd
00000170: 9bf1 323f f19f 25bf e435 0bbe 07e3 1cbf
00000180: 2c1a 873d 586c 9dbf 593d 903e ce8e 703d
00000190: 4a4b cdbd 90ee a63f 7f50 33bf 9b39 143f
000001a0: af15 423f b58a 893f a916 663e 4527 853e
000001b0: 07f4 06c0 f127 523f 3b75 97be 9763 d93d
000001c0: 473d 2cbd b40e 033d a6f7 603f 929d 973c
000001d0: 243a a73e 2480 bbbe cf71 22be 640b 503e
000001e0: 8cef a2be e854 133f 3742 f73e 64ea 55bf
000001f0: 189f a0bd 427f 943e c7b5 58bd c9d1 aabe
00000200: 32bb e63f 00f6 41be 2025 463e 3694 d7bc
00000210: ebc7 2a3e ab13 073e 4137 2d3e dea1 05bf
00000220: 5ac7 cbbf ff16 c7be f41a a43d 5db1 31bf
00000230: 7128 a9bd 371c 01bf ae83 1fbf 496b ec3e
00000240: c9c0 3d3f ea81 183f e56b 7cbe aaf4 8d3d
00000250: 680e 9e3f eb9e 943e 6df0 88be 168e 7c3e
00000260: e3d5 a23f f68e 5abc 48a8 f4bc e9ff a7bf
00000270: 16a3 d7bd 543d c8bf 6ce1 363d 3429 59bd
00000280: 84c4 d73d 9b2d 99bd 0898 c5bd c3d3 33bd
00000290: 41f2 723f 317c ba3e b236 323f 7847 e83d
000002a0: 37fc bf3e 1c33 4cbf 9263 243e f7d4 1dbe
000002b0: f298 f33d 2ad4 d0be 8b28 813e ab06 4c3f
000002c0: cdf6 1d3e 63a5 7a3f d4e7 2bbf 3e02 8dbe
000002d0: 93e5 55be f1a9 f53d ec97 dabe 4d50 b3bd
000002e0: 6702 733f b1f8 4d3d 2419 dbbd 7a2e 8dbd
000002f0: 8cb3 123f d3ff e13f 6b88 853e 751f 24bc
00000300: 1770 6ebe 7e09 273e dd9b 3cbd 14f9 46bf
00000310: c932 a2be 9328 3c3f 3b44 5d3e 7160 7cbe
00000320: 602f 0abe f121 803e 0af4 03be 3f68 cdbd
00000330: 592d da3e 0369 9c3e d102 803f 5cce bf3b
00000340: 20f8 ab3e 1322 373e 8ba8 7ebf 5996 8fbd
00000350: 6c3e 1b3f 6739 a4be 8cf2 29bf b88e 5cbf
00000360: 0d5f 9abe c780 e5bf 870b d93d 2622 6ebd
00000370: 6386 76be 12a1 103f 11c8 c43e 32f1 6e3d
00000380: d90b d7bd 8404 efbe 574f 7bbf a748 3dbf
00000390: bba2 703f 2ae3 a33c 289c 213b 07d1 1cbe
000003a0: 1363 063e 56c7 293e 3844 413e 35a9 173f
000003b0: 0d25 9fbe 5946 52bf 2135 843e 0f37 05bf
000003c0: 457f a3bd 411c f7be e4c0 98be d64f 353f
000003d0: c32d babc f060 093f 543e d53e 5204 f13e
000003e0: 66d0 983f cb94 09bd 8b70 c5bd 76ea 413f
000003f0: 35de d53e 4e8e e33e 882d 3cbe 0320 4a3d
0.052865587 0.4855487 -0.08670491 -0.11487264 0.8017999 0.67276394 0.43545914 -0.0002875193
1.0547199 -0.47485954 1.105874 -0.015466445 -0.71685904 0.41508266 -0.49703184 1.6882701
-0.9945962 -0.4327213 0.0057463907 -0.05664409 0.0037754069 -0.9462055 0.9138448 -0.063024685
0.03935096 -0.30107722 2.422041 0.39507434 0.4884088 0.06950504 -0.01872876 0.036220722
0.107451245 0.31099078 -0.093265556 0.024550548 -0.3631063 -0.20488457 -0.26353043 0.29780194
-0.0027999782 0.2667725 2.3333414 -0.26344702 1.0887104 -0.13124 0.63393915 -0.28777024
-0.3559633 -0.1575245 -0.03381318 0.74433416 0.31809822 -0.3407919 0.28885508 -0.43239745
-0.4729132 0.40045944 -0.41406396 0.033199918 -0.1088305 -0.1483873 -0.026740955 0.0535765
-0.4307367 -1.1465068 -0.051778443 -0.6503769 -0.10104338 0.109599836 0.055026934 0.09753068
0.343158 -0.51289153 -0.29096356 0.25678074 0.033759568 -0.12434526 0.07068549 1.4057472
-0.084576815 0.24232395 -0.32230607 -0.047598902 0.952024 -0.0752301 -0.015537965 0.0011571215
-0.4709354 -0.11908863 -0.16162339 -0.0576158 0.6989991 -0.64697176 -0.13594776 -0.61283916
0.06596789 -1.2298689 0.28171805 0.05872994 -0.10024126 1.3041553 -0.700447 0.579004
0.75814337 1.0745455 0.22469582 0.26006523 -2.1086442 0.82092196 -0.29581627 0.106146984
-0.042050626 0.031996444 0.8787788 0.018507753 0.32661545 -0.366212 -0.15863727 0.20316845
-0.31823385 0.5755143 0.48292705 -0.83560777 -0.07842845 0.2900334 -0.05290773 -0.33363178
1.8025877 -0.18941498 0.193501 -0.02631579 0.16677825 0.13191096 0.16915609 -0.52200115
-1.5920212 -0.38884732 0.080129534 -0.6941126 -0.08259667 -0.5043368 -0.623103 0.46175602
0.7412229 0.59573233 -0.24650533 0.069314316 1.2348146 0.29027495 -0.2674593 0.24663576
1.2721523 -0.013339749 -0.029865399 -1.3124973 -0.10529153 -1.5643716 0.044648573 -0.05301781
0.10535529 -0.07479402 -0.09648138 -0.043903124 0.949009 0.36422876 0.6961471 0.113417566
0.37497112 -0.79765487 0.16053608 -0.15413271 0.118944064 -0.40786868 0.25226244 0.79697675
0.15426178 0.9790861 -0.67150617 -0.27540773 -0.20888357 0.119953044 -0.42694032 -0.087555505
0.9492554 0.050286 -0.106981546 -0.0689363 0.57305217 1.7656196 0.2608064 -0.010017266
-0.23284946 0.16312215 -0.04604708 -0.77723813 -0.3167937 0.7349941 0.21608059 -0.24646164
-0.13494635 0.25025895 -0.12886062 -0.10029649 0.42612723 0.30548868 1.000086 0.0058534574
0.33587742 0.17884092 -0.99475926 -0.070110984 0.60642123 -0.32075045 -0.6638572 -0.8615527
-0.30150643 -1.7929925 0.10597902 -0.058138035 -0.24074702 0.56495774 0.3843389 0.05833549
-0.10500307 -0.46683133 -0.9816794 -0.73938984 0.93998307 0.020005781 0.0024659727 -0.15314113
0.13123731 0.16579947 0.1887368 0.59242564 -0.31082955 -0.8213859 0.25821784 -0.5203714
-0.07983259 -0.48263744 -0.29834664 0.70824945 -0.022726899 0.5366354 0.41649115 0.4707361
1.1938598 -0.033589166 -0.096406065 0.75748384 0.41771093 0.44444507 -0.18376744 0.049346935

g.2.bias f4 [100]
00000000: 8848 2fc0 1de6 5cbe 4251 46bf f80b 6dbf
00000010: 2ac3 203f f925 bfbf ca96 3fc0 3dd6 203f
00000020: 51c9 6ebf 978d 8abf ddcc 0240 091a 8b40
00000030: 756f 113f f31d 863f d1b7 bcbf 0ea5 373f
00000040: 40d9 d0c0 3e69 1240 9054 62bf 0146 c7bf
00000050: b1a2 553f 7945 603f 5e79 b1bf 4b04 463f
00000060: f22a a73f a3f8 07c0 772d 243f 62e5 41bf
00000070: 97f1 eabf e975 2a40 3aee b83e 540c 46c0
00000080: 25b7 fcbd 7cf9 3e40 1f87 3840 d47d 1640
00000090: 57de eb3f f26c 06c0 7ebf 14be ea2c 5d40
000000a0: 5e4a 0f40 ec50 eabf cdff 1c40 0be8 d5be
000000b0: bc58 7a3f 432e bebf 93c2 c53e 0843 17c0
000000c0: 2b02 0bc0 6467 cebe 31cb 6540 6aa3 0c40
000000d0: 68ca 5bbe 76b1 31c0 f1ae b63f 8312 d4bf
000000e0: 34ef d9bf a3d9 1040 ed76 1540 5eed 12c0
000000f0: e1fb 12bf 8a5c 2c3f 9c6a 2e40 81fe d8bd
00000100: fe5d 06c0 c8c3 8a3f ae4a 063e 73f3 2640
00000110: 2f19 a43e 7dd8 44bf 88e4 4d3f 6e38 3440
00000120: 4151 103f 04f0 bd3f 96c0 82bf bb30 7cbf
00000130: b216 4dbf e307 ca3f ae85 9a3f 7bdf 4ec0
00000140: d78d 2c3d 5f6d 9740 67bb 4540 e0fb 943f
00000150: 66c7 c6bf 5cb8 4d3f 97d0 5cbe c520 463f
00000160: 7f08 8ebf ced4 753f e811 debf 65cf 993f
00000170: b675 8c40 198d a33f 4349 98bf 6036 33be
00000180: 15a9 72c0 326a d83f 075f 80bf 096e 06c0
-2.738802 -0.21572156 -0.7746774 -0.9259639 0.62797797 -1.4933463 -2.9935784 0.628269
-0.93275934 -1.082446 2.0437539 4.346928 0.56810695 1.047789 -1.4743596 0.7173623
-6.52652 2.2876735 -0.8841028 -1.5568238 0.8345137 0.87606007 -1.3865163 0.773503
1.3059981 -2.1245506 0.64131874 -0.75740635 -1.8354977 2.6634467 0.36119252 -3.0945024
-0.123396195 2.9839773 2.8832471 2.35143 1.8427228 -2.1003995 -0.14526173 3.4558663
2.238914 -1.8305945 2.4531128 -0.41778597 0.9779165 -1.4857868 0.3862501 -2.3634663
-2.1720073 -0.40313256 3.5905268 2.197474 -0.2146393 -2.7764564 1.4272138 -1.6568149
-1.7026124 2.2632835 2.3353837 -2.2957377 -0.57415587 0.67328703 2.725257 -0.10595418
-2.0994868 1.0840998 0.13114426 2.608609 0.32050464 -0.76892835 0.80426836 2.8159442
0.56373984 1.4838872 -1.0215023 -0.98511857 -0.80112755 1.5783657 1.2072046 -3.2323902
0.042127457 4.732101 3.0895631 1.1639366 -1.5529602 0.80359435 -0.21563946 0.7739375
-1.1096343 0.9602784 -1.7349215 1.2016417 4.389369 1.2777435 -1.1897358 -0.17501211
-3.79157 1.6907408 -1.0029 -2.100466

g.4.weight f4 [1, 100]
00000000: e62e c4bf a3c2 6a3e 3e21 94be 39d5 1cbf
00000010: bcd0 b0be 1095 0e3f ae8e 2fbf 720a 803e
00000020: b565 1b3f 3fd2 9c3e b32a 7c3f 845a 103f
00000030: e113 c43e 0381 22bf bd32 17bf a86e 313f
00000040: 43ab f93f 3c34 e13e d184 5a3f 4236 533f
00000050: 2b81 aa3e 14e7 003f 9558 08bf c5ea 2ebf
00000060: faa6 f33e 8230 d73e 10e7 1cbf bd8f d5be
00000070: d3a1 0f3f fdd7 92bf ee57 383f a8b1 93be
00000080: 8ada debe 5066 233f ab24 cbbe 403c f63e
00000090: f448 863f 1608 843e 1709 00bf d1d7 283f
000000a0: 839a ebbe 6379 b9be 5587 a03e e7c6 4f3f
000000b0: 044d ab3e 3f01 893f d091 e8be c6dd 0a3f
000000c0: eb77 bf3e 9f81 e7be 7164 4dbf 2777 18bf
000000d0: f7b2 053f ecdb acbe 3c47 fc3e 3170 e33e
000000e0: 9244 533f 7738 a8be eae1 05bf 8ff4 eabe
000000f0: 204a e13e cc58 ab3e 689f eebe 6b86 ce3e
00000100: 2df3 47bf 6a62 f13e 5b82 da3e 45be 4e3f
00000110: c138 90be 8115 babe 9960 aa3e 3d5d 753f
00000120: 8b72 cabe 2fd9 afbe 5b25 a63e e2c7 ab3e
00000130: 5cd8 1bbe 629b 6e3f cdc4 d23e 0d7e 023f
00000140: 7231 ee3e 7b57 89bf b748 de3f e0c9 d0be
00000150: b724 00bf ba54 cbbe a268 0ebf 5084 acbe
00000160: 199b 02bf 9d6a a9be 7933 343f d4ce d23e
00000170: 4ba3 9fbf 2b8a 473f f3ec b5be c12e d03e
00000180: 802e 2c3f ce03 a7be f1fa e8be 8b2f 52bf
-1.5326812 0.2292581 -0.28931612 -0.6126285 -0.34534252 0.556962 -0.68577087 0.2500797
0.6070207 0.30629155 0.98502654 0.56388116 0.38296416 -0.63478106 -0.59061795 0.69309473
1.950539 0.43985164 0.8535891 0.82504666 0.33301672 0.503526 -0.53260165 -0.6832698
0.4758833 0.42029196 -0.61290073 -0.41711226 0.561063 -1.1472164 0.7200917 -0.28846478
-0.43526107 0.6382799 -0.39676413 0.48092842 1.0491014 0.2578742 -0.5001387 0.6595431
-0.4601632 -0.36225423 0.3135325 0.81162876 0.33457196 1.0703505 -0.45423746 0.5424465
0.37396178 -0.4521608 -0.80231386 -0.5955681 0.52226204 -0.33761537 0.49273098 0.44421533
0.82526505 -0.3285558 -0.5229784 -0.45889708 0.44001865 0.33466184 -0.46605992 0.40336928
-0.7810543 0.47145396 0.42677578 0.8075908 -0.281683 -0.3634453 0.33276823 0.95845395
-0.39540514 -0.34345385 0.32450375 0.33550936 -0.15219253 0.93205845 0.41165772 0.5097359
0.465221 -1.0729822 1.7365941 -0.40779018 -0.5005602 -0.3971308 -0.55628407 -0.33694696
-0.5101791 -0.33089152 0.7039104 0.41173422 -1.2471708 0.779452 -0.3553234 0.4066067
0.67258453 -0.3262009 -0.45503953 -0.82103795
