models/bail_ALLR_lin_l0.100_s3.pth (torch, 1217 bytes, 1 tensors)

g.weight f4 [1, 16]
00000000: 812a 943d 28fc babd 208d 1938 381d 11bb
00000010: 6dbe 333d 9d3f 033d 844f e3bb 5faa e03b
00000020: cc37 9e3c 121a 1fbd 815f 14be dadb 363d
00000030: e974 96be 5691 153e 4d5c 13be 2496 7dbc
0.072346695 -0.09130126 3.6609476e-05 -0.002214266 0.043882776 0.03204309 -0.0069369692 0.0068562473
0.019313715 -0.038843222 -0.14489557 0.04464326 -0.2938607 0.14606223 -0.14390679 -0.015477691
