models/bail_ALLR0_mlp_l0.010_s3.pth (torch, 49957 bytes, 5 tensors)

g.0.weight f4 [100, 16]
0.5998741 0.13481559 -0.25685787 -0.40642723 11.559612 -0.26586416 -0.09324213 -0.29805234
0.049817763 -1.0761982 -0.02512596 -0.16475211 -0.12864321 -0.15673968 0.11612878 0.2569599
0.082471035 -0.021527609 -0.25549683 0.29686758 0.019183343 0.417398 0.04912674 0.6208299
0.009594638 0.07145032 -0.96095306 0.44094628 -0.7349602 -0.615145 0.114219226 0.23295721
0.300812 0.012948167 0.05890168 -0.012132833 0.15285149 -0.5678252 0.050470382 -0.20459118
0.0022539175 -0.027321469 0.5798309 -0.45408648 1.1654483 -0.20883794 -0.98749155 0.5295042
0.026838431 -0.01492263 0.8748631 0.19463 -0.08194198 -0.21735972 -0.28955072 -0.10701914
-0.005786206 -0.016766582 0.43497363 -0.9325273 -0.28113523 1.5094128 -1.0658619 -0.19637032
-0.45093903 -0.005124204 0.37490317 -0.26664174 -0.064104356 -0.041297603 -0.112401 0.13745044
-0.031901933 -0.0021781265 -0.40995649 1.4237584 0.006729177 0.6184896 -0.30104727 -0.17934166
-0.332266 0.009904352 -0.84063613 -0.33059618 0.2790912 -0.41208878 0.04407834 -0.31268302
0.002810319 -0.033806693 -0.2913546 -0.5983055 -0.45049936 0.1153336 0.40033844 0.07162876
-0.2825604 0.010546191 0.4943398 -0.36225393 -0.13206851 0.18724884 0.045243803 0.1300984
0.036221962 0.015741002 -0.33593553 -0.9932649 0.54187155 -1.3395265 0.4723195 0.28764468
-0.04004428 -0.0049275043 0.5687479 0.41803625 -0.035908926 1.2778473 -0.058039494 0.66734475
0.026159633 -0.055760905 -0.5805561 -1.0780822 0.0012074995 0.018050639 0.683452 0.4846416
0.01446075 0.06400326 0.0378002 0.017772228 0.083388604 -0.08398861 0.015622528 -0.013693634
0.040198706 0.032556225 0.012358948 -0.0027076919 -0.019414905 0.02934283 0.042254705 0.013944253
0.11062399 -0.026623642 -0.26036417 -0.0019711612 0.100423254 0.58680737 0.06786804 0.52814025
0.014563273 0.26487643 0.57946295 -1.1388736 0.27779117 0.45021832 0.54632187 -0.5222156
0.06873671 -0.009315095 0.29966152 0.57313704 -0.09620014 0.050552618 0.028752327 0.020727461
-0.0038291966 -0.07684758 -0.71181357 1.6464922 0.12744309 -0.6106016 0.54071665 -0.108498015
0.045217205 -0.030215248 -0.08780166 -0.053819705 0.003965357 -0.08208287 -0.019584727 -0.032101534
-0.06343392 -0.067262895 -0.037943717 -0.037092205 -0.06792116 -0.009017574 -0.018811576 0.015190258
-0.1787523 0.011101221 0.76892644 0.010121718 -0.16704012 0.11331273 0.043356515 0.4447256
0.0057291575 -0.026421884 0.7520716 0.68771625 0.9591024 0.2740845 0.2805856 -0.017158085
0.27157223 -0.032656465 0.53081775 -0.5695035 0.22595175 -0.28296164 0.086366415 -0.44389707
0.003417321 0.028703315 0.43831104 0.9570801 -0.91231054 -0.56978375 0.65512305 0.06987325
-0.02738131 0.027411073 -0.021922655 0.060338214 -0.040400088 -0.434999 -0.06354375 0.3006451
-0.012205492 0.5141378 -0.15407468 0.013629316 0.0137882 0.05500067 0.08100773 -0.048635464
0.056233883 0.030055108 0.11248165 -0.14657387 -0.06728113 -0.07533962 0.14602113 -0.27440292
-0.017404217 -0.043636564 0.6506167 0.7463124 0.63410926 0.6151681 -0.33076632 -1.4080586
00000000: 5991 193f 190d 0a3e e082 83be 3b17 d0be
00000010: 2cf4 3841 591f 88be bbf5 bebd 519a 98be
00000020: b60d 4c3d ddc0 89bf f5d4 cdbc c7b4 28be
00000030: 0cbb 03be 5e80 20be edd4 ed3d 3f90 833e
00000040: 93e6 a83d ab5a b0bc 7bd0 82be 07ff 973e
00000050: 6326 9d3c 31b5 d53e 1f39 493d b5ee 1e3f
00000060: d432 1d3c 8c54 923d 0501 76bf b6c3 e13e
00000070: 5a26 3cbf 257a 1dbf c5eb e93d 568c 6e3e
00000080: 0804 9a3e 8c24 543c e342 713d cac8 46bc
00000090: 1a85 1c3e fe5c 11bf 08ba 4e3d 5a80 51be
000000a0: 76b6 133b 46d1 dfbc cc6f 143f 067e e8be
000000b0: 692d 953f 9dd9 55be 3fcc 7cbf 968d 073f
000000c0: 45dc db3c 0c7e 74bc 07f7 5f3f 164d 473e
000000d0: 32d1 a7bd 8c93 5ebe fe3f 94be da2c dbbd
000000e0: 379a bdbb 125a 89bc ddb4 de3e 1cba 6ebf
000000f0: f5f0 8fbe 7034 c13f 2a6e 88bf 4d15 49be
00000100: 7be1 e6be f0e8 a7bb 4ff3 bf3e 4485 88be
00000110: 2549 83bd ad27 29bd 7f32 e6bd cfbf 0c3e
00000120: 9aab 02bd e6be 0ebb d1e5 d1be b73d b63f
00000130: 6e80 dc3b 5655 1e3f de22 9abe 57a5 37be
00000140: c51e aabe dd45 223c ee33 57bf e743 a9be
00000150: 0be5 8e3e 4dfd d2be 7d8b 343d fd17 a0be
00000160: 542d 383b e378 0abd 6e2c 95be 8d2a 19bf
00000170: daa7 e6be 0634 ec3d 29f9 cc3e 19b2 923d
00000180: c2ab 90be eec9 2c3c 1b1a fd3e 5979 b9be
00000190: f83c 07be 29be 3f3e 9151 393d 8438 053e
000001a0: 7b5d 143d 46f3 803c beff abbe 9c46 7ebf
000001b0: 18b8 0a3f 9b75 abbf ddd3 f13e 2a46 933e
000001c0: 7905 24bd e776 a1bb 7699 113f d908 d63e
000001d0: 3d15 13bd 8090 a33f d2ba 6dbd 1bd7 2a3f
000001e0: ba4c d63c 8c65 64bd 539f 14bf 99fe 89bf
000001f0: f644 9e3a efde 933c b6f6 2e3f f222 f83e
00000200: c8ec 6c3c 2414 833d 62d4 1a3d 1097 913c
00000210: a5c7 aa3d 3802 acbd a2f5 7f3c 445b 60bc
00000220: 66a7 243d ad59 053d 2f7d 4a3c 8873 31bb
00000230: 020c 9fbc 6060 f03c 4513 2d3d 7076 643c
00000240: d58e e23d d319 dabc 744e 85be 992e 01bb
00000250: b5aa cd3d 0239 163f 66fe 8a3d 3334 073f
00000260: cb9a 6e3c e29d 873e af57 143f 9cc6 91bf
00000270: a53a 8e3e 0483 e63e c0db 0b3f ecaf 05bf
00000280: d5c5 8c3d 579e 18bc 3c6d 993e 1cb9 123f
00000290: 9404 c5bd 4310 4f3d 008a eb3c a3cc a93c
000002a0: 42f3 7abb 4462 9dbd 6a39 36bf 42c0 d23f
000002b0: 7180 023e 6350 1cbf 686c 0a3f 3534 debd
000002c0: ad35 393d f885 f7bc 5bd1 b3bd 0d72 5cbd
000002d0: d3ef 813b 101b a8bd 2670 a0bc e67c 03bd
000002e0: a5e9 81bd 21c1 89bd df6a 1bbd ffed 17bd
000002f0: 401a 8bbd 72be 13bc bc1a 9abc 8fe0 783c
00000300: d80a 37be e5e1 353c 5dd8 443f 90d5 253c
00000310: 910c 2bbe 8110 e83d 9a96 313d 13b3 e33e
00000320: a8bb bb3b b572 d8bc c487 403f 2c0e 303f
00000330: bc87 753f ce54 8c3e eaa8 8f3e 1d8f 8cbc
00000340: 840b 8b3e c9c2 05bd ace3 073f fbca 11bf
00000350: e55f 673e 59e0 90be e0e0 b03d 7a46 e3be
00000360: 22f5 5f3b 3723 eb3c 4e6a e03e 3403 753f
00000370: 2f8d 69bf 59dd 11bf 25b6 273f b519 8f3d
00000380: c54e e0bc 308d e03c 2497 b3bc 3425 773d
00000390: 907a 25bd 30b8 debe 3a23 82bd 28ee 993e
000003a0: 8bf9 47bc 899e 033f c1c5 1dbe 7f4d 5f3c
000003b0: e7e7 613c 6248 613d 61e7 a53d fb35 47bd
000003c0: 8055 663d 2136 f63c c85c e63d 7617 16be
000003d0: b0ca 89bd a94b 9abd 9086 153e 8a7e 8cbe
000003e0: 4a93 8ebc 41bc 32bd d18e 263f 540e 3f3f
000003f0: fc54 223f a87b 1d3f 345a a9be 443b b4bf

g.0.bias f4 [100]
-4.394085 -0.88520217 0.36598694 0.11721685 0.7533266 -0.8410132 0.34141803 -1.7700528
-0.0009615321 1.6930634 0.2656574 -0.04827513 -0.28488588 -0.9572686 -0.34925506 -0.22225404
-0.02571461 -0.45996484 1.0176486 -0.46620986 -0.44848955 0.22967473 -0.0015976336 5.7028093
-0.023175325 0.8519298 -1.4170935 0.73240626 -1.1784074 0.01687733 1.1903086 0.16887735
-1.2641413 -0.53006786 -0.035091758 0.02885925 0.5646501 0.76193225 -0.056957647 -0.04492373
0.0007414357 0.01563876 0.6000802 0.035431203 0.20289053 -0.87161386 -0.003927421 0.08035777
0.9907413 -0.93128824 1.3157642 0.8700057 0.58240414 0.07758765 0.0044376235 0.36522067
-0.25383303 -0.07407906 0.009364766 -0.031011913 1.2427903 0.29824337 -4.360554 -6.832319
-0.01940232 0.08703716 0.0057083145 -0.19546758 0.0032079031 0.10440712 0.47806397 -5.4581885
-0.6543568 -0.46200475 -0.008473324 -0.026722083 -0.0052315816 -0.24188468 -0.048221245 0.03259699
0.026278019 0.061184864 -0.83935475 -6.740175e-05 0.014127694 -1.177883 1.0122204 -0.054352745
-0.3823738 1.2097766 -0.021061976 0.36945823 -0.8070567 0.026975155 0.06818756 0.038444325
0.80032235 -0.2456086 0.0046725487 0.009110012
00000000: 589c 8cc0 9c9c 62bf a462 bb3e 630f f03d
00000010: 03da 403f a44c 57bf 58ce ae3e 1791 e2bf
00000020: 540f 7cba 4db6 d83f 3f04 883e 25bc 45bd
00000030: 90dc 91be 8e0f 75bf 8fd1 b2be 9096 63be
00000040: 72a7 d2bc 8380 ebbe 4f42 823f 0fb3 eebe
00000050: 6ca0 e5be da2f 6b3e b067 d1ba 6a7d b640
00000060: 2eda bdbc 1218 5a3f 5263 b5bf fa7e 3b3f
00000070: 0ed6 96bf 5442 8a3c 085c 983f 2fee 2c3e
00000080: 62cf a1bf 87b2 07bf 60bc 0fbd 3c6a ec3c
00000090: e98c 103f fe0d 433f 6c4c 69bd f201 38bd
000000a0: e85c 423a db1c 803c db9e 193f 4f20 113d
000000b0: 89c2 4f3e 1622 5fbf 98b1 80bb 9d92 a43d
000000c0: 39a1 7d3f e868 6ebf f66a a83f b2b8 5e3f
000000d0: 7018 153f 46e6 9e3d 7c69 913b 34fe ba3e
000000e0: 67f6 81be c3b6 97bd ad6e 193c b20c febc
000000f0: c113 9f3f 5bb3 983e a989 8bc0 5ba2 dac0
00000100: 9df1 9ebc 8a40 b23d d00c bb3b a728 48be
00000110: af3b 523b 66d3 d53d cdc4 f43e 7ba9 aec0
00000120: ed83 27bf e38b ecbe b2d3 0abc 45e8 dabc
00000130: b06d abbb 9eb0 77be a483 45bd 6c84 053d
00000140: 0045 d73c fb9c 7a3d f4df 56bf 0a5a 8db8
00000150: d877 673c dfc4 96bf 7090 813f fca0 5ebd
00000160: 80c6 c3be f6d9 9a3f 2a8a acbc a129 bd3e
00000170: 459b 4ebf 00fb dc3c eba5 8b3d cc77 1d3d
00000180: ede1 4c3f d280 7bbe 2e1c 993b 2942 153c

g.2.weight f4 [100, 100]
-0.61846036 -0.20256227 -0.26590922 -0.82742167 0.48752117 -0.63483346 0.25003207 -0.3340175
0.012935863 0.7898508 1.0603464 -0.1617423 0.28364673 0.11941924 0.16423367 -0.08837736
-0.050052345 -0.26914954 0.4304253 0.046756547 0.07769592 -0.2934159 0.038896784 -1.2537038
-0.10774382 0.47793034 -0.37684554 -0.104052685 -0.24000554 -0.012404053 -0.532328 -0.8249639
-0.14520022 -0.07374802 -0.039878372 -0.01081791 -0.27412808 0.11914729 0.71482193 0.0070844353
-0.20091903 0.22649316 -0.06846875 0.028796718 0.07604614 0.17881113 -0.02752041 -0.7787757
-0.08011641 0.08487149 0.20343143 0.5542577 -0.40483424 0.030307861 0.042121004 -0.5821199
0.40013337 0.4231881 0.018715398 -0.07649866 1.2028209 0.93769574 -0.7039288 0.43426725
-0.053336967 0.03693499 -0.030567393 -0.16425048 0.1445592 0.0019392055 -0.40931445 -1.2435908
0.40098262 -0.7122603 0.012438122 -0.08138749 0.096188076 -0.5589067 -0.02323551 0.102126494
0.19791171 -0.09164545 0.68694085 0.48536426 -0.0076175383 -0.3552698 -0.045349404 -0.03723403
0.5112045 -0.44074732 -0.09405511 -0.30216914 0.017501019 -0.018278833 -0.09675619 0.062071312
1.2086879 -0.49869728 0.06398935 0.04458074 -0.8705271 0.37912983 -0.12788913 -0.5844871
-0.34196395 -0.13305035 0.19204779 -0.79530704 0.016005015 1.0094359 -0.2847624 0.17649755
0.24167195 -0.63117105 0.049086586 0.8357051 -0.040922616 0.9314816 -1.4715633 -0.7770843
-0.95368516 1.0965961 -0.070831686 1.5540361 -0.047790688 -0.3132241 -0.43948463 0.15928048
0.43049994 -0.011934304 0.21175164 0.41348198 0.39016566 -0.40854052 0.15455678 -0.019051138
0.25843382 0.098653995 0.52606034 -0.08645515 0.6813147 -1.3706305 0.31154752 0.048822664
-0.21877031 0.21681881 0.0009988465 0.29230422 -0.15574531 0.25130334 0.2679323 0.009287932
-0.6722058 0.08919072 0.085676536 0.5542573 -0.1704293 -0.014483187 0.0063655954 0.022475218
-0.8505881 0.11648331 -3.0791888 0.94482017 0.17076123 0.07162013 0.12476674 -0.7077602
-0.0010413786 0.010965165 -0.14224312 -1.3623866 0.47129297 0.21021979 -0.10596337 0.0015592389
0.010681316 0.19740649 -0.016212925 0.09212099 0.33692232 -0.024328489 -0.57688516 -0.27442172
-0.016177217 -0.6463652 -0.13400099 -0.20074265 0.01054052 0.03492066 -0.1036112 0.38590094
0.8631496 -0.1147966 -0.14223386 -0.0040859743 -0.8200663 0.20372574 -0.043176986 -0.049565565
-1.8902439 -1.0215017 -0.24362148 -0.031708185 0.46908098 -0.21784778 0.33362514 0.44420224
-0.045275614 -0.26221046 0.3472576 0.05204105 -0.31522235 -0.07675842 0.13765098 0.22286464
0.013604162 -0.79440075 0.3966524 -0.43936574 -0.436374 0.9606571 0.08678502 -1.9804631
0.06423123 -0.17758301 -0.78333634 -0.7646261 -0.078904144 -0.0291929 -0.49909607 0.5184224
-0.63926417 -0.50124776 0.057976544 -0.0013894461 0.37533277 -0.8337558 0.36924955 -0.012664996
0.519785 -0.25513184 0.08751123 -0.02018445 0.30830488 0.9230209 -0.015280078 -0.42803702
-0.20776527 -0.7948852 0.08918159 0.18091764 -0.45862767 -0.11537436 0.1177882 -0.23711172
00000000: 6b53 1ebf 7c6c 4fbe 4125 88be e8d1 53bf
00000010: 609c f93e 7284 22bf 3404 803e 5704 abbe
00000020: f1f0 533c a933 4a3f 6eb9 873f c69f 25be
00000030: 253a 913e 1392 f43d df2c 283e 30ff b4bd
00000040: b003 4dbd f8cd 89be b460 dc3e cb83 3f3d
00000050: 0a1f 9f3d 9c3a 96be 3c52 1f3d 5e79 a0bf
00000060: cba8 dcbd 49b3 f43e e6f1 c0be 9319 d5bd
00000070: 03c4 75be 5e3a 4bbc a646 08bf d630 53bf
00000080: 5eaf 14be 3409 97bd 8157 23bd 9a3d 31bc
00000090: 845a 8cbe 7f03 f43d 92fe 363f 8d24 e83b
000000a0: b8bd 4dbe d3ed 673e 5839 8cbd 18e7 eb3c
000000b0: 14be 9b3d 441a 373e 7c72 e1bc d85d 47bf
000000c0: 1314 a4bd 1bd1 ad3d 5450 503e d5e3 0d3f
000000d0: 6f46 cfbe 3148 f83c 1387 2c3d cf05 15bf
000000e0: 48de cc3e 1cac d83e 0951 993c 54ab 9cbd
000000f0: 09f6 993f d40c 703f ae34 34bf 4758 de3e
00000100: dd77 5abd 2549 173d 7868 fabc 4731 28be
00000110: 5407 143e f02c fe3a aa91 d1be fc2d 9fbf
00000120: 984d cd3e b156 36bf 44c9 4b3c 7cae a6bd
00000130: 41fe c43d 8214 0fbf 6558 bebc b227 d13d
00000140: 5ea9 4a3e 9cb0 bbbd 5bdb 2f3f aa81 f83e
00000150: 8b9c f9bb ece5 b5be 4cc0 39bd b682 18bd
00000160: 4cde 023f a2a9 e1be f79f c0bd eab5 9abe
00000170: 4c5e 8f3c 7ebd 95bc 1c28 c6bd 7d3e 7e3d
00000180: 49b6 9a3f 4055 ffbe d90c 833d 4b9a 363d
00000190: ddda 5ebf 4e1d c23e 5ef5 02be f2a0 15bf
000001a0: e615 afbe 5a3e 08be 2da8 443e 3e99 4bbf
000001b0: f31c 833c 3235 813f 61cc 91be c6bb 343e
000001c0: da78 773e 6d94 21bf 040f 493d c5f0 553f
000001d0: 799e 27bd 9475 6e3f 305c bcbf ffee 46bf
000001e0: b624 74bf 435d 8c3f 3410 91bd a8ea c63f
000001f0: 2bc0 43bd e95e a0be 2104 e1be 6c1a 233e
00000200: 7d6a dc3e 1988 43bc 6cd5 583e e9b3 d33e
00000210: cbc3 c73e 392c d1be 2244 1e3e 2211 9cbc
00000220: 7051 843e 1b0b ca3d e4ab 063f 660f b1bd
00000230: a46a 2e3f d270 afbf 2883 9f3e 46fa 473d
00000240: 5305 60be c005 5e3e baeb 823a e6a8 953e
00000250: b37b 1fbe d5aa 803e 6c2e 893e 692c 183c
00000260: ae15 2cbf a0a9 b63d 2e77 af3d cee3 0d3f
00000270: 0585 2ebe e44a 6dbc 7c96 d03b f31d b83c
00000280: 24c0 59bf cd8e ee3d 6e11 45c0 bcdf 713f
00000290: 08dc 2e3e 93ad 923d b485 ff3d c62f 35bf
000002a0: de7e 88ba 3ca7 333c 2ea8 11be af62 aebf
000002b0: 504d f13e db43 573e 5303 d9bd 605f cc3a
000002c0: b000 2f3c ed24 4a3e f8d0 84bc eea9 bc3d
000002d0: 1581 ac3e 8a4c c7bc bfae 13bf 0181 8cbe
000002e0: 1586 84bc 3178 25bf 8e37 09be 7b8f 4dbe
000002f0: 25b2 2c3c f708 0f3d 1c32 d4bd cf94 c53e
00000300: 5ff7 5c3f 7b1a ebbd c1a5 11be a3e3 85bb
00000310: ddef 51bf 7b9d 503e 5ada 30bd 4305 4bbd
00000320: 83f3 f1bf 91c0 82bf e977 79be 71e0 01bd
00000330: 622b f03e 7d13 5fbe ead0 aa3e 7a6e e33e
00000340: ec72 39bd 7340 86be c0cb b13e ff28 553d
00000350: d364 a1be 8533 9dbd 61f4 0c3e a136 643e
00000360: fee3 5e3c d95d 4bbf 0616 cb3e 8cf4 e0be
00000370: 6a6c dfbe a0ed 753f 58bc b13d d17f fdbf
00000380: aa8b 833d 52d8 35be bb88 48bf 89be 43bf
00000390: 7f98 a1bd f325 efbc 8589 ffbe 55b7 043f
000003a0: d1a6 23bf c651 00bf d078 6d3d 131e b6ba
000003b0: 9e2b c03e 0571 55bf 470e bd3e d880 4fbc
000003c0: a110 053f a4a0 82be 1639 b33d dc59 a5bc
000003d0: 23da 9d3e 194b 6c3f 4b59 7abc ab27 dbbe
000003e0: 6bc0 54be 997d 4bbf d6a4 b63d 7942 393e
000003f0: 3fd1 eabe 6449 ecbd f13a f13d 6acd 72be

g.2.bias f4 [100]
0.6692578 0.23040706 1.378788 -0.078939624 -0.22618136 -1.1358895 2.397807 0.032476846
-0.3408643 -0.28766638 1.2144903 -1.1527658 -2.1919475 0.65859234 0.25507435 0.39391235
-0.81731665 -0.42324206 0.10401452 -1.7974157 1.4196289 0.07819574 -0.8461357 -0.9406386
0.74606866 1.3998871 0.043067936 -1.6199393 0.5421983 0.28565624 0.76052237 1.4986571
-1.8531189 -0.9039688 -1.7180494 0.02724432 -1.0841103 -2.994153 1.5881652 1.4213257
-2.2277882 1.554266 -2.2108583 1.5916079 -2.926524 -0.13994467 -1.6654763 -0.06550079
-2.3471038 0.30870035 -1.793483 0.8532062 1.8012102 -0.18520221 -1.6621944 0.35016808
-1.649731 1.108575 0.49769792 1.1065383 -2.047857 0.060347367 0.4296938 -0.3350378
-0.6795404 -1.6762177 1.9302135 -2.7703936 2.0742462 0.51671445 1.1987734 -0.770414
-2.8942063 -2.2087336 0.22159353 -1.0083411 1.4056054 1.1177689 2.046342 -3.2960937
2.6014667 0.8490904 -1.1358858 2.719434 0.8086413 -0.5999891 0.07838068 -0.6182409
0.28691024 1.5398126 -1.9503099 2.110772 -0.2517738 2.7226741 -0.617021 0.8028326
-1.4035393 0.9885198 -0.4928097 -0.47270194
00000000: 7b54 2b3f d4ef 6b3e 207c b03f 19ab a1bd
00000010: 169c 67be d464 91bf ab75 1940 7106 053d
00000020: c485 aebe 0249 93be 6b74 9b3f d48d 93bf
00000030: de48 0cc0 8299 283f 1b99 823e e1ae c93e
00000040: aa3b 51bf 2fb3 d8be 9105 d53d b811 e6bf
00000050: 66b6 b53f 1725 a03d 599c 58bf b1cd 70bf
00000060: 5bfe 3e3f 802f b33f 0168 303d 2c5a cfbf
00000070: 82cd 0a3f 8941 923e 98b1 423f ffd3 bf3f
00000080: 0033 edbf 806a 67bf 0be9 dbbf 7b2f df3c
00000090: 20c4 8abf 34a0 3fc0 ff48 cb3f 00ee b53f
000000a0: 1594 0ec0 30f2 c63f b47e 0dc0 cfb9 cb3f
000000b0: 2b4c 3bc0 a84d 0fbe 542e d5bf 4725 86bd
000000c0: f336 16c0 f90d 9e3e da90 e5bf b96b 5a3f
000000d0: 0e8e e63f a6a5 3dbe c9c2 d4bf 3b49 b33e
000000e0: 632a d3bf c9e5 8d3f 43d2 fe3e 0ca3 8d3f
000000f0: 1710 03c0 cd2e 773d d300 dc3e 138a abbe
00000100: 5cf6 2dbf 4d8e d6bf 3c11 f73f 214e 31c0
00000110: 73c0 0440 6647 043f 6871 993f da39 45bf
00000120: ad3a 39c0 e45b 0dc0 6ae9 623e 5211 81bf
00000130: e1ea b33f 0d13 8f3f 44f7 0240 33f3 52c0
00000140: 6e7e 2640 fd5d 593f b564 91bf 350b 2e40
00000150: 1e03 4f3f e398 19bf 0d86 a03d 0945 1ebf
00000160: e6e5 923e 9418 c53f c1a3 f9bf e316 0740
00000170: 7fe8 80be 4b40 2e40 17f5 1dbf 7086 4d3f
00000180: 2da7 b3bf a20f 7d3f 8e51 fcbe fd05 f2be

g.4.weight f4 [1, 100]
-0.6212302 -0.56380635 0.5808325 -0.37759256 -0.3093686 0.31542054 -0.5303341 -0.43143737
0.2847427 0.4363029 -0.44275466 -0.41113362 -0.69898134 0.38240978 -0.9401387 -0.62056744
-0.9457029 -0.41749647 -0.49541256 -0.47902796 0.5290868 -0.3804285 -0.40928653 -0.35979235
-0.42888048 -0.5159171 0.4235022 0.46438468 0.40794978 -0.31054553 0.3532873 -0.5885068
0.90520453 0.46249193 -1.0150608 0.35458276 -0.39555046 0.6954111 -0.3008384 -0.6987646
-0.47066015 -0.88142 -0.6474097 0.7555457 -0.49370304 0.30254203 0.5940387 0.5961002
0.42784518 -0.38009048 -0.56226444 -0.42703164 -0.3157226 -0.41814888 -0.3902114 -0.3589654
-0.2923777 0.6110071 0.3582681 -0.33298218 -0.5010284 -0.27640724 -0.46499848 0.3338715
0.3477434 0.40416554 0.34145716 -0.5768102 0.37908638 -0.3245483 0.4386724 -0.4866417
-1.0360655 0.3022978 0.58442324 0.3821685 -0.46917024 -0.33559218 -0.7298879 -0.4783446
-0.42119214 0.49970025 -0.3161563 0.67418706 -0.3052343 0.5313391 -0.39161718 -0.24123752
0.41168156 0.45087954 -0.35931167 0.378365 0.51939267 -0.51764685 -0.45447272 -0.65796673
0.44260618 0.24234067 0.33565974 0.34456363
00000000: f108 1fbf 9d55 10bf 70b1 143f d053 c1be
00000010: 9065 9ebe cd7e a13e fac3 07bf 5ce5 dcbe
00000020: ccc9 913e 1863 df3e bdb0 e2be 1b80 d2be
00000030: 71f0 32bf 37cb c33e eeac 70bf 82dd 1ebf
00000040: 9619 72bf 19c2 d5be b7a6 fdbe 2743 f5be
00000050: 3c72 073f 86c7 c2be 018e d1be b436 b8be
00000060: 3996 dbbe 2513 04bf 48d5 d83e d4c3 ed3e
00000070: cbde d03e d3ff 9ebe 13e2 b43e 62a8 16bf
00000080: 7cbb 673f becb ec3e 83ed 81bf df8b b53e
00000090: 9785 cabe 7606 323f 7e07 9abe 3de2 32bf
000000a0: 5efa f0be bea4 61bf a4bc 25bf 716b 413f
000000b0: a5c6 fcbe cae6 9a3e ec12 183f 069a 183f
000000c0: 860e db3e 389b c2be 90f0 0fbf e4a3 dabe
000000d0: 65a6 a1be 9c17 d6be cac9 c7be 50ca b7be
000000e0: 88b2 95be f66a 1c3f eb6e b73e a47c aabe
000000f0: 6643 00bf 4085 8dbe 4814 eebe 35f1 aa3e
00000100: 6c0b b23e c9ee ce3e 79d3 ae3e d5a9 13bf
00000110: 9c17 c23e 322b a6be ab99 e03e 1a29 f9be
00000120: cb9d 84bf c7c6 9a3e c39c 153f 97ab c33e
00000130: 1537 f0be bdd2 abbe efd9 3abf 95e9 f4be
00000140: 7fa6 d7be b6d8 ff3e 3ddf a1be 8697 2c3f
00000150: ac47 9cbe d705 083f 0c82 c8be f806 77be
00000160: edc7 d23e afd9 e63e b3f7 b7be 0fb9 c13e
00000170: ebf6 043f 8184 04bf a6b0 e8be 8270 28bf
00000180: 479d e23e 2728 783e 98db ab3e a56a b03e
