models/compas_AF_mlp_s0.pth (torch, 43941 bytes, 5 tensors)

g.0.weight f4 [100, 1]
-0.009160563 0.689782 -0.7926482 -0.6785807 -0.76547915 0.13900948 -0.1929082 0.6765753
-0.019920874 0.024826989 -0.20458351 -0.216689 -1.0176457 -0.5938812 -0.4070072 0.021211384
0.22563489 0.37787786 -0.35271326 -0.20282318 0.37182307 0.55079967 -0.065381475 0.80088556
-0.38074434 0.085582286 0.34071043 -0.9637457 -0.53796107 -0.48022544 -0.22185616 0.6742084
-0.7915664 -0.24495341 -0.46022567 -0.6909816 -0.36622366 0.6044358 0.28076577 0.6270347
0.34801167 -0.44195923 0.34068266 -0.7326556 -0.94372064 -0.60346675 0.7853732 0.32212532
-0.5235078 -0.17516913 0.51969767 0.6524934 0.108946614 0.17395191 0.74449235 -0.88212854
0.20302619 -0.96031535 -0.5767017 -0.5260864 0.25599948 0.14603011 -0.80703276 0.28290603
0.36064506 -0.039434675 0.054276474 0.18167901 0.47602478 0.64515126 -0.6084567 -0.28813636
0.73404855 0.78979975 0.67824537 0.94883317 0.110488065 -0.8049782 0.11352689 -0.8516457
-0.60135454 0.6131507 0.9210895 -0.47680953 0.2596179 -0.13649973 -0.13426642 -0.3386968
0.3993373 -0.47509167 0.59855807 0.6586909 0.52750736 0.19676185 -1.0661343 -0.76481444
0.25636727 -0.017469257 -0.8838955 -0.37741184
00000000: 3016 16bc 8e95 303f feea 4abf 77b7 2dbf
00000010: 71f6 43bf 8058 0e3e ba89 45be 0a34 2d3f
00000020: 1a31 a3bc f861 cb3c 577e 51be b9e3 5dbe
00000030: 3742 82bf 9908 18bf 3f63 d0be 7fc3 ad3c
00000040: d50c 673e 3579 c13e d596 b4be e1b0 4fbe
00000050: 985f be3e 3501 0d3f b9e6 85bd d606 4d3f
00000060: ecf0 c2be c445 af3d 9971 ae3e 0ab8 76bf
00000070: d1b7 09bf 1ce0 f5be 432e 63be ec98 2c3f
00000080: 18a4 4abf 11d5 7abe b3a2 ebbe 2ce4 30bf
00000090: ab81 bbbe 4ebc 1a3f 88c0 8f3e 5985 203f
000000a0: 962e b23e 7b48 e2be f56d ae3e 518f 3bbf
000000b0: ad97 71bf cc7c 1abf 380e 493f 9ced a43e
000000c0: 9b04 06bf 895f 33be e80a 053f cf09 273f
000000d0: 671f df3d 7320 323e 0d97 3e3f 2dd3 61bf
000000e0: 19e6 4f3e 3ad7 75bf b9a2 13bf 99ad 06bf
000000f0: 5d12 833e eb88 153e b399 4ebf 0fd9 903e
00000100: 78a6 b83e 4186 21bd 0251 5e3d 100a 3a3e
00000110: 85b9 f33e a228 253f d1c3 1bbf 9c86 93be
00000120: 9bea 3b3f 5130 4a3f 7da1 2d3f bbe6 723f
00000130: 9147 e23d 0d13 4ebf c980 e83d 7405 5abf
00000140: 5ff2 19bf 72f7 1c3f 85cc 6b3f 6120 f4be
00000150: a3ec 843e 96c6 0bbe 237d 09be ab69 adbe
00000160: f075 cc3e 373f f3be 1a3b 193f f89f 283f
00000170: b90a 073f f07b 493e 1777 88bf e1ca 43bf
00000180: 9242 833e b01b 8fbc fa46 62bf 203c c1be

g.0.bias f4 [100]
0.17178248 0.48054662 -0.4213752 -0.29273033 -0.5763215 0.059784543 -0.17890368 -0.64387
-0.012108516 0.02274282 -0.1410232 0.21263194 -0.5887342 0.73090535 0.46944427 -0.101360105
-0.06978691 0.10666639 -0.018386325 0.031921905 0.22245117 0.20942011 -0.042534817 0.42837542
-0.37759653 -0.032590434 0.0030617567 -0.48822436 -0.28237084 -0.33392683 -0.123426996 0.2616584
-0.5452288 -0.09809416 0.42121276 -0.22566965 -0.071691774 0.06305278 0.14748517 0.4383886
0.29130033 0.4684776 0.23877858 -0.17087822 -0.71503234 -0.3579282 0.4860848 0.08750084
-0.32771242 -0.11128487 -0.6919864 -0.68525136 0.0356231 0.119194016 0.4217076 -0.5909852
0.13821778 -0.6055322 -0.25948814 -0.30811495 -0.042983405 0.028270418 -0.4901526 -0.33389017
-0.044808496 -0.014234 0.033546437 0.11179925 -0.5763894 0.040675573 0.7146048 -0.18581495
0.4668501 0.4106602 -0.7175291 0.54424036 0.046003465 -0.43746957 0.36527902 -0.5574714
0.0008247723 -0.07382394 0.5994675 -0.021167817 0.17734417 0.07211713 -0.08308209 -0.17681421
-0.5650132 0.38900378 0.30647534 0.4320832 -0.51680577 0.08650616 -0.62376994 -0.46214142
-0.21000026 0.007545852 -0.52327156 -0.11831347
00000000: bfe7 2f3e 350a f63e 7dbe d7be c0e0 95be
00000010: ce89 13bf a3e0 743d 8732 37be aad4 24bf
00000020: cc62 46bc 274f ba3c 6368 10be 30bc 593e
00000030: 49b7 16bf 9d1c 3b3f 005b f03e e395 cfbd
00000040: 71ec 8ebd e973 da3d eb9e 96bc 8bc0 023d
00000050: 3dca 633e 3a72 563e fd38 2ebd 0654 db3e
00000060: 5554 c1be 8c7d 05bd c1a7 483b 8bf8 f9be
00000070: e992 90be 75f8 aabe 4bc7 fcbd 17f8 853e
00000080: 1d94 0bbf 97e5 c8bd 33a9 d73e f215 67be
00000090: 23d3 92bd d121 813d 5a06 173e 7874 e03e
000000a0: 5125 953e 4cdc ef3e 5f82 743e b3fa 2ebe
000000b0: 5c0c 37bf 5d42 b7be 1be0 f83e a433 b33d
000000c0: ecc9 a7be 52e9 e3bd 0526 31bf a26c 2fbf
000000d0: 87e9 113d fe1b f43d 0fea d73e ce4a 17bf
000000e0: f688 0d3e 2904 1bbf a1db 84be 3ec1 9dbe
000000f0: 5e0f 30bd 5d97 e73c 48f5 fabe a7f3 aabe
00000100: 1d89 37bd b935 69bc fd67 093d 01f7 e43d
00000110: 418e 13bf 6e9b 263d 57f0 363f 4646 3ebe
00000120: fa06 ef3e 0e42 d23e fdaf 37bf 5653 0b3f
00000130: 216e 3c3d 03fc dfbe da05 bb3e 72b6 0ebf
00000140: 8835 583a 0131 97bd b476 193f 2168 adbc
00000150: b699 353e 25b2 933d f126 aabd c90e 35be
00000160: b4a4 10bf 812b c73e 56ea 9c3e 023a dd3e
00000170: 624d 04bf 242a b13d 63af 1fbf cd9d ecbe
00000180: 4f0a 57be 3243 f73b 20f5 05bf 554e f2bd

g.2.weight f4 [100, 100]
0.009959734 0.051886514 -0.06934008 -0.062418208 -0.06954811 0.09002248 -0.057880472 0.07808131
0.009849546 0.028582912 -0.0059440047 -0.014889069 0.028353008 -0.017674552 0.003222769 -0.0010189281
-0.077174254 -0.055183485 0.08410761 -0.07781431 -0.0034698567 0.09008233 0.031972628 -0.004313641
-0.09735119 0.045060355 -0.077486366 -0.012861986 -0.037296105 -0.023278177 -0.02387971 0.07366944
0.025563395 0.08037582 0.06797572 -0.051168498 0.046809357 -0.08019441 -0.0262127 0.020847604
0.051088467 0.080269314 -0.015673766 0.012305592 0.07242995 -0.0971993 0.059309725 -0.08131908
0.0022070087 -0.037737288 -0.057178836 0.0057070674 0.08306221 -0.01390844 -0.065608166 -0.022388706
-0.07774011 0.06268078 -0.047433313 -0.068939574 -0.05848073 0.061258625 0.062395703 0.07118245
0.030262176 -0.056778476 -0.037725627 0.03640941 0.07684467 0.014750449 -0.04153453 -0.055255085
-0.07662824 0.016007807 -0.060854577 -0.103530094 0.09582361 -0.057293475 -0.0030148982 0.041903254
0.016014023 -0.07711298 -0.09661243 0.08483734 0.024166508 0.08212251 -0.0581791 0.009945469
-0.026453799 0.0013855016 -0.057991955 0.024322558 0.0253241 0.010850862 -0.00011446449 -0.05346459
0.064287424 -0.06663159 0.05149712 -0.032149162 -0.03626258 9.277067e-05 -0.045811143 0.025470104
0.019254856 -0.033460073 -0.0006845654 0.028280176 0.066929586 0.032958847 -0.091116406 0.0014254801
0.05825243 -0.020834817 0.05299822 0.04914139 -0.052512605 0.0034151888 0.041881055 0.013460759
0.006492111 0.0053321803 -0.10869328 -0.0022348776 0.06155271 0.08388906 0.058578756 0.03159921
0.038432956 -0.0513903 -0.13356724 -0.09150795 0.1175622 0.03861976 -0.054236576 0.054896384
0.07409345 0.08579252 0.12618618 0.062664166 -0.010609955 -0.020024827 0.08602057 0.071782194
-0.05655551 0.09802833 0.025366927 0.06287393 -0.053355426 0.012516777 -0.049469545 0.065541245
-0.014933149 0.0569935 0.0019754618 0.048893075 -0.012700594 0.07673982 -0.07612924 0.02586114
-0.069497414 -0.08752749 -0.07870801 0.06260917 0.046013214 0.060900595 0.06875222 -0.079381585
-0.08394236 -0.032037977 -0.050782464 0.060378745 -0.071125746 -0.051801845 -0.10792249 -0.082162924
0.087687716 0.08728186 0.08949549 0.07964627 0.103705995 -0.03860366 0.020295093 0.09131077
0.056124374 0.10506915 0.030591462 0.020769022 -0.05133527 0.062027063 0.014699331 -0.039610434
-0.0700481 -0.021929212 -0.042925924 0.08357671 0.060950976 0.011781517 -0.03624045 0.07494342
-0.03164313 -0.14482543 0.01595888 0.115655914 0.19205274 -0.012146504 0.19370893 0.16569625
0.011478498 0.044595182 0.03901993 -0.15180874 0.16003458 -0.112838246 -0.19958374 0.07123982
0.060512688 0.00057415257 -0.0363367 0.0102806315 -0.08857258 -0.059685763 0.06323728 -0.02155448
0.19528477 0.008037367 0.029801551 -0.031190632 0.02051558 0.17962588 -0.05251373 0.024989896
0.22835688 -0.022456482 -0.1652415 -0.037524495 -0.009917705 -0.0527389 0.02987845 -0.24517164
-0.22348955 -0.21218787 -0.1424476 0.058067847 0.059107766 0.1883395 -0.18348347 0.0595478
0.14227113 -0.002869155 0.20914489 0.14201505 0.1601013 -0.03788872 -0.16441458 0.23358701
00000000: 272e 233c f486 543d 2c02 8ebd 3caa 7fbd
00000010: 3d6f 8ebd b55d b83d 1314 6dbd 18e9 9f3d
00000020: fd5f 213c b626 ea3c edc5 c2bb 48f1 73bc
00000030: 9144 e83c 39ca 90bc 1735 533b 8e8d 85ba
00000040: 890d 9ebd 1408 62bd 9c40 ac3d 1c5d 9fbd
00000050: 8966 63bb 167d b83d bbf5 023d 7259 8dbb
00000060: 1060 c7bd 3591 383d 2cb1 9ebd 14bb 52bc
00000070: cdc3 18bd e0b1 bebc 629f c3bc 01e0 963d
00000080: 536a d13c 149c a43d db36 8b3d 0f96 51bd
00000090: 2bbb 3f3d f83c a4bd 04bc d6bc 98c8 aa3c
000000a0: 2442 513d 3d64 a43d 4566 80bc 659d 493c
000000b0: 2756 943d 6d10 c7bd c1ee 723d 9e8a a6bd
000000c0: 76a3 103b 6a92 1abd 5b34 6abd 5a02 bb3b
000000d0: 851c aa3d 3ae0 63bc 935d 86bd 8568 b7bc
000000e0: 3536 9fbd c85e 803d 6f49 42bd 3130 8dbd
000000f0: 7d89 6fbd 53ea 7a3d a392 7f3d 1bc8 913d
00000100: 62e8 f73c 8c90 68bd 3086 1abd 0922 153d
00000110: bd60 9d3d deab 713c 1d20 2abd 2853 62bd
00000120: 44ef 9cbd ce22 833c a642 79bd 9607 d4bd
00000130: 2b3f c43d 90ac 6abd 9995 45bb bfa2 2b3d
00000140: d72f 833c 69ed 9dbd bddc c5bd 33bf ad3d
00000150: d7f8 c53c d92f a83d 354d 6ebd 52f2 223c
00000160: a3b5 d8bc b899 b53a f988 6dbd 1a40 c73c
00000170: 7d74 cf3c d0c7 313c a80c f0b8 b0fd 5abd
00000180: 20a9 833d 2576 88bd a5ee 523d d7ae 03bd
00000190: 1288 14bd e08d c238 77a4 3bbd aea6 d03c
000001a0: 5cbc 9d3c 6e0d 09bd 6874 33ba d4ab e73c
000001b0: 6112 893d dbff 063d 3d9b babd 2dd7 ba3a
000001c0: 1a9a 6e3d c7ad aabc a914 593d 7b48 493d
000001d0: 7517 57bd 5cd1 5f3b 788b 2b3d 848a 5c3c
000001e0: c6bb d43b 92b9 ae3b 959a debd 0677 12bb
000001f0: b21e 7c3d 07ce ab3d 47f0 6f3d 2c6e 013d
00000200: e06b 1d3d a37e 52bd dac5 08be 8568 bbbd
00000210: 73c4 f03d c12f 1e3d 2c27 5ebd 08db 603d
00000220: 4fbe 973d fdb3 af3d f336 013e 1256 803d
00000230: 60d5 2dbc 1b0b a4bc 8d2b b03d 8b02 933d
00000240: c0a6 67bd 14c3 c83d 4dce cf3c 0cc4 803d
00000250: 388b 5abd 2b13 4d3c 94a0 4abd 7d3a 863d
00000260: 2baa 74bc 0472 693d c076 013b 1b44 483d
00000270: 2716 50bc c429 9d3d a6e9 9bbd beda d33c
00000280: a954 8ebd 9d41 b3bd aa31 a1bd 3d39 803d
00000290: 5a78 3c3d e772 793d f7cd 8c3d d092 a2bd
000002a0: f9e9 abbd 413a 03bd 4601 50bd b44f 773d
000002b0: 60aa 91bd 2c2e 54bd 7706 ddbd 0945 a8bd
000002c0: 9e95 b33d d5c0 b23d 6949 b73d 951d a33d
000002d0: cf63 d43d df1e 1ebd e541 a63c 2401 bb3d
000002e0: ace2 653d 7f2e d73d f29a fa3c cc23 aa3c
000002f0: ef44 52bd 1710 7e3d 76d5 703c 8d3e 22bd
00000300: 6175 8fbd e4a4 b3bc 18d3 2fbd 442a ab3d
00000310: bba7 793d 4407 413c de70 14bd f07b 993d
00000320: 3a9c 01bd 1e4d 14be 32bc 823c 02dd ec3d
00000330: 79a9 443e 2102 47bc a25b 463e 47ac 293e
00000340: 4f10 3c3c 70a9 363d 5dd3 1f3d c073 1bbe
00000350: 1be0 233e bd17 e7bd ae5f 4cbe 2fe6 913d
00000360: 27dc 773d ba82 163a cbd5 14bd 1870 283c
00000370: 8a65 b5bd 0f79 74bd 8c82 813d 0593 b0bc
00000380: bbf8 473e 29af 033c 6222 f43c 7f83 ffbc
00000390: 4a10 a83c d9ef 373e a318 57bd 9cb7 cc3c
000003a0: 63d6 693e a8f6 b7bc 1135 29be 49b3 19bd
000003b0: df7d 22bc bf04 58bd a7c3 f43c 460e 7bbe
000003c0: 72da 64be c747 59be c9dd 11be 8dd8 6d3d
000003d0: fc1a 723d 12dc 403e 17e3 3bbe 65e8 733d
000003e0: 86af 113e 6f08 3cbb 142a 563e 656c 113e
000003f0: 98f1 233e 3431 1bbd 4c5c 28be 6f31 6f3e

g.2.bias f4 [100]
-0.0455321 0.0033589003 -0.20766461 0.04578687 -0.038287457 -0.07091629 0.06042405 -0.020677974
0.016522605 -0.0449563 -0.0918263 0.068135954 0.06355933 -0.039229218 -0.055632148 0.011460771
-0.116821736 -0.036499076 -0.10290419 -0.09178893 0.0050490834 0.11406913 -0.10717969 0.050940245
-0.09608592 0.017213782 -0.010473003 0.037090145 -0.09221981 -0.06316062 -0.054583706 -0.05274604
0.045688108 0.32148024 0.07930836 -0.014008038 -0.040751457 0.029914118 0.06636408 0.052144293
0.06388821 0.0030122707 -0.068580866 -0.049347606 0.062534906 -0.09119588 -0.038944602 -0.06758037
-0.018972833 0.01782638 0.081841305 0.07524832 0.026988074 0.02744726 -0.041114047 -0.039198875
-0.060266558 0.012802214 0.037808686 -0.08447587 -0.19342151 0.050854545 -0.08573032 -0.03412283
0.027138762 -0.07669338 -0.021911738 -0.080903664 0.039427876 -0.045265164 -0.065770276 -0.0101102255
-0.015264234 0.051734462 -0.049515665 -0.012482559 0.03727521 0.019833498 0.10170489 -0.033953287
-0.08216804 -0.28222415 -0.039605677 0.075500704 0.09322276 0.029466167 0.07486739 -0.07202918
-0.03476752 -0.026389452 -0.03743951 -0.10036006 -0.021085408 -0.027789049 -0.025046589 -0.020044837
0.1706791 -0.05689324 -0.07605561 -0.019370582
00000000: de7f 3abd ff20 5c3b 08a6 54be 038b 3b3d
00000010: 4fd3 1cbd 8f3c 91bd 357f 773d db64 a9bc
00000020: 6a5a 873c 1924 38bd 6d0f bcbd dd8a 8b3d
00000030: 652b 823d d1ae 20bd 89de 63bd f5c5 3b3c
00000040: 3c40 efbd 0e80 15bd 6fbf d2bd d6fb bbbd
00000050: c872 a53b 139d e93d 0681 dbbd b8a6 503d
00000060: b2c8 c4bd eb03 8d3c f596 2bbc d6eb 173d
00000070: bddd bcbd 5b5a 81bd 2a93 5fbd 3b0c 58bd
00000080: 7423 3b3d 0f99 a43e 6c6c a23d f881 65bc
00000090: 00eb 26bd 740e f53c e4e9 873d 4195 553d
000000a0: d2d7 823d 8469 453b 2074 8cbd b720 4abd
000000b0: 4d12 803d e8c4 babd 6084 1fbd 9467 8abd
000000c0: ea6c 9bbc a108 923c 6a9c a73d cb1b 9a3d
000000d0: 1816 dd3c 14d9 e03c 3467 28bd 008f 20bd
000000e0: 11da 76bd 61c0 513c 48dd 1a3d af01 adbd
000000f0: 4a10 46be db4c 503d 6193 afbd 61c4 0bbd
00000100: 1c52 de3c 6b11 9dbd 3f80 b3bc d2b0 a5bd
00000110: 207f 213d f767 39bd 91b2 86bd 5ca5 25bc
00000120: d616 7abc 84e7 533d f0d0 4abd a683 4cbc
00000130: e4ad 183d dc79 a23c a74a d03d 9a12 0bbd
00000140: b847 a8bd af7f 90be 9039 22bd 1da0 9a3d
00000150: 93eb be3d 0863 f13c 1354 993d 0984 93bd
00000160: 6368 0ebd b12e d8bc 2c5a 19bd 9389 cdbd
00000170: 4ebb acbc dca5 e3bc 812e cdbc 1235 a4bc
00000180: 81c6 2e3e e308 69bd 0bc3 9bbd 0eaf 9ebc

g.4.weight f4 [1, 100]
-0.0014311775 -0.009920357 -0.056873888 0.0804546 -0.018710464 0.006227947 0.009026536 0.0137179755
-0.0091823805 0.0034874454 -0.052278593 -0.005424588 0.02429951 -0.015765391 0.0012849383 0.0016199993
-0.013616543 0.016322944 0.08043175 0.011458608 -0.0044691768 0.041776538 0.019706521 -0.008139826
0.023589429 0.019590683 0.03794974 0.0022367865 0.006168444 -0.005658548 -0.0007491908 0.003077879
0.02820513 0.060684986 0.0009522629 0.00012740782 -0.00096147065 0.0017608785 0.00073196285 0.0030835602
0.06668485 -0.044142928 0.012997499 0.013611401 0.013877001 -5.303824e-05 -0.00429806 0.0011512822
-0.012968194 -0.024622295 -0.008997628 0.023086946 -0.0069742724 -0.10864312 0.011153595 0.031066367
-0.021075487 -0.041888393 0.008614235 -0.049710535 0.06551222 0.06068485 -0.048784234 0.010497112
0.0013325682 0.0143234655 -0.021021215 0.022774382 -0.00983893 0.0056617702 0.04063543 -0.0033816043
-0.0004805893 -0.009745316 0.049114753 0.044440486 0.0125205135 -0.015535098 -0.0077434704 0.022918448
-0.0662126 0.06914494 -0.006797199 0.00010861918 -0.0067332364 0.0004312687 -0.009507211 0.0022554125
0.018536482 0.014860283 -0.009398552 0.010212036 -0.01910373 0.014207236 0.052979864 0.0011851796
0.07093196 -9.840849e-06 0.0040164283 -0.038335234
00000000: 5996 bbba fe88 22bc 98f4 68bd 62c5 a43d
00000010: b046 99bc ce13 cc3b 09e4 133c 5cc1 603c
00000020: b271 16bc a08d 643b 1422 56bd bec0 b1bb
00000030: c40f c73c 6c26 81bc 606b a83a 2856 d43a
00000040: ec17 5fbc b2b7 853c 67b9 a43d e3bc 3b3c
00000050: 2c72 92bb e01d 2b3d 926f a13c e85c 05bc
00000060: 9e3e c13c a47c a03c 3071 1b3d 0d97 123b
00000070: a920 ca3b 576b b9bb 5865 44ba 3eb6 493b
00000080: 720e e73c d290 783d 48a1 793a c798 0539
00000090: 340b 7cba 47cd e63a 32e1 3f3a 8e15 4a3b
000000a0: 1192 883d 37cf 34bd 76f3 543c 5b02 5f3c
000000b0: 5c5c 633c 6075 5eb8 bed6 8cbb 9fe6 963a
000000c0: 8c78 54bc b2b4 c9bc ca6a 13bc d620 bd3c
000000d0: 7088 e4bb 4980 debd 91bd 363c e57e fe3c
000000e0: 80a6 acbc 2a93 2bbd b822 0d3c 469d 4bbd
000000f0: 452b 863d ad90 783d fad1 47bd 14fc 2b3c
00000100: 92a9 ae3a f8ac 6a3c af34 acbc 5791 ba3c
00000110: 7733 21bc 5f86 b93b 5671 263d e89d 5dbb
00000120: 9bf7 fbb9 d1aa 1fbc 8d2c 493d 3a07 363d
00000130: d722 4d3c ec86 7ebc f0bc fdbb 78bf bb3c
00000140: 799a 87bd dd9b 8d3d 0abb debb 7aca e338
00000150: 7ba2 dcbb e81b e239 22c4 1bbc 8bcf 133b
00000160: d2d9 973c 8b78 733c 62fc 19bc 6250 273c
00000170: 6d7f 9cbc 77c5 683c 6a01 593d 0758 9b3a
00000180: c744 913d 201a 25b7 3e9c 833b 6805 1dbd
