models/compas_ALLR_mlp_l0.100_s1.pth (torch, 45157 bytes, 5 tensors)

g.0.weight f4 [100, 4]
0	0x3abb62f4	0.0014296458
1	0xbc4f5afc	-0.01265597
2	0xba695f43	-0.000890244
3	0xbc2d9bbe	-0.010596214
4	0xbe9d9ac2	-0.30782133
5	0x3dc9fded	0.098628856
6	0xbd547475	-0.051868875
7	0x3f07ba83	0.5301897
8	0x3d20910b	0.039200824
9	0xbcb3f08c	-0.021965288
10	0x3d9496d0	0.07255328
11	0xbbe0ba9a	-0.006858182
12	0x3cb779e3	0.022396987
13	0xbc3509c3	-0.011049691
14	0x3c574853	0.013139802
15	0xbc5d2ad3	-0.01349898
16	0xbd181d3a	-0.037137248
17	0x3c1ce118	0.009575151
18	0x3d14da59	0.036341045
19	0x3d0d4785	0.034492034
20	0x3cca7fc4	0.024719127
21	0x3d6093d0	0.054828465
22	0x3bf6b921	0.0075293933
23	0xbef60ea5	-0.48058048
24	0xbc730f34	-0.014835168
25	0x3d3bb9d8	0.04583153
26	0x3cca81be	0.024720069
27	0x3cc53349	0.024072306
28	0xbe8071c6	-0.25086802
29	0x3e335ee0	0.1751666
30	0x3d51a920	0.05118668
31	0x3ebbe6af	0.36699435
32	0x3c16f785	0.009214287
33	0xbe3b6ed2	-0.18303993
34	0xbd0411eb	-0.03224365
35	0xbc512096	-0.012764117
36	0x3e3b255c	0.1827597
37	0x3c8dbb10	0.017301112
38	0x3d1dcbce	0.03852444
39	0xbe38674a	-0.18008152
40	0x3bfe407f	0.0077591534
41	0xbc4f12da	-0.012638772
42	0xbcf2b53e	-0.029627439
43	0xbc5d8fa2	-0.013523014
44	0xbb962032	-0.0045814747
45	0xbc5eebc4	-0.013606016
46	0xbd066269	-0.032808695
47	0xbc5574df	-0.0130283525
48	0xbc0100fa	-0.007873768
49	0xbcfc2528	-0.030779436
50	0xbd1184bf	-0.035526987
51	0xbb2c0ae8	-0.0026251618
52	0xbd11a57f	-0.03555822
53	0x3d3f261c	0.046667203
54	0x3e09c964	0.1345573
55	0x3eb0dcd1	0.3454347
56	0x3d525eb8	0.051359862
57	0xbd8ba91c	-0.068193644
58	0x3d0042d1	0.03131372
59	0x3bec0f6a	0.007203986
60	0xbe36632b	-0.17811267
61	0x3e82eb04	0.25569928
62	0x3e16ef29	0.1473967
63	0x3f3a54dc	0.72785735
64	0x3c8e97c0	0.017406344
65	0xbb771be8	-0.0037705842
66	0xbc92609d	-0.017868334
67	0x3dc017ca	0.093795374
68	0xba63454c	-0.0008669689
69	0xbd2cbbac	-0.042171165
70	0xbd1faad5	-0.038981277
71	0xbb8cc5ea	-0.004296054
72	0x3c006b9e	0.007838158
73	0xbd12ac19	-0.035808656
74	0xbd21272c	-0.039343998
75	0xbcf218b2	-0.029552791
76	0xbc439511	-0.011937396
77	0x3c21801b	0.009857203
78	0xbcd4f3ff	-0.025995253
79	0x3b7caf97	0.0038556808
80	0x3cc05eba	0.02348267
81	0xbc5929ef	-0.013254627
82	0xbc959e98	-0.0182641
83	0xbc3758af	-0.011190577
84	0x3b871b7a	0.0041231485
85	0xbe6b0640	-0.22951603
86	0xbdf972e2	-0.12180115
87	0x3ed03a30	0.40669394
88	0x3bacf79a	0.00527854
89	0x3d660ea5	0.05616631
90	0xba1ce8e3	-0.00059856306
91	0xbdf3c608	-0.11903006
92	0xbcb25d29	-0.021772938
93	0xbd45d8d8	-0.0483025
94	0xbbdf69f0	-0.0068180487
95	0x3a8d273e	0.0010769141
96	0x3b8097e4	0.003924357
97	0x3c8c18d8	0.01710169
98	0xba97b072	-0.001157297
99	0x3b817a0e	0.0039513176
100	0x3c5c400b	0.013443003
101	0xbca1eec6	-0.019767176
102	0xbb962199	-0.004581642
103	0xbc8d368f	-0.01723793
104	0xbd597e69	-0.05309907
105	0x3d410ba5	0.047130246
106	0xbd94cec8	-0.07266003
107	0x3c20cdd2	0.009814696
108	0x3c26e1a3	0.010185632
109	0x3dba21d2	0.09088482
110	0x3d1f8028	0.03894058
111	0x3ddee919	0.108843036
112	0x3d07b614	0.033132628
113	0xbdff694d	-0.124712564
114	0xbc0a8014	-0.008453388
115	0x3ab40464	0.0013734219
116	0x3d00d669	0.031454477
117	0x3dc5ee24	0.09664562
118	0xbcf1c16e	-0.02951118
119	0xbccd9d5c	-0.025099449
120	0x3c0dd1e7	0.008656002
121	0x3d838b8b	0.064231
122	0x3d5121a6	0.05105748
123	0xbd477999	-0.04869995
124	0xbc7e6b83	-0.0155285625
125	0xbccf010d	-0.025269056
126	0xbd577dc3	-0.05261017
127	0x3ca5a5c1	0.02022064
128	0xbcbd587a	-0.023113478
129	0xbca05c99	-0.019575404
130	0x3d1bbd2f	0.038022216
131	0x3d8dbe88	0.069211066
132	0x3cf820f9	0.03028916
133	0x3de8d740	0.11369181
134	0x3d45bebb	0.048277598
135	0x3ed9e292	0.42555672
136	0x3dd948e2	0.106096044
137	0x3ab7c699	0.0014020979
138	0xbdd46eaa	-0.1037267
139	0xbe5e7971	-0.21726014
140	0xbdc2d94f	-0.095141046
141	0x3db2c435	0.0872883
142	0xbaf76796	-0.0018875476
143	0x3de51857	0.11186283
144	0xbce45722	-0.02787358
145	0x3cedcb94	0.029027738
146	0xbd20e441	-0.03928018
147	0xb9bcd6ac	-0.00036018097
148	0x3c94cfae	0.018165436
149	0x3db3fd51	0.08788551
150	0xbc6f4306	-0.014603382
151	0x3f374579	0.7159038
152	0x39545400	0.00020249188
153	0x3c398de4	0.011325333
154	0xbd0c595b	-0.034264904
155	0x3d32aaab	0.043619793
156	0xbc4d2bcd	-0.01252265
157	0x3cbbc2a1	0.022919955
158	0x3bcc939a	0.0062431814
159	0x3bc5d6ce	0.0060375696
160	0xbe52d951	-0.20590712
161	0x3e0e6e8d	0.1390936
162	0x3da33775	0.07969562
163	0x3e8b9637	0.27263042
164	0xbcaae0a1	-0.020859065
165	0x3d268ee5	0.04066362
166	0x3b420e57	0.0029610598
167	0xbcd02fc1	-0.025413396
168	0x3c4ad6ac	0.012380283
169	0x3c974bfa	0.018468846
170	0x3d255e78	0.040373296
171	0xbc294fd4	-0.010333974
172	0x3c8f1b1e	0.017468985
173	0x3ccee039	0.025253402
174	0x3db752ea	0.089513615
175	0x3f73900d	0.9514168
176	0xbc2b8f01	-0.0104711065
177	0xbd39a62c	-0.04532449
178	0xbd4843a8	-0.048892647
179	0x3e355a7f	0.17710303
180	0x3c08e006	0.008354193
181	0xbda661f0	-0.08124149
182	0x3d4913bc	0.049091086
183	0x3c142151	0.009041146
184	0xbd671a38	-0.05642149
185	0x3e847319	0.25869063
186	0xbcc1240b	-0.023576757
187	0xbd3bb505	-0.04582693
188	0x3d0a138a	0.03371004
189	0xbe1464ac	-0.14491528
190	0x3b87738c	0.0041336473
191	0xbdda4d73	-0.106593035
192	0xbbd4421d	-0.006477608
193	0x3dc92d75	0.09823123
194	0x3d7cc6b9	0.061712954
195	0xbe96f6cf	-0.29485175
196	0x3deb8d31	0.115015395
197	0x3e2ef267	0.17084657
198	0x3e36bedb	0.17846243
199	0xbee9abab	-0.45638785
200	0x3d2d252b	0.042271774
201	0xbe085373	-0.13313083
202	0x3d0a6597	0.03378829
203	0xbd812ed3	-0.06307759
204	0xbbb3f2c4	-0.0054915864
205	0xbc85880b	-0.016300222
206	0x3c9ed01b	0.019386342
207	0xb9d483ed	-0.00040534083
208	0xbbb4358b	-0.005499547
209	0xbd070ce6	-0.032971285
210	0x3cd61ed0	0.02613774
211	0xbbdf872a	-0.0068215327
212	0xbe167cde	-0.1469607
213	0x3dfacf98	0.122466266
214	0x3de69189	0.112582274
215	0x3ebc2ed4	0.36754477
216	0xb9ae6abc	-0.0003326739
217	0xbe23e6cf	-0.16006015
218	0xbd9c6611	-0.07636655
219	0x3f331b30	0.6996336
220	0x3c6a7289	0.014309534
221	0x3cd93cdd	0.02651828
222	0x3d1fd73c	0.039023623
223	0x3c6557e7	0.013998008
224	0x3b7ea6c2	0.003885672
225	0xbcae16fb	-0.021251192
226	0x3bd623c8	0.006535027
227	0x3dab6ee1	0.08370758
228	0x3eae0709	0.33989742
229	0x3e8e756b	0.27823958
230	0xbcd13d2e	-0.025541868
231	0xbe343ca8	-0.17601264
232	0xbbbc5bda	-0.0057482542
233	0xbdf09eac	-0.11749014
234	0xbce045e6	-0.02737708
235	0x3c2e40aa	0.010635534
236	0xbb78b39e	-0.0037948857
237	0x3e48c486	0.19606218
238	0x3d26bc1e	0.040706746
239	0xbda19f6f	-0.07891738
240	0x3c41403d	0.011795101
241	0x3d9b5d9a	0.075862125
242	0xbc9b54c2	-0.018961314
243	0x3c11f7a9	0.008909144
244	0xbc7c89e7	-0.015413738
245	0x3dedbd70	0.11608398
246	0xbc05cc25	-0.008166348
247	0x3c548f34	0.012973595
248	0xbcc2f7de	-0.023799833
249	0x3e85ffe2	0.26171786
250	0x3e8c9bfa	0.2746275
251	0xbdc68f06	-0.09695248
252	0x3c433b01	0.011915923
253	0x3cfde096	0.03099088
254	0x3c912038	0.017715558
255	0x3b01807c	0.001976042

g.0.bias f4 [100]
0	0xbc7a1e16	-0.015265962
1	0x3ec4edef	0.3846278
2	0x3a7f72e0	0.0009744596
3	0x3c8499fa	0.016186703
4	0xbcd8bf12	-0.026458297
5	0xbe8cf8b2	-0.2753349
6	0xbd3184ef	-0.043339666
7	0xbe915806	-0.2838747
8	0x3e017d7e	0.12645528
9	0xbd90b2e3	-0.0706537
10	0x3b6ee558	0.0036452617
11	0x3cf1bb1d	0.029508168
12	0x3ca8a8ec	0.02058836
13	0xbde983aa	-0.11402066
14	0x3d8e1c2d	0.06938968
15	0x3ed65427	0.41861078
16	0x3d040014	0.032226637
17	0x3cd0acd0	0.025473028
18	0x3d2ea2d0	0.04263574
19	0x389fb720	7.6158205e-05
20	0x3c57421e	0.013138322
21	0x3ee705a9	0.45121506
22	0xbd52fdd6	-0.051511608
23	0x3ca158fb	0.01969575
24	0xbc6e0efe	-0.014529942
25	0xbc768bb3	-0.015047955
26	0xbd130fe4	-0.035903826
27	0xbde4c2af	-0.111699454
28	0x3d4fcfd3	0.050735306
29	0xbdaf2627	-0.08552199
30	0xbd5c1ec0	-0.053740263
31	0x3d39d48d	0.04536872
32	0xbc237d59	-0.009978616
33	0x3e1808e6	0.14847144
34	0x3d306c98	0.043072313
35	0xbe024200	-0.1272049
36	0xbcaab6f4	-0.020839192
37	0x3e25d65b	0.16195051
38	0x3d087408	0.03331378
39	0xbcfe095e	-0.031010326
40	0xbe9eec40	-0.3103962
41	0xbc91bc33	-0.017789936
42	0xbc83fbf8	-0.016111359
43	0x3ebaa087	0.36450598
44	0x3dc332e5	0.09531192
45	0x3d1c1d2e	0.038113765
46	0xbe61902c	-0.22027653
47	0x3e0fdf19	0.14049949
48	0xbe5274d9	-0.20552386
49	0xbefd5522	-0.49479014
50	0x3dc2de14	0.09515014
51	0x3b90109f	0.0043965126
52	0x3c8db56c	0.017298423
53	0x3d0f5a9f	0.034998532
54	0x3f07abb9	0.529964
55	0x3b869b63	0.004107879
56	0x3bed2a9b	0.007237745
57	0xbef1989e	-0.4718675
58	0x3d9bb852	0.07603516
59	0xbe53a91c	-0.20669979
60	0xbc494a82	-0.01228583
61	0xbde6c7b7	-0.11268561
62	0x3dbd3364	0.092383176
63	0xbc570bda	-0.013125384
64	0x3bf4981b	0.0074644214
65	0x3e9b18c2	0.30292326
66	0xbedb8923	-0.42878065
67	0x3dd37acf	0.10326158
68	0x3bf95213	0.007608661
69	0xbd81e9b1	-0.06343401
70	0x3d4bac56	0.0497249
71	0xbd0a77ae	-0.03380554
72	0x3d450aac	0.04810588
73	0x3e1e8bc8	0.1548301
74	0x3e339de2	0.17540696
75	0x3cab6271	0.020920964
76	0xbe894247	-0.26808378
77	0xbd52e493	-0.051487517
78	0x3bac9411	0.0052666743
79	0xbdb9770a	-0.09055908
80	0x3caa6a2b	0.020802578
81	0xbd6b98dd	-0.05751883
82	0x3c98a08d	0.018631244
83	0x3de88287	0.11353021
84	0x3d0c0de4	0.034192935
85	0xbe4a9555	-0.19783528
86	0xbb431aaa	-0.0029770532
87	0x3e7a4866	0.2444168
88	0x3e39487b	0.18094055
89	0x3b317f98	0.0027084108
90	0x3bb1e95a	0.005429429
91	0xbd1ae58d	-0.037816573
92	0x3cb758fc	0.022381298
93	0x3ce7a258	0.028275654
94	0xbd9113f6	-0.07083885
95	0xbbd016c4	-0.00635037
96	0x3d1d9625	0.038473267
97	0xbddc8115	-0.10766808
98	0x3cc3ff3d	0.023925418
99	0x3d55c33e	0.05218815

g.2.weight f4 [100, 100]
0	0x3bb5733f	0.00553742
1	0xbc4a9c95	-0.012366434
2	0x3d77f7d0	0.060539067
3	0xbd4f8632	-0.050665088
4	0x3db119cd	0.08647499
5	0xbd9c791b	-0.076402865
6	0xbdacbee2	-0.084348455
7	0xbdbd97eb	-0.09257492
8	0x3d3ff5f8	0.046865433
9	0xbda9ae51	-0.08285201
10	0xbd8b1e5e	-0.067929015
11	0xbaff6e2f	-0.0019487793
12	0xbcb1e29d	-0.021714503
13	0x3cb521e9	0.022110896
14	0x3dd2cf36	0.102934286
15	0x3a070812	0.0005151044
16	0xbe3c1866	-0.18368682
17	0x3da27565	0.079325475
18	0xbd7ee615	-0.062231142
19	0xbc19683e	-0.009363232
20	0xbcc4798f	-0.023983745
21	0xbd8182bb	-0.06323763
22	0x3d99ca20	0.075092554
23	0x3cf3b483	0.02974916
24	0x3c943662	0.018092338
25	0xbd3179fa	-0.043329217
26	0x3d1c67a2	0.03818477
27	0x3d2ee313	0.042697024
28	0xbc7a37a8	-0.015272059
29	0x3afd2862	0.0019314403
30	0xbcf6af7c	-0.030112974
31	0xbd00e650	-0.031469643
32	0xbda161a2	-0.0787995
33	0x3d207d7b	0.039182168
34	0x3d03a581	0.03214026
35	0xbd2ea5b0	-0.04263848
36	0x3da16fb6	0.07882635
37	0x3d5b3032	0.05351276
38	0xbde9bd87	-0.114131026
39	0x3e037d76	0.12840828
40	0x3d3aba8b	0.045588057
41	0xbdd9937f	-0.10623836
42	0x3c9b6d2b	0.018972954
43	0x3bf2fdc8	0.007415507
44	0xbc789dd4	-0.015174348
45	0xbbd00c4e	-0.006349123
46	0xbb49d273	-0.0030795604
47	0x3c8e51b7	0.017372949
48	0xbd0674a0	-0.032826066
49	0x3d322fee	0.04350274
50	0xbd9e25b3	-0.07722034
51	0x3c1a854d	0.009431195
52	0x3cf46911	0.029835256
53	0xbd1087b4	-0.035285667
54	0xbd7adaa3	-0.061243664
55	0x3d799b73	0.060939264
56	0x3d809d5b	0.06280013
57	0x3badec10	0.005307682
58	0xbd07603b	-0.033050757
59	0xbd0b2eab	-0.033980053
60	0x3d0baee3	0.03410233
61	0xbc23e5e4	-0.010003541
62	0x3c217a20	0.009855777
63	0xbd065a55	-0.03280099
64	0xbdb47afa	-0.088125184
65	0x3d45ed59	0.048322055
66	0xbe0a3d97	-0.13500057
67	0x3dbb42d2	0.09143604
68	0xbd693a55	-0.056940395
69	0x3d64ceac	0.05586116
70	0x3d9595d9	0.07303972
71	0xbc80673e	-0.01567423
72	0xbddb8e51	-0.10720504
73	0xbceb6cf1	-0.02873847
74	0xbcfbc5eb	-0.030734023
75	0x3e0c88f4	0.13724118
76	0x3c970ecf	0.018439678
77	0x3d6df421	0.058094148
78	0x3c410a7f	0.011782288
79	0x3c1b63d4	0.00948425
80	0x3d2cddce	0.042203717
81	0xbc8aebb6	-0.016958099
82	0x3b6067e4	0.003424161
83	0x3d146c25	0.036235947
84	0x3dc31bf3	0.09526815
85	0xbda69076	-0.081330225
86	0xbc4ab58d	-0.012372387
87	0xbc821a78	-0.015881762
88	0x3cca9a64	0.024731822
89	0x3d0d616d	0.03451674
90	0x3cd6ad9e	0.026205834
91	0x3c99ea77	0.01878856
92	0x3d00d9f7	0.031457867
93	0xbda2dabc	-0.079518765
94	0xbd91db2f	-0.07121884
95	0x3d93139f	0.07181477
96	0x3cc405e1	0.023928585
97	0xbd5024af	-0.050816234
98	0xbdd5870b	-0.10426148
99	0x3de0b8e8	0.10972768
100	0x3c3d83e5	0.011567091
101	0xbc2aa917	-0.010416291
102	0x3d508c62	0.05091513
103	0xbc408fb4	-0.0117530115
104	0x3d8aa715	0.067701496
105	0xbdd88804	-0.10572818
106	0x3c28eee4	0.010310862
107	0x3ddcb636	0.107769415
108	0xbc884dcc	-0.016638659
109	0xbcb8cad8	-0.022557661
110	0xbcf553c4	-0.02994717
111	0xbc0ba94d	-0.008524251
112	0x3ca39831	0.019970031
113	0x3cb99832	0.02265558
114	0xbd31089c	-0.0432211
115	0x3db0e1b1	0.08636797
116	0x3d8796a0	0.06620526
117	0x3d9a0848	0.07521111
118	0x3cbc43cd	0.022981549
119	0x3c549159	0.012974107
120	0x3bf92f98	0.0076045506
121	0x3d2ef0f5	0.042710263
122	0x3d641a5e	0.05568921
123	0x3d43f9b8	0.047845572
124	0x3de78aa8	0.113057435
125	0xbc4374da	-0.011929715
126	0x3dc91f65	0.09820441
127	0x3d44fe5f	0.04809415
128	0xbd8a8487	-0.06763559
129	0x3d361966	0.044457816
130	0x3cff7fd8	0.03118889
131	0x3ca8d31f	0.020608483
132	0xbb118eaa	-0.0022210279
133	0xbc8ded55	-0.017325083
134	0xbd947c93	-0.07250323
135	0x3bf28a34	0.007401729
136	0x3e0b1d48	0.13585389
137	0xbb7e6834	-0.0038819434
138	0xbc068f82	-0.008212926
139	0x3cb174b5	0.021662096
140	0x3d0600d0	0.03271562
141	0x3d19d8f4	0.03756042
142	0x3ccd2c52	0.025045548
143	0x3dd879a6	0.105700776
144	0x3dc52649	0.09626443
145	0xbcb55e4d	-0.022139693
146	0xbd5644fb	-0.05231188
147	0x3d82d9a9	0.06389172
148	0xbe18912f	-0.14899133
149	0xbe113328	-0.14179671
150	0xbd9bcab4	-0.07607022
151	0x3d84dbfb	0.064872704
152	0xbd36c96d	-0.04462569
153	0xbd40afb9	-0.047042582
154	0xbc3d00c3	-0.011535826
155	0xbd088a87	-0.033335235
156	0xbcec62b2	-0.028855655
157	0x3d441f96	0.047881685
158	0xbd1f7cb5	-0.03893729
159	0x3c06cfa1	0.0082282135
160	0xbc991676	-0.018687468
161	0x3d9008ee	0.07032953
162	0xbd437b54	-0.047725037
163	0xbdb96724	-0.09052876
164	0xbc64b652	-0.013959484
165	0x3c9b0399	0.018922614
166	0x3cf6004c	0.030029438
167	0xbe0a8090	-0.13525605
168	0xbdbcc9fc	-0.09218213
169	0xbc3bd01f	-0.011463194
170	0x39a983c8	0.00032332377
171	0x3d339d0e	0.04385095
172	0xbdad6212	-0.08465971
173	0xbcb2630a	-0.021775741
174	0xbc9c25d0	-0.019061
175	0xbd384132	-0.04498405
176	0x3bf65c5f	0.0075183357
177	0xbd64aa39	-0.0558264
178	0x3d70e29e	0.05880987
179	0xbdac4a6c	-0.08412632
180	0xbd87167e	-0.06596087
181	0x3d8aa76d	0.06770215
182	0xbd78c675	-0.06073614
183	0xbd4d7278	-0.050157994
184	0x3dbd0c15	0.0923082
185	0xbd2b6274	-0.04184194
186	0x3b93fbe3	0.004516111
187	0x3cbd1420	0.023080885
188	0x3b3f0d01	0.0029152038
189	0xbdb2c8fb	-0.0872974
190	0x3d672865	0.056435008
191	0xbd0c9094	-0.034317568
192	0xbdff64ee	-0.12470423
193	0xbd952b16	-0.072836086
194	0x3bb7d21d	0.0056097643
195	0xbdbe0142	-0.09277584
196	0x3d8c2d9a	0.06844635
197	0x3c90b792	0.017665658
198	0xbcb9fab3	-0.02270255
199	0x3c9f09fd	0.019413942
200	0xbd42bcc3	-0.0475433
201	0xbe02afa5	-0.12762316
202	0xbcea6d3c	-0.02861654
203	0x3d36b99a	0.044610597
204	0x3b92e259	0.004482549
205	0xbd27b011	-0.040939394
206	0x3d96aae3	0.07356813
207	0x3ccb3f50	0.024810463
208	0x3d889346	0.06668715
209	0xbd23753f	-0.039906736
210	0xbccc2005	-0.024917612
211	0xbc64bd0a	-0.013961086
212	0x3d345ba8	0.044032723
213	0xbd00db61	-0.031459216
214	0xbc45a4b1	-0.012063191
215	0xbdb1e17e	-0.08685587
216	0xbd3dfc5b	-0.046383243
217	0x3ceac51c	0.028658442
218	0x3c683f2a	0.014175216
219	0xbd7fe90d	-0.062478114
220	0x3d9ef0d9	0.07760782
221	0x3d7b5607	0.06136134
222	0x3c0e3c52	0.008681374
223	0xbdcc3abd	-0.09972141
224	0xbb43cbc2	-0.0029876088
225	0x3da0c45c	0.078499526
226	0x3c957ff5	0.018249491
227	0xbc11f2f4	-0.008908022
228	0x3d075241	0.033037428
229	0xbd970204	-0.07373431
230	0x3d8b57ab	0.06803831
231	0x3da57ad5	0.08080069
232	0xbc7a2e3b	-0.015269811
233	0xbd743c76	-0.059627973
234	0x3d984188	0.07434374
235	0x3d1966c6	0.037451528
236	0x3d0b0757	0.033942547
237	0xbe2bca89	-0.1677648
238	0x3d3c0f29	0.045912895
239	0xbd5d8540	-0.054082155
240	0xbe15535f	-0.14582585
241	0xbd965acb	-0.07341536
242	0x3cc2b766	0.023769092
243	0xbde1f898	-0.110337436
244	0xbd79fbef	-0.06103128
245	0x3d61644a	0.055027284
246	0x3cb09bf4	0.02155874
247	0x3d775abf	0.060389277
248	0x3d539c90	0.05166298
249	0x3db831db	0.08993884
250	0x3d9852ab	0.07437643
251	0x3d8b124e	0.06790601
252	0x3cedcf05	0.029029379
253	0xbdbf2a9d	-0.093343
254	0xbd953737	-0.07285922
255	0x3d777fa7	0.060424473

g.2.bias f4 [100]
0	0x3baf8de3	0.0053574904
1	0xbb806c02	-0.0039191255
2	0xbc757469	-0.014981368
3	0x3c70256c	0.01465736
4	0xbc0da627	-0.008645571
5	0x3cd2b4c2	0.025720958
6	0x3f0092ee	0.50224197
7	0xbe3e6ff3	-0.18597393
8	0x3d74d6e4	0.05977525
9	0xbcfccfeb	-0.030860862
10	0xbc941113	-0.018074548
11	0xbd85f293	-0.06540408
12	0xbc6cdcc9	-0.014456936
13	0xbe36722f	-0.17816995
14	0x3bfeec29	0.0077796173
15	0x3d372aa9	0.04471842
16	0xbd7cf81b	-0.06176005
17	0xbcb41cae	-0.021986332
18	0x3db4462d	0.088024475
19	0x3ca8cf18	0.020606562
20	0x3d8de971	0.06929291
21	0xbc192dc7	-0.009349293
22	0x3d604c92	0.054760523
23	0x3d923a5f	0.0714004
24	0xbd14af9e	-0.036300294
25	0x3db23765	0.08701972
26	0x3d627f28	0.055297047
27	0xbc7892f8	-0.015171759
28	0x3f2182c2	0.63090146
29	0xbdb217c2	-0.08695938
30	0xbe344fe2	-0.17608598
31	0xbda50ee2	-0.08059479
32	0x3de532ca	0.11191328
33	0xbb570f79	-0.003281562
34	0xbd1f43f6	-0.038883172
35	0x3dd80e5e	0.10549615
36	0xbdbe3599	-0.09287567
37	0x3ce926d5	0.0284609
38	0x3d4e432e	0.050357036
39	0xbd1b7bf2	-0.03796
40	0x3d48f27e	0.049059384
41	0xbf01b291	-0.50663096
42	0x3e16be39	0.14721002
43	0xbe84beb0	-0.25926733
44	0xbd800f9a	-0.06252976
45	0x3cb9b462	0.022669021
46	0xbc159f76	-0.009132257
47	0x3d8caff8	0.06869501
48	0x3d1025fc	0.035192475
49	0xbc8f6b08	-0.017507091
50	0xbca57ae1	-0.020200195
51	0xbc380738	-0.01123219
52	0x3df068da	0.11738749
53	0x3d18ff35	0.03735276
54	0x3d962c37	0.07332652
55	0x3dbf7e83	0.09350302
56	0x3d2bc6c3	0.0419376
57	0xbc9bd269	-0.01902123
58	0x3de7110a	0.11282547
59	0xbd517f20	-0.051146626
60	0xbc230f3a	-0.009952361
61	0x3ca92f7d	0.020652527
62	0x3ca20812	0.019779239
63	0x3d912a9d	0.07088206
64	0x3d180db8	0.03712246
65	0xbd925067	-0.07144242
66	0xbdbadfac	-0.09124693
67	0xbbddd116	-0.0067693098
68	0xbbf6cc2a	-0.0075316625
69	0xbdd083f5	-0.10181419
70	0xbc907395	-0.017633239
71	0x3d2d5247	0.042314794
72	0x3ddcad85	0.10775284
73	0xbea04e5e	-0.3130979
74	0xbdb73e45	-0.08947424
75	0xbbefc918	-0.0073176734
76	0x3c865498	0.01639776
77	0x3d571845	0.05251338
78	0x3ddbea37	0.10738032
79	0xbe15629c	-0.14588398
80	0x3d8b525e	0.0680282
81	0xbd198de0	-0.03748882
82	0x3d6959eb	0.056970518
83	0x3d289d6f	0.041165765
84	0xbd5912dd	-0.052996505
85	0xbdc90a1c	-0.09816381
86	0x3d0969f1	0.0335483
87	0xbbfebbb0	-0.007773839
88	0x3c2909de	0.010317294
89	0x3d0c51d0	0.03425771
90	0x3d3e7a4c	0.04650335
91	0x3cd73a1c	0.026272826
92	0x3d5ac802	0.0534134
93	0x3da0759a	0.07834931
94	0x3cdbdc29	0.026838379
95	0x3cac99cc	0.02106943
96	0x3caa8188	0.020813718
97	0x3db3ceca	0.08779676
98	0x3bd8e8fe	0.0066195717
99	0xbbed8446	-0.0072484342

g.4.weight f4 [1, 100]
0	0xbb473386	-0.00303957
1	0xbcd68539	-0.026186572
2	0x3d01f37f	0.031726357
3	0x3c13c7d6	0.009019813
4	0x3c119b65	0.008887147
5	0x3ac23c44	0.0014818986
6	0xbe46a266	-0.19397888
7	0xbd3bc195	-0.04583891
8	0xbb036adf	-0.0020052714
9	0x3da001ff	0.07812881
10	0xbd841827	-0.06449919
11	0x3a083614	0.00051960465
12	0xbb554d98	-0.003254747
13	0x3dcd99fd	0.100391366
14	0xbd3b58ff	-0.04573917
15	0x3c41a32f	0.011818691
16	0x3c288bdb	0.01028725
17	0x3b6fb0a1	0.0036573785
18	0xbc656415	-0.014000912
19	0xbc7d60d5	-0.015464981
20	0x3d2aa7c9	0.04166392
21	0xbb5dba2a	-0.0033832886
22	0x3b265218	0.0025378522
23	0xbbee1961	-0.007266209
24	0xbba5b36e	-0.00505679
25	0xbafd9c27	-0.0019348905
26	0x3b9d06b6	0.00479206
27	0x3c2cb6a1	0.010541589
28	0x3e0b00f0	0.13574576
29	0xbbe0948e	-0.0068536466
30	0x3dedfbd6	0.116202995
31	0xbd0d5558	-0.03450522
32	0xbca383fd	-0.019960398
33	0x39926ca3	0.0002792823
34	0x3b2f948f	0.0026791429
35	0x3b9e00e2	0.0048218826
36	0xbb3548cd	-0.00276618
37	0x3a0c3b0a	0.00053493737
38	0x3a6b889c	0.0008984895
39	0xbbffc7c6	-0.0078057973
40	0xbb00d646	-0.0019658967
41	0xbe40458b	-0.18776529
42	0x3cc189a5	0.023625204
43	0xbdd65123	-0.10464694
44	0xbb7cc342	-0.003856853
45	0xb9b2973e	-0.0003406349
46	0xbbe7e7f4	-0.0070772115
47	0x3a45f8d1	0.000755203
48	0x3b705341	0.0036670717
49	0xbba3c82c	-0.0049982276
50	0xbbfe6646	-0.007763657
51	0x3b27474f	0.002552468
52	0x3b66c22c	0.003521095
53	0xba9efa3c	-0.0012129019
54	0xbc899251	-0.016793402
55	0xba13fff0	-0.00056457426
56	0x3c8b258f	0.016985683
57	0xbd311b28	-0.04323879
58	0xbae4b25c	-0.0017448175
59	0xba941cb6	-0.001130006
60	0x3a70ba34	0.000918302
61	0xbbd4ec27	-0.006497878
62	0x3b40bc07	0.0029408948
63	0x3d2739ff	0.040826794
64	0x3d81265d	0.06306145
65	0x3bf7d3d7	0.007563095
66	0x3c442493	0.011971611
67	0xbc10348e	-0.0088015925
68	0x3d2a16de	0.041525714
69	0xba97ccbb	-0.00115814
70	0x3be66014	0.0070304964
71	0x3b0bf795	0.0021357287
72	0x3b1d4e0e	0.0024002823
73	0xbdf47c73	-0.11937799
74	0xb810e660	-3.454683e-05
75	0xbc079edd	-0.008277622
76	0x3c99a4c6	0.018755328
77	0x3c0c18f0	0.008550867
78	0x3cf9f0ad	0.030510271
79	0xbcfcb7f3	-0.030849433
80	0x3ae5c560	0.0017530136
81	0xbbb0082e	-0.005372069
82	0xb9a9c396	-0.00032379915
83	0xbc790449	-0.015198776
84	0xbbccd634	-0.006251121
85	0xbd70ac77	-0.058758225
86	0xbc23b2ec	-0.009991389
87	0xbd8acdad	-0.06777511
88	0x3a8169d4	0.0009873458
89	0xbc074875	-0.008257021
90	0x3be2e6f0	0.0069245026
91	0x3bcc5d96	0.0062367423
92	0x3b28686a	0.0025697001
93	0x3d891a90	0.066945195
94	0x3c50ae50	0.012736872
95	0x3d632c24	0.055462018
96	0xbc1192cd	-0.008885098
97	0x3db09fb5	0.08624212
98	0xbafffb2d	-0.0019529812
99	0x3991e540	0.0002782736
