models/compas_AF_mlp_s4.pth (torch, 43941 bytes, 5 tensors)

g.0.weight f4 [100, 1]
00000000: 81ed 13bd ef7e 913e 33cf d3be a77c b5be
00000010: 2cc3 80bf d093 f0be 92a2 4f3f 5012 ce3e
00000020: 99ee b7bc 2dea e83e b44b debd 63f9 4bbe
00000030: cd9f 0a3f 757e cabd f90c 813d 863b 303f
00000040: 7185 463e 7113 08bf 9f34 a6bd 559d fcbe
00000050: 0266 96bb a1fc 2ebe 7d7b df3d de60 713d
00000060: 7d62 603f 4072 643d 0954 393e 17fa 1c3e
00000070: cf13 a23e e6c4 72be 566e e73e aa53 6d3f
00000080: 8039 41be 8151 123e c1ba 4a3f 3b70 95be
00000090: edb6 a6be 53c3 8e3e d097 6d3f 2cff c23d
000000a0: 64d4 193e 5a1a 203f 6fb3 383f 7996 63be
000000b0: e192 6dbe 1ce4 4e3f b52d 753e 2d25 d8bd
000000c0: ea8e 1ebe f582 5c3f 83aa 26bf 1a47 193f
000000d0: 3b9c dc3e 5f5a edbe 0082 66bf cc67 5c3e
000000e0: 93cd e23e b87b 823f bf2d 023b 09af fe3e
000000f0: 6a7f e3be ac3b 463e 590e 89bf 1c34 e63e
00000100: c3a1 04bd 4bb5 a63e 485a e73e 838e 12bf
00000110: ec5c 2a3c 20ce 27bb 025a 033f 75b7 11bf
00000120: 3b8c c9be d0df 9dbe 1514 bfbe 61c5 093f
00000130: f236 fe3e 98fb 1b3e 788c bfbe a71f 20bf
00000140: 2536 3f3e 1a6f f33e 9c74 963e 48ad 52bf
00000150: 71c6 3ebb 427f 973d 4dee f63e a84a 1d3e
00000160: 379e 9bbe c280 81bf 6bd3 b63d 757b fa3e
00000170: 1522 663f 85fb 1f3f 7b4f f23e 8ee6 82be
00000180: 1815 19bf f762 8c3e 704d 7f3f aff6 82bf
-0.036115173 0.28417155 -0.41369018 -0.35446665 -1.0059562 -0.46987772 0.8110744 0.40248346
-0.02245264 0.45491162 -0.10854283 -0.19919352 0.54150087 -0.09887401 0.063013025 0.68840826
0.19386841 -0.53154665 -0.081155054 -0.49338785 -0.004589797 -0.17088558 0.109122254 0.05893027
0.8765028 0.05577302 0.18098463 0.15329777 0.31655738 -0.23707923 0.45201367 0.92705786
-0.18869591 0.14288904 0.79191214 -0.29187188 -0.32561436 0.27883396 0.9280977 0.095213264
0.15022427 0.6254021 0.72148794 -0.2222537 -0.23200561 0.8081682 0.23943217 -0.10553966
-0.15484205 0.86137325 -0.6510393 0.5987412 0.43087944 -0.4635801 -0.90042114 0.2152397
0.44297466 1.0194006 0.0019863693 0.49742916 -0.44433147 0.193587 -1.0707504 0.4496163
-0.03238083 0.3256019 0.45186067 -0.57248706 0.010398131 -0.0025605038 0.51309216 -0.5692056
-0.393648 -0.30834818 -0.3732001 0.538168 0.49651295 0.15232694 -0.37411857 -0.625483
0.18672998 0.475457 0.2938584 -0.82295656 -0.002910998 0.073973194 0.48228684 0.1536051
-0.30394146 -1.0117419 0.089270435 0.48922315 0.89895755 0.62493163 0.47326264 -0.25566524
-0.5979781 0.27419254 0.99727535 -1.0231532

g.0.bias f4 [100]
00000000: e323 1abd 5abd 623e 465b a73e 8ce0 00be
00000010: 0382 0fbf 5e36 43bc e080 57bf 37e0 2cbe
00000020: 57e2 833c 240b 17bd 62a1 293c 5490 73bd
00000030: bf8a febe 0135 d23c cd81 6f3c e481 d93e
00000040: 6f94 a23d 4d7b 7ebe cc11 56bc 393b 883e
00000050: 8e7a 4dbb d3c4 9dbd 6888 513d 1abb 2b3c
00000060: 685c f83e 8d88 473a 67e1 e83c 7347 483d
00000070: cc0b 813d 2c6a b13d c856 e5bc 9c4a fe3e
00000080: 809b 5ebd ef76 bc3c 3391 c33e 2608 cbbd
00000090: f6ec b43e f4dd 2c3c b6fe 0b3f 9369 293c
000000a0: 1bd1 363d f2d1 963e 93ab 3cbf b893 2fbc
000000b0: 3e40 073e 0bd6 c33e b27c 993d 093e 39bd
000000c0: 2e7e 123d ee06 b63e f5bb b6be 0bc3 a03e
000000d0: 8076 d9be 9a3d 10be 4d7b c3be 3140 cdbd
000000e0: 0e1d 01bf 7cfd 193f f959 e9bb a064 083e
000000f0: 88e0 37be 678a e6bc d223 29bf 5cf2 453e
00000100: f871 b1bc 92a2 3abe 68c7 833e 3a6e 233f
00000110: c1ec 3f3b 62b8 35be 36d2 953e 0c8e b33e
00000120: 0323 bd3e c54e 03be 58da 20be 10a4 513e
00000130: 6f38 5f3e 4eb2 613d 3242 41be 09c1 1e3f
00000140: 844b 913d 9e87 153d a191 8fbe 5753 e0be
00000150: 1b4a e53b 6241 133b ef80 643e ffe4 3f3c
00000160: 78fa d03d 3cfe 14bf 65fe 783a 8103 8f3e
00000170: dbfe 063f 86cf 2cbf 0bff 3c3e 1859 2c3e
00000180: 7e45 64be 6ddf e53d b274 133f f3bc 1dbf
-0.03763188 0.22142544 0.32686824 -0.12585658 -0.5605776 -0.011914818 -0.8418102 -0.16882406
0.016099138 -0.03687586 0.010353418 -0.059463814 -0.4971523 0.02566004 0.014618349 0.4248191
0.07938468 -0.24851723 -0.013065767 0.26607683 -0.0031353566 -0.07703557 0.051155478 0.01048162
0.48508 0.0007611595 0.028427793 0.048896264 0.06301078 0.08662829 -0.027995482 0.49666297
-0.054347515 0.02300593 0.38196716 -0.099136636 0.35337037 0.010550965 0.54685533 0.010340112
0.044633012 0.2945705 -0.736993 -0.010716371 0.132081 0.3824924 0.07494487 -0.045225177
0.035764866 0.35552162 -0.35690275 0.31398806 -0.4247322 -0.14085999 -0.3818001 -0.10022009
-0.5043496 0.6015241 -0.0071213213 0.13319635 -0.17956746 -0.028142167 -0.6607028 0.19330734
-0.02166079 -0.18226078 0.25738072 0.6384007 0.0029285403 -0.17746118 0.2926194 0.3506931
0.36940774 -0.12823017 -0.15708292 0.20472741 0.21798871 0.055101685 -0.18872908 0.620133
0.070944816 0.036506288 -0.28040794 -0.43813583 0.0069973595 0.002246939 0.2231481 0.011712312
0.10204023 -0.5820043 0.0009498357 0.2793236 0.5273263 -0.67504156 0.18456666 0.16830862
-0.22292134 0.11224256 0.5759994 -0.6161644

g.2.weight f4 [100, 100]
00000000: 03e0 9c3d 6a6f 0abe 6a4f e23c a70b d23d
00000010: 06ee e33c 82c4 953c 39ce cabd 110d 87bc
00000020: 8f1a 353d b613 163d e59b 083d 2bb2 cc3c
00000030: f370 40bd bfe7 37bd 6687 d4b9 e6e1 63bb
00000040: 1741 0a3c dc55 103d 60b3 143a fc76 d03d
00000050: 9c22 9d3d e5b1 c7bd da23 a2bd d54a c0bc
00000060: e98d 1cbd a75f 1ebc 552e c83c ff06 c8bd
00000070: 6bb1 d9bc c68d 8e3d 724d 36bd c114 a7bd
00000080: 26ec 703d c93c 7b3d aed6 3bbd 2d2b 2b3d
00000090: b8bb 9ab9 6362 dabd f2f2 bcbd 2ea6 c13d
000000a0: 0f7c dbbd 09e2 86bc 0c11 23bd 6337 613d
000000b0: b19c 5b3d 3bc9 0f3b d917 d1bd 457c f03c
000000c0: fbc6 52bd 51dc 21bd 2419 123b 15ed 4ebd
000000d0: 1497 b1bd eb5d 8d3b 8bf6 a0bc fc1b bcbd
000000e0: 64e8 e73c ec51 28bd 7e92 8cbd 9315 afbd
000000f0: a18f 073e 944d 5f39 6a98 9e3d 47a4 373d
00000100: fa86 f13d dd12 02bd 2aa4 7e3c 5b44 b73b
00000110: 9ff5 46bd 2568 bd3d 3362 71bd 7d22 9cba
00000120: 8efe 023d 9c5e 0c3e c79d 303d 0f40 64bd
00000130: 15ca 9dbc e6a4 97bc 5cbd be3d 4cfb d73d
00000140: ba4d 88bd 9023 583d a5f8 b0bd 7eb2 b03d
00000150: dbe8 c93c 98fb ff3c e741 22be 8779 65bd
00000160: a0f2 e439 30d1 013e a834 4fbd ebb3 0b3d
00000170: 9627 bbbd f710 943c f9f8 d83c 540f 7d3d
00000180: adbb fb3b 73b9 0cbc 04e9 20bd fe7c acbc
00000190: 3960 5f3d f703 a03d e2b4 10bd 61e6 023e
000001a0: c94d f93c 8226 063d 766d 2b3d 0700 623c
000001b0: 43c2 c43d 85f8 dcbd a8f1 14bd 27b8 61bd
000001c0: eec8 8c3c dc46 e23c a94a edbc 9692 b1bc
000001d0: 39cc ddbd 88f1 763d 15a2 0b3d 6167 fdbc
000001e0: a6c6 933d 362d 073d 1350 72bd 2bb7 a2bd
000001f0: 1057 fbbd ef97 593c cefe 35bb 70bd c8bd
00000200: 96d7 6ebd daad 63bc 62e4 cebc 8e90 80bc
00000210: b1bc d13d f4a1 733d f0aa f33b 9427 b43d
00000220: e288 a5bd 6d8c 83bd b41e bebd 75db 4d3c
00000230: 93a6 973c 78e1 71bc d5f5 27bc cac3 a5bd
00000240: 81ab 5dbd b059 f53b bc93 e6bd 026a 1c3d
00000250: 77d2 b23c a163 d4bd 5ed4 d13d 65d8 9fbd
00000260: 8c5b ab3d 2147 333d b4a6 d5bc 416f 9bbc
00000270: eb91 c13d e6c3 ffbd 17dd 073e 53bc 94bd
00000280: a52f 973b fcfd a1bd b596 f2bc 260e f1bd
00000290: 9afb 883c 4ac8 c03d d89b 163c 06be f13c
000002a0: 5d13 90bd bef9 adbd 64f1 643d d51d 96ba
000002b0: c87c a53c 0a92 823d e6f7 2a3d a463 bbbd
000002c0: 217f 6e3d 15e5 ccbc acaf 33bd ffe5 27bc
000002d0: 0e42 bbbd a645 a1bc 80b9 003e 5ab3 a9ba
000002e0: a2d9 06bd ffcf debc f965 48bd 34f3 c73b
000002f0: 5554 2dbc 8502 093e e1a7 433d 5982 00bd
00000300: 856d a3bd 35cf 773d 9483 f03c 789d a5bd
00000310: 66e3 003c 3df0 853d cbba a8bd 99ef e13d
00000320: efa3 68bd 045f 18bd bc20 3ebd a387 41be
00000330: 7efe 18be 5cce efbd 9ab8 b53d 3c46 313d
00000340: 8d88 363d d308 e13d 5220 d2bd c159 82bd
00000350: d86b 223d 55ae f13c 4284 b63d f846 933c
00000360: 0851 e0bc 769b 1fbe 601c a7bd 6a0f b0bd
00000370: 0507 a23d 6edf 20bd e034 c33d ce39 cb3b
00000380: 7dca 833e 62eb b93d d1a2 8abc 13fb 10bd
00000390: 18ce b73c 31fe 90bd 9e2b c53d e32b 293e
000003a0: ee56 59bd c789 7bbc 9152 443e 0921 23be
000003b0: d082 a1bd 4118 733c 5eed 823e d73f f13d
000003c0: b322 d33d 8228 833e bc2f f23b 3a5f c5bd
000003d0: 2256 4f3d e8ae 983e 7d9d 8a3d a983 9fbc
000003e0: b4d0 99bd 2e84 613e 2a12 43be 72c0 433e
000003f0: 9969 adbb b71d 4a3c 3d62 ecbd c58e 2a3d
0.07659914 -0.13519064 0.027625758 0.10256129 0.02782346 0.018282179 -0.09902615 -0.016485723
0.04421478 0.03663989 0.033351798 0.0249873 -0.046982717 -0.044898745 -0.0004053667 -0.0034772097
0.00843837 0.035238132 0.0005672481 0.101789445 0.07672617 -0.097507276 -0.079169944 -0.023473183
-0.038221274 -0.00966636 0.024436155 -0.097669594 -0.026573857 0.06960635 -0.04450745 -0.08158255
0.05881896 0.061337266 -0.04585903 0.041789223 -0.0002951303 -0.10663297 -0.09226026 0.094555244
-0.10717022 -0.016465204 -0.03981118 0.05498446 0.05361623 0.002194001 -0.10209627 0.029356131
-0.051459294 -0.03951675 0.0022292817 -0.050519068 -0.08671394 0.0043141744 -0.01964881 -0.09185025
0.028309055 -0.04109375 -0.06863879 -0.08549037 0.13238384 0.00021295837 0.077439144 0.0448344
0.11793323 -0.03175627 0.015542069 0.0055928654 -0.048574086 0.092483796 -0.05893154 -0.0011912134
0.031981044 0.13707966 0.04311922 -0.055725154 -0.0192614 -0.018511247 0.09313461 0.10545978
-0.0665545 0.05276829 -0.08641175 0.08627795 0.024647167 0.031247899 -0.15845452 -0.0560241
0.00043668319 0.12677455 -0.050587326 0.03410713 -0.0913841 0.018074496 0.026485907 0.061782196
0.007682285 -0.008589136 -0.03928472 -0.021055695 0.054535124 0.07813256 -0.035328753 0.12783195
0.030432599 0.032751568 0.041852437 0.013793952 0.09607365 -0.10789589 -0.036363274 -0.055107262
0.017185654 0.027621679 -0.028966265 -0.021676343 -0.10829968 0.060288936 0.03409012 -0.030933084
0.072156236 0.0330021 -0.059158396 -0.07945093 -0.12272465 0.013280853 -0.0027770284 -0.09801757
-0.058311068 -0.01389643 -0.025255386 -0.015693929 0.10241068 0.059480622 0.007436149 0.087966114
-0.08082749 -0.064232685 -0.092832 0.01256453 0.018512046 -0.014763229 -0.010251482 -0.080939844
-0.054118637 0.007487498 -0.11258647 0.038187034 0.021828873 -0.10370565 0.10245584 -0.07804946
0.083670706 0.043769006 -0.026080467 -0.018973948 0.0945166 -0.124885365 0.13267933 -0.072624825
0.004613834 -0.07909772 -0.029612878 -0.11770277 0.016721535 0.09413202 0.0091924295 0.029509556
-0.07034943 -0.084949 0.05589427 -0.0011452982 0.020201102 0.06375511 0.04174032 -0.09149864
0.05822671 -0.025011579 -0.043868706 -0.010247706 -0.09143458 -0.019686531 0.12570763 -0.0012947128
-0.032922395 -0.02719879 -0.048925374 0.00610199 -0.010579188 0.13379867 0.047767524 -0.03137431
-0.079798736 0.060500342 0.029359616 -0.080866754 0.007866716 0.065399624 -0.08238753 0.11032028
-0.056796964 -0.03719999 -0.046417937 -0.18899398 -0.14940831 -0.11709282 0.088731006 0.04327987
0.04456382 0.10988011 -0.10260071 -0.063647754 0.03965363 0.029502073 0.08911945 0.017978176
-0.027382389 -0.15586647 -0.08159709 -0.0859669 0.07911495 -0.03927558 0.095315695 0.006201959
0.25740424 0.09078099 -0.01692334 -0.035395693 0.02243714 -0.07079733 0.0962746 0.16520648
-0.05306142 -0.015352673 0.19172122 -0.1593057 -0.07886279 0.014837326 0.25571722 0.117797546
0.10309353 0.25616843 0.0073909443 -0.09637304 0.050619252 0.29820943 0.0676832 -0.01947196
-0.0751051 0.22023079 -0.19049898 0.19116381 -0.0052921292 0.012336186 -0.11542175 0.041640062

g.2.bias f4 [100]
00000000: 89ca 503b ef54 97bd c75d 9a3d 4234 eabb
00000010: e9c1 2a3e c8dc 053d 9a75 57bd 8d08 60bd
00000020: 89e9 24bc 7428 aebc 39ee 8cbd 325c 87bd
00000030: f65e 5a3b ae54 c53c 9a9b a33c 1904 9fbd
00000040: f15d fcbc cd45 11be 40a9 213e e411 373d
00000050: 4849 643d d830 7dbd e7ec a43d 64dd b23d
00000060: 0775 55bd 38fb b2bd a0e4 3abd 278c 5b3c
00000070: 5918 0cbc b21a b8bc 73ce c1bd beba 733d
00000080: 82ca efbc 99d9 d73d 708f 253d 8845 43bd
00000090: 62b7 88bd 34d3 c93d 5373 1abc 2102 f8bc
000000a0: 3246 30ba 28a7 55bc 2610 0f3d fee8 9bbd
000000b0: efad f2bc 60e8 b73c 46ac ee3c ec3e 40bd
000000c0: a4ca b4bb a0bf 7abd d911 363e 0546 7a3a
000000d0: 332e 2abc 2381 b33c 3d01 38bd 8b12 9dbd
000000e0: a961 38bd 85bd 8f3d 6bb5 79be 8d35 d73c
000000f0: a630 4fbd 509e d2bc 3208 ffbb 9cc8 ccbd
00000100: b22e 6e3d ee9a dabb 5acf e9bc 2047 0bbd
00000110: cfa3 abbc 321b b4bd d689 223d d20a 82bd
00000120: 1ed4 bebd 5df5 113c a22e 993c 4bc8 dd3c
00000130: 1d55 8bbd ea03 83bd 8c64 8abd 2fea a23d
00000140: ec74 1fbc f2b4 193d ea85 a83c be9a 04bc
00000150: 3aac 00be 2182 a13d 15fc 67bd 55d4 863d
00000160: 02fd af3b 2193 debd 9a28 38bd c164 703d
00000170: f041 27bd 4250 913d 96ed f7bc f836 35be
00000180: 884d 113d eb5e ef3c 547b 93bd 360a 303d
0.0031859002 -0.07389247 0.07537418 -0.007147343 0.16675533 0.032681257 -0.052602388 -0.054695655
-0.010065445 -0.021259524 -0.06881375 -0.06609382 0.0033320761 0.02408823 0.019971658 -0.077644534
-0.030806514 -0.14186783 0.1578722 0.044694796 0.05573395 -0.06181416 0.08052998 0.08733633
-0.05211356 -0.087393224 -0.04562819 0.013400114 -0.008550727 -0.022473667 -0.09463205 0.059504263
-0.029271368 0.1053955 0.040419996 -0.047673732 -0.066756025 0.09854737 -0.0094269095 -0.030274453
-0.0006724327 -0.013040341 0.03492751 -0.07612799 -0.029623954 0.022449672 0.02913488 -0.046935007
-0.0055173207 -0.061217904 0.17780246 0.0009547177 -0.010386991 0.021912163 -0.044923056 -0.076695524
-0.04501501 0.0701857 -0.24385612 0.026270652 -0.050583504 -0.025710255 -0.0077829594 -0.09999201
0.05815 -0.006671301 -0.028541256 -0.034003377 -0.020952133 -0.087942496 0.03968223 -0.0634972
-0.09317802 0.008908597 0.018698994 0.027073046 -0.068033434 -0.06397231 -0.06757459 0.07954823
-0.009732466 0.03752608 0.020571668 -0.008093534 -0.12565699 0.07886148 -0.05663689 0.06583468
0.005370737 -0.10867906 -0.044960596 0.058689836 -0.040834367 0.07095386 -0.030264657 -0.1769675
0.03547433 0.029220065 -0.07201257 0.042978488

g.4.weight f4 [1, 100]
00000000: f58a b2bc 7875 8ebb 2305 adbd fb15 9a3c
00000010: 0a1f a53d 06ad b7bc 5804 0abb ea50 4e3d
00000020: f8bc c9ba c2e0 4c3b e576 23bd 4ab3 97bb
00000030: 3092 333c 8f29 37bd 1279 9ebc 091a a53c
00000040: 946a 3cbc c892 fcbc ed5c 753d 55ed 883c
00000050: bad3 a93c fae2 a53a 536a 613c 5123 4f3a
00000060: 960a 1bbb b790 bbbb 25da 873b 92c5 ba3a
00000070: d94e 99bc 5b50 bdba 556c 4ebd 225c 993b
00000080: 12ff c6bb 2300 a73b 26b8 47bc 361c 8e3d
00000090: 1b1a 03bc 3270 2ebb 6cb3 49bc 62f1 5dbc
000000a0: 8a09 90bc c27a 303c 52de 5c3c 7a25 463b
000000b0: 2c6f babc 1899 833c 24ab 4a3a 9615 7bbc
000000c0: 72d2 40bc 3ab4 45bc a23c 3a3c b32b f93b
000000d0: c7ff 293c ac47 fd3c b666 053c 1744 92bd
000000e0: 245a 17bd c564 3abc 7a8c 82bd dcf8 2e3b
000000f0: da9f 113c b0cd 8f3a 5760 563c 5e36 103c
00000100: cbfe 10bc 7fc6 13bc 5468 9cbb afca 69bb
00000110: 9440 563c 59d5 33bc c044 aa3b 3c54 62bc
00000120: 469f 59bc 44ca 8cb9 8489 843c c46f 023e
00000130: b288 9cba 5f48 d4bb 060b adbb 5433 79bc
00000140: 8ef2 2f3a 5f8f b83c d1f9 003d 20e1 8d3b
00000150: 3951 8dbc 34a6 5e3c c36b 8c3c f9d1 3a3c
00000160: ce15 bf3b 3a09 7dbc c3a7 86ba fa87 843a
00000170: 300c 583c 4bcb 843c f25d abbb d2a0 88bd
00000180: 6363 423b bbd1 6f3b 49c2 dcbd 22ea fa3a
-0.021794776 -0.0043474995 -0.084482454 0.01880931 0.08062561 -0.022421371 -0.0021059718 0.050370134
-0.00153914 0.0031261896 -0.03990831 -0.004629527 0.010960147 -0.044717368 -0.01934484 0.020154016
-0.01150002 -0.03083171 0.059903074 0.016714731 0.020730842 0.0012656145 0.01375826 0.0007901686
-0.0023657433 -0.0057240385 0.004145878 0.0014249554 -0.018714355 -0.0014443503 -0.050396282 0.0046801725
-0.006072887 0.005096452 -0.0121899005 0.069389746 -0.0080018295 -0.0026617167 -0.012310844 -0.01354632
-0.017582674 0.010771455 0.01348074 0.003023474 -0.022758089 0.016064212 0.00077311904 -0.015324971
-0.011768924 -0.012066895 0.011366995 0.0076040863 0.0103759235 0.030917965 0.008142164 -0.07141893
-0.0369512 -0.011376564 -0.0637445 0.0026698625 0.008888209 0.0010971334 0.013084493 0.008802025
-0.00884981 -0.009019493 -0.004773179 -0.0035673787 0.01307692 -0.010976159 0.005196184 -0.013814028
-0.013282603 -0.0002685358 0.016178854 0.12737948 -0.0011942594 -0.006478354 -0.005280855 -0.0152099915
0.00067118637 0.022529302 0.031488243 0.0043298155 -0.017250644 0.013589431 0.017141229 0.0114026
0.0058314567 -0.015444094 -0.0010273386 0.0010111325 0.0131864995 0.016210219 -0.005229705 -0.06671299
0.002966129 0.0036593515 -0.107792445 0.0019143263
