models/compas_ALLR1_mlp_l0.100_s0.pth (torch, 45157 bytes, 5 tensors)

g.0.weight f4 [100, 4]
000000 42 93 e2 3c d2 80 4e 3c 43 03 ea bd 3c e4 0e be
       0.027658109 0.012603955 -0.114264034 -0.13954252
000010 17 03 ca bd 4c 9c d6 3d f8 e8 16 bd aa 1b 1d 3f
       -0.098638706 0.1047903 -0.03684327 0.61370337
000020 b0 3b f5 bb 4d ab 91 3d 5c e2 e6 3c 0a 80 a8 bb
       -0.007483922 0.07112751 0.028184108 -0.0051422166
000030 88 3f b4 be 56 b0 ac be 8e 2c f5 bd cf 86 26 3e
       -0.3520472 -0.33728284 -0.11971389 0.16262363
000040 35 32 f1 3c 2a 6c b7 bb 38 23 4b 3a 9c 17 4c 3d
       0.029442886 -0.005597611 0.00077490835 0.049827203
000050 4d 36 f8 3c 22 48 aa 3e d5 9b a6 bc 58 2f 7c 3e
       0.03029933 0.33258158 -0.020337978 0.24627435
000060 03 30 11 3d 5f 02 09 be 3a 2f eb 3d ad 32 b9 be
       0.03544618 -0.13379811 0.11483617 -0.36171475
000070 c4 d2 a1 bd 6d 3e 25 be 5a 87 bd bd ef dc 08 3f
       -0.079015285 -0.16137095 -0.09254332 0.5346212
000080 90 88 98 bd fb 8f c1 bd 8d 27 c6 bd ad 6e 47 bf
       -0.07447922 -0.0945129 -0.096755125 -0.7790325
000090 1d 13 97 bd 07 d2 58 3e 16 79 0e bd 6e 6c 4a 3e
       -0.073766924 0.21173869 -0.034783445 0.19767925
0000a0 74 a2 9b bc d3 10 ea bd 70 93 c8 3d 9a 8f 69 bf
       -0.018998362 -0.1142899 0.097937465 -0.91234744
0000b0 48 0b f6 bd 84 94 10 be 95 95 eb 3d 69 9a 56 3e
       -0.120138705 -0.14119154 0.1150314 0.2095734
0000c0 ed d4 70 bd 30 ce fd bd ae ce 05 3e f7 2f 6a 3f
       -0.05879681 -0.12392843 0.13067123 0.9147944
0000d0 7e fe f2 3d 61 ce 92 3c be 6d 3b 3e e0 34 cc be
       0.11864947 0.017920675 0.18303582 -0.3988409
0000e0 fa cb 40 3d f5 7a 60 bd de 50 f4 ba d3 ea 8c 3c
       0.047069527 -0.05480476 -0.0018639823 0.017201817
0000f0 ce 34 58 3d d4 e4 34 3e 08 90 33 bd 72 67 00 3e
       0.052784733 0.17665416 -0.04383853 0.12539461
000100 24 5d 3e 3b 14 18 36 bd bf e1 24 be b8 bf 2d 3e
       0.0029047215 -0.044456556 -0.1610174 0.16967666
000110 d2 8b ac 3c d7 cd 5e 3e 43 07 1b 3d 3a bc 2f 3d
       0.021062765 0.21758209 0.037848722 0.042904116
000120 15 b5 00 3d c4 f6 bc 3e 25 60 25 3e f4 65 12 3f
       0.031422693 0.36907017 0.16149957 0.5718682
000130 ad e6 2a 3c 37 02 c7 be a6 15 86 3c d0 0b 72 be
       0.010430974 -0.38868877 0.016367745 -0.23637319
000140 2e 44 93 bd eb ac 78 3e f3 e7 77 bc 8d cc 06 bf
       -0.071907386 0.24284713 -0.015130985 -0.5265587
000150 27 c1 73 3c ee 5f c6 3d cc 32 12 3d b0 b7 b6 bc
       0.014877594 0.09686266 0.035692975 -0.022304386
000160 5d ab 24 bd 04 a5 e5 bd 5c 98 cd bc 42 2a 16 3d
       -0.040202487 -0.11213115 -0.025097065 0.036661394
000170 3c 64 81 3e 11 03 b2 3d 68 48 90 be 58 db b3 be
       0.25271785 0.08691991 -0.28180242 -0.35128284
000180 20 3b 3a 3e 89 87 e9 3c 9b 72 33 be 8f 7b a8 be
       0.18186617 0.028507011 -0.17524187 -0.32906768
000190 f6 3d 26 3f 83 5e a9 3e 0c 7a 60 be 81 31 21 be
       0.64938295 0.3307992 -0.21921557 -0.1574154
0001a0 6a 87 a3 bc a2 68 4b 3d ed 56 c4 3b ab 49 a1 bc
       -0.019962031 0.049660333 0.0059918077 -0.019688448
0001b0 64 07 b2 bd 09 5c 0e 3e 61 4b e6 bd 6c 68 aa 3e
       -0.08692816 0.13902296 -0.11244846 0.33282793
0001c0 0a 29 59 bd cf 0d a4 3e 5c b6 11 bc 63 95 df be
       -0.053017654 0.32041785 -0.0088935755 -0.4366866
0001d0 42 28 1d 3d 1f 39 39 bd 12 51 01 bd 25 24 82 3d
       0.03836847 -0.04522049 -0.031571455 0.0635455
0001e0 d2 d6 81 3c c7 a4 01 3e 9d 60 38 3d 60 1b 95 3d
       0.015849505 0.12660514 0.045014013 0.07280612
0001f0 f1 a0 a4 bc 5e 69 12 be 76 94 d0 bc 4a 8f 0f 3c
       -0.020096274 -0.14298007 -0.025461417 0.00876219
000200 04 0b 53 bd 8f fe aa be 32 51 e4 bc 6f 8f 50 3d
       -0.051524177 -0.33397338 -0.027870748 0.05091804
000210 f5 aa f9 3c a0 9c 5c 3b c3 75 b3 3d c9 8c b7 bc
       0.030477026 0.0033662692 0.08762696 -0.022405999
000220 2b d3 9d bd 11 43 57 3d fe 09 ad 3d 27 8d b0 3e
       -0.07706293 0.052554194 0.084491715 0.3448269
000230 49 0e 2c 3d ee c3 0b 3e 1b ff 0e 3d b0 3b 11 3d
       0.04200581 0.1364896 0.034911256 0.035457313
000240 65 c7 b6 bc 34 4a 07 be 59 34 56 3d 32 f2 0a 3d
       -0.022311876 -0.132119 0.052296016 0.03392238
000250 c1 15 61 be 4b 65 8b be c5 4a 0b be 91 92 45 bf
       -0.21980955 -0.27225718 -0.13602741 -0.7717677
000260 2a 57 aa 3c 69 57 a8 3c ea 06 d6 3c db 73 a3 be
       0.020793516 0.020549493 0.026126344 -0.31924328
000270 64 5c 09 3d d1 81 0c bd 59 20 f2 bc 14 41 9f bc
       0.033535376 -0.03430349 -0.02955644 -0.019440211
000280 15 49 df bb d1 ed 91 3d c4 b0 8e bd ed bf 64 bf
       -0.006814132 0.07125438 -0.06967309 -0.89355356
000290 37 54 04 3c 4e 8e 65 3e 66 7a 10 3d 97 1f 13 3e
       0.008076719 0.22417566 0.03527298 0.1436752
0002a0 af ad 3e bc 90 9f 78 3b 1c 33 03 3e e2 f6 94 bd
       -0.011638089 0.0037936904 0.12812465 -0.07273652
0002b0 e4 11 49 3d ed b1 30 bd c6 3f 1d be b5 b2 88 3e
       0.049089327 -0.043138433 -0.15356359 0.26698843
0002c0 4a fb 12 bd c9 62 2c bd 21 d5 58 3e 15 ba 50 bf
       -0.03588418 -0.042086396 0.21175052 -0.8153394
0002d0 d4 78 e6 bb dc c4 cf bd a2 62 27 3a 37 c7 1c bd
       -0.007033447 -0.1014497 0.0006385242 -0.038275924
0002e0 6d 5e bf 3c be a3 0d 3e 0e f1 2c bb ce 82 05 3c
       0.023360455 0.13831994 -0.0026388797 0.008148862
0002f0 38 46 1d bf 8d 3d 38 3e 2f c5 dd 3e 0f e4 b5 3e
       -0.6143527 0.1799223 0.43314502 0.35525557
000300 56 94 08 3c dc 6a 7f 3c 75 5b 13 3d e0 77 68 3c
       0.008336147 0.015589442 0.035975892 0.014188737
000310 3a 87 0b 3d 7c 3f 6d 3e ee 03 43 3d 92 3e a9 3d
       0.03406451 0.23168749 0.04761117 0.082638875
000320 9c 90 11 3d b2 76 9c 3b 7c c2 02 be c0 a2 f2 bd
       0.0355383 0.004774892 -0.12769502 -0.11847448
000330 55 66 e7 bb 35 f8 d5 3d 5b 1c dd bd 9a b6 d8 3e
       -0.0070617595 0.10447732 -0.10796424 0.42326814
000340 38 be 99 3d 6b d3 2c be e7 fc 9d bd 3d 2a 5d be
       0.075069845 -0.16877525 -0.07714253 -0.21598144
000350 f2 14 03 bb 18 01 82 bd b2 4f a0 bd bc d1 59 3d
       -0.0020001498 -0.06347865 -0.07827701 0.053178534
000360 01 a9 df bd 6d 3f 86 bc 19 37 1e 3e 8c 41 07 bf
       -0.10920907 -0.016387666 0.15450706 -0.5283439
000370 92 a9 05 3d 83 9c a8 3c 80 1c c2 bc 69 00 08 3d
       0.032632418 0.020582443 -0.02369523 0.033203516
000380 23 ea f2 3c 79 e4 f2 3d ce 32 84 bb 26 c8 76 3b
       0.02965266 0.11859984 -0.0040343767 0.003765592
000390 36 26 c4 bc 3a c4 8d bd 8a 76 79 bc cf 81 4e 3f
       -0.023944002 -0.06922193 -0.015226016 0.8066682
0003a0 08 32 7c 3c 91 b4 a8 3e 65 f7 21 3e d6 bd ff be
       0.015392788 0.3295026 0.1581703 -0.4994952
0003b0 ff 0b 8f bb 79 f1 d7 bd b9 1c 83 bb e4 c4 54 3e
       -0.0043654437 -0.10544104 -0.0040012267 0.20778233
0003c0 45 14 c9 3b 88 b6 67 3e f9 3f af 3d b5 53 c8 3c
       0.0061364495 0.22628224 0.08557124 0.024453977
0003d0 53 65 8b 3d 9c 29 c1 be e3 5c b7 3e 1d fb 2c bf
       0.068064354 -0.37727058 0.35813054 -0.6757067
0003e0 e6 c0 5c 3d 41 23 19 bd 7c 72 7e bc 5c ff c8 3c
       0.0538949 -0.037387136 -0.015530225 0.024535827
0003f0 b5 9d f8 3b 36 25 74 3d 42 19 a2 3c 86 a9 a4 bc
       0.0075871595 0.0596058 0.019787434 -0.020100366

g.0.bias f4 [100]
000000 5e ea ee 3b 7c 7e 83 3d 15 01 4f bc 26 43 02 3f
       0.0072911223 0.06420609 -0.012634535 0.5088371
000010 8e a6 c2 bc 67 b7 90 be c7 d3 87 3e 59 8b ab 3e
       -0.02376106 -0.28264925 0.2652876 0.3350475
000020 66 d4 86 be d9 f0 dd 3c 1d 42 8b be 0d ad 49 3c
       -0.26333922 0.027092384 -0.27198878 0.012309325
000030 61 97 e2 3e cf ec 1a 3c fa c5 99 bc 71 1c a4 bd
       0.44256118 0.009455874 -0.01877116 -0.08013237
000040 f6 d6 0c be 7c bb 0a be 41 4e c2 3d e0 72 ac 3e
       -0.13753876 -0.13548082 0.09487582 0.33681393
000050 9e dd 06 be c2 68 18 bd c6 90 cc 3d 72 c2 e3 3d
       -0.13170478 -0.03720928 0.09988551 0.11121072
000060 46 6c 1f 3e cb 04 07 bf 5a 49 fe bc 66 10 91 be
       0.15568647 -0.5274169 -0.031040836 -0.28332824
000070 a1 cc 94 be 1a 76 f4 bc 29 93 a4 bd 62 f4 4e 3d
       -0.2906237 -0.029841471 -0.08035881 0.05052603
000080 5a d8 85 3e de 0a 8d 3c d0 e4 36 be 72 a6 ce bd
       0.26141626 0.017217096 -0.17860723 -0.10090341
000090 fc 56 d4 3d 2b fb ca be 93 f5 11 3d 18 e2 0f b9
       0.103681535 -0.3964475 0.03563459 -0.00013721769
0000a0 e3 82 eb be 5f e0 1a be e9 84 93 3d 96 6e 54 3e
       -0.45998296 -0.15124653 0.07203085 0.2074531
0000b0 fc b7 db be a7 d9 64 3d bb 3f c8 bd 18 8e 18 3e
       -0.42913806 0.055871632 -0.097777806 0.14897954
0000c0 95 e9 be bc 75 e4 1f be 28 87 e3 3c 99 da 2b 3e
       -0.02330474 -0.15614493 0.027774408 0.16782607
0000d0 f9 f5 55 3e f2 29 0f bd b5 69 98 be b0 3d 4a 38
       0.20894612 -0.03495211 -0.29768148 4.8218004e-05
0000e0 80 dc eb bc f7 7c 8c 3e 5a 92 e9 be f1 6b 93 3d
       -0.028791666 0.2743909 -0.4561947 0.071983226
0000f0 b0 07 a0 bd b6 da 07 be 65 a1 92 bc 5c a7 7a bd
       -0.07813966 -0.13267025 -0.017899225 -0.061194763
000100 7a 8b 21 bd 9e c5 2f 3e 28 07 1d 3d 68 a3 73 be
       -0.039439656 0.17165229 0.038336903 -0.23792803
000110 e6 61 cb be 9d e1 36 3d b1 68 73 3e 55 f3 e7 3d
       -0.39723128 0.044648755 0.23770405 0.11325709
000120 48 1c 75 3d e8 23 3a bd af 7d 64 3e 44 84 9f be
       0.059841424 -0.0454444 0.2231357 -0.31155598
000130 a2 43 2b bb 36 66 26 3d 86 cb 90 3a b0 7a 80 3c
       -0.0026132842 0.04062482 0.0011046983 0.015683502
000140 78 70 82 3c 79 37 68 be ea 60 97 be 08 7f 6b bc
       0.01592277 -0.22677411 -0.29566127 -0.014373548
000150 13 52 1d 3c 50 8e a7 3e 37 13 f1 3d 4d 16 24 3e
       0.009602088 0.32725763 0.11771243 0.16024132
000160 81 8e b7 bc a2 37 7a bd ae 27 84 bd b2 fb 80 3d
       -0.022406818 -0.06108821 -0.06452881 0.06298007
000170 3a ff 62 3e df b5 d8 bc 18 8f 0c 3f 7d be 96 3c
       0.22167674 -0.02645391 0.54905844 0.018401379
000180 3a 5d 8d be 1e c9 5c 3c b8 be da 3e 61 41 e8 3e
       -0.2761019 0.013475684 0.42723632 0.4536238

g.2.weight f4 [100, 100]
000000 c4 ed 7b bd 56 50 86 bc 0d be 38 3e 35 45 dd 3d
       -0.061506048 -0.016395729 0.18041249 0.10804216
000010 72 0e 13 3e 07 f2 ee bd a4 a4 b0 3c 5a 2a 43 bd
       0.14360979 -0.11667257 0.021562882 -0.04764781
000020 9c 4b 8a 3d 69 5f 50 bd 95 a3 90 3d 8d df b9 3b
       0.067527026 -0.05087224 0.07062451 0.0056724013
000030 a4 1f 31 be 5c 00 51 bd 97 f3 85 3d 68 ad 55 bd
       -0.17297226 -0.051025733 0.06540602 -0.052167326
000040 2e 6a 61 3e 55 8d d8 3c d2 b9 59 bd 04 82 be bb
       0.2201316 0.02643458 -0.053155728 -0.005813839
000050 93 c5 5f 3d 26 49 e6 bc ce 51 63 3d 11 2e 73 3c
       0.05463178 -0.028111052 0.055497937 0.014842526
000060 2c d7 ac 3c f6 2c d9 bd 59 59 f4 3d 5c ee cf bb
       0.021098696 -0.10604279 0.11931104 -0.0063455533
000070 0e 07 1a 3d ae d2 91 3c e2 c1 2b 3c c3 6f 49 3e
       0.037604384 0.017800655 0.010483237 0.1967154
000080 4a 1b 40 bd 2f 1d 09 be a8 58 e4 bd df 21 37 3b
       -0.046901025 -0.13390039 -0.11149722 0.0027943773
000090 09 56 98 bc 87 0c c0 bb 46 c3 c9 bc cd d7 4a 3d
       -0.018595712 -0.0058608684 -0.024629246 0.04952221
0000a0 86 0b 94 3d ab c4 61 3d cb 82 34 be a7 32 b9 bd
       0.072287604 0.055119198 -0.17628019 -0.09042864
0000b0 8c f1 83 3d de 61 1d 3d ac 07 b6 bd 2c ab 2d bd
       0.06442556 0.03842341 -0.08888182 -0.04239957
0000c0 a9 2b 3e bd 01 70 c3 3d 67 93 8d bd f8 2f 43 be
       -0.046428356 0.095428474 -0.069128804 -0.19061267
0000d0 0e c1 72 3d 86 89 a4 3d 4c cc 8a 3d 55 89 2b bc
       0.059266143 0.08034043 0.06777248 -0.010469754
0000e0 10 76 09 bd 15 c3 f1 bd 75 eb c8 3d 2b a4 b7 3c
       -0.03355986 -0.11804787 0.09810535 0.022417149
0000f0 06 32 4e be 06 a7 86 bb 76 d0 0a 3d 06 f7 26 3d
       -0.2013627 -0.004109266 0.03389021 0.040762924
000100 a3 09 08 be b7 bd 87 bc 02 c2 0b 3c ac c1 53 bc
       -0.13284926 -0.016569955 0.008530142 -0.012924593
000110 9e 23 2b 3e 02 21 8d 3d 10 0e 20 3d 0c 80 66 bc
       0.16712806 0.06891061 0.03907591 -0.014068615
000120 66 80 a7 bd 88 2f f2 3a 11 3c b7 bd da dc 11 3e
       -0.08178787 0.00184773 -0.08947004 0.14244404
000130 f8 5c b7 3b 7a ff a9 3c 18 43 66 3d 63 47 15 3e
       0.0055957995 0.020751704 0.05621633 0.14578013
000140 0c f0 9b bd a6 5e ef bd 47 fc 3c 3c 90 30 1e 3d
       -0.07614145 -0.11687975 0.011534757 0.03862053
000150 f8 b6 82 bd 6c 1b 3c be 97 81 a2 bd c0 43 18 bd
       -0.06382555 -0.18369836 -0.079348736 -0.037173986
000160 54 04 0e ba f8 32 54 bb b0 e7 ec bb 75 b2 9a bd
       -0.0005417515 -0.0032379013 -0.0072297677 -0.07553569
000170 2d 94 b4 bd 62 08 a0 3d 5a 58 23 3d 9b cd c2 3c
       -0.08817325 0.07814099 0.03987918 0.023779681
000180 d9 b0 48 be 67 9a c2 bc a4 29 91 3d 23 95 0a 3c
       -0.19598712 -0.023755265 0.070880204 0.0084584085
000190 81 4c ab bd d0 c7 b4 3e 65 9a a8 bc e5 fe 09 3e
       -0.08364201 0.35308695 -0.020581434 0.13476141
0001a0 8b 7e 07 bd 6e 49 dc 3c b9 96 7c 3d e2 47 89 3e
       -0.033079665 0.026890483 0.061667178 0.26812655
0001b0 63 a3 02 bf 7d 77 18 3d 84 6f 32 bf f5 7d cc bd
       -0.5103056 0.037223328 -0.6970141 -0.09984962
0001c0 fa eb 24 3f 8b 53 a7 bd b1 6a e3 bc 2d 55 bb 3d
       0.6442257 -0.081702314 -0.027760835 0.09147105
0001d0 8f 29 ce bd 3e 77 20 bc a5 7d d2 3e 1a 18 6e 3d
       -0.100665204 -0.009794055 0.41111484 0.058128454
0001e0 bf 5e 1c be 2c 73 ef 3b 46 6b ac 3d 24 a6 7a bd
       -0.15270518 0.0073074307 0.08418898 -0.0611936
0001f0 e2 6f bd 3b 41 2d 87 be b4 14 a5 bc c1 6f 45 bd
       0.0057811597 -0.26401713 -0.020151474 -0.04820228
000200 77 9c 85 be b2 10 96 bd a8 f6 a3 3d c2 eb 23 bc
       -0.26095936 -0.07327403 0.0800603 -0.0100049395
000210 fa c1 af 3d 44 79 7f 3c 57 a6 85 3d ca c2 23 bd
       0.0858192 0.015592877 0.065258674 -0.039980687
000220 a7 78 41 bd 50 6d f1 be 47 3f e4 bd b8 f9 0e 3d
       -0.047234204 -0.4715371 -0.11144882 0.03490612
000230 58 eb 0b bf bf 11 00 bd 88 1b ea 3c 97 9a 32 3e
       -0.5465598 -0.031266924 0.028577581 0.17441784
000240 8e 23 12 bf ad 31 85 3d 98 d8 b6 bd ad 4c a4 3e
       -0.570855 0.065036155 -0.08928031 0.3208975
000250 46 b0 69 bc b8 91 93 bd 44 2c 27 3d e9 b1 23 3e
       -0.014263218 -0.07205528 0.0408137 0.15985836
000260 42 33 0c 3e f0 68 01 bd 8b ba c4 be 51 59 5e bc
       0.13691428 -0.031594217 -0.3842357 -0.013571099
000270 24 0b d3 bc fa c3 4b 3f d3 63 b9 be 44 ef 51 3d
       -0.025762148 0.7959591 -0.36208972 0.051253572
000280 80 1f de bb 91 df 99 be b6 6c b0 3c e3 f4 10 bd
       -0.0067786574 -0.3005338 0.021536212 -0.035389792
000290 4a 0c 75 bc 51 8c b4 3e da 24 76 3d d3 05 b2 bc
       -0.014956543 0.35263303 0.06009374 -0.021731293
0002a0 e7 85 fe be d1 81 8f 3d 29 11 af 3d dd 81 59 3d
       -0.49711534 0.070071824 0.08548195 0.053102363
0002b0 60 a3 9b 3d 53 6f 01 be 5a aa 05 3e b7 27 0a bd
       0.07599521 -0.12640123 0.13053265 -0.03372928
0002c0 d4 c4 e1 3b c0 ce e9 3c cc b1 59 3d 3a 5a d3 3c
       0.006889919 0.028540969 0.053148076 0.02579986
0002d0 6c 45 24 3d d6 44 37 bd 14 fb a3 be c4 40 f0 bb
       0.04010527 -0.04474338 -0.32027495 -0.0073319394
0002e0 4d 51 a7 3e eb f3 a9 3e 00 5b ce 3d 33 41 df 3d
       0.32679215 0.33193907 0.100759506 0.10901108
0002f0 a5 4f d8 3d 5b 73 b1 3c ce 23 9d bc 7e d6 b8 bb
       0.10562066 0.021661451 -0.019182112 -0.005640804
000300 b6 44 2c 3e 78 cd d2 3c 65 4a fa 3e 27 c3 ea 3c
       0.16823086 0.02573274 0.48884884 0.028657509
000310 0e ad b4 3d 84 34 48 bd e6 ad 6d 3e a2 f5 02 3f
       0.0882207 -0.048878208 0.23210868 0.51156056
000320 22 b9 d7 bc a8 6d 6d bc db 17 b7 3c 81 64 eb 3c
       -0.026333395 -0.014491476 0.022350242 0.028734447
000330 24 ba 42 bd 49 b7 c8 bd 7c a2 e9 3c 11 5e ad 3d
       -0.0475408 -0.09800584 0.028519861 0.08465207
000340 c6 10 04 3d 15 9c 00 3d e7 27 38 3d 6c ae bc bc
       0.03224256 0.03139885 0.04495993 -0.02303239
000350 44 6a f9 bd 8f a1 97 bd 49 d9 b0 3d a7 b6 cc bd
       -0.12178472 -0.07403862 0.08635194 -0.09995776
000360 71 d2 bd 3d ad 81 ce bc 08 ba 73 bb 18 f9 13 3e
       0.09268654 -0.025208319 -0.003718974 0.1445049
000370 8d 0d d9 3d bb 72 93 bd 12 1a 99 3a e0 ce 50 bd
       0.10598288 -0.071996175 0.0011680743 -0.05097854
000380 28 d7 21 bd 44 18 46 3c b7 9b c0 3d fa b7 c2 bd
       -0.03951183 0.012090746 0.094047 -0.09507747
000390 05 1e a1 3d 35 3b 66 bc 82 39 be bd b1 3e bb 3d
       0.07867054 -0.014052202 -0.092883125 0.09142817
0003a0 96 cc ea 3c a1 90 29 bd 69 cb f2 bd a7 3d cd 3c
       0.028662007 -0.041397694 -0.11855204 0.025053812
0003b0 42 8c 67 3c 28 56 9d bc 26 5b 9b 3d 62 15 2f bd
       0.014132561 -0.019206122 0.075857446 -0.042745
0003c0 57 bd 29 bc 3f 8d 9b bc 25 ea 58 bc d5 2a 95 bd
       -0.010360084 -0.01898825 -0.013239418 -0.0728356
0003d0 ef f2 c1 3d bd 9a 19 3d 53 5a 85 3c da e6 3a bd
       0.09470164 0.037501086 0.016278422 -0.045630313
0003e0 5e 0b 2e 3c d9 15 41 bc 99 59 88 bd f1 ea 77 3b
       0.010622827 -0.011784994 -0.066577144 0.0037829245
0003f0 fe 9c c5 3d 8b 16 95 3d 76 38 82 3d f1 ef 29 3c
       0.096490845 0.0727969 0.06358425 0.010372148

g.2.bias f4 [100]
000000 aa 8e 44 3d e0 92 7b 3d 42 e1 00 3d 3c 6c 79 bc
       0.047987618 0.061419368 0.031464823 -0.015223559
000010 03 a0 61 3c 3b 62 d1 bd e5 25 e6 bc 40 5c ff ba
       0.01377106 -0.10223814 -0.028094241 -0.0019482449
000020 ed 24 63 bd 7c 57 8c 3b 18 db 98 3d 12 0a 08 bd
       -0.055455137 0.00428289 0.07463664 -0.03321273
000030 8d 04 7a 3b 0c ab d1 3a 6d d3 21 bc 1a 6e f6 3c
       0.0038149685 0.001599641 -0.009877068 0.030081797
000040 42 38 83 bb 76 1f f8 3b fd 11 7b 3d d0 82 05 bd
       -0.004004509 0.00757211 0.06129645 -0.032595456
000050 7a 6e 26 3f c0 21 48 3c f1 e9 f3 3d 24 d3 81 bd
       0.65012324 0.012215078 0.11909855 -0.063391
000060 1a 29 20 bc c2 48 d8 bd 2b db 17 bc 59 8b 53 bd
       -0.009775424 -0.105607525 -0.009268562 -0.051646564
000070 29 82 a0 bd 19 0e 31 3e 9d 5c 01 3e da 86 09 3e
       -0.07837326 0.17290534 0.12632985 0.13430348
000080 a4 da e3 bc 76 2e b3 3d ba d9 7a bd 7a fe 57 bd
       -0.027814217 0.08749096 -0.061242796 -0.052732922
000090 3d 33 9f bd 84 73 83 bd a6 34 90 3d 9d 16 80 bd
       -0.07773445 -0.06418517 0.07041292 -0.06254313
0000a0 47 a5 28 bd 19 9f 3f bd 6d a9 be bc 1b 85 93 bd
       -0.041173246 -0.046782587 -0.023274148 -0.07203122
0000b0 da 0f ba bd 64 9f 6d 3e b8 bd ba bd d1 0d f5 bd
       -0.09085055 0.23205334 -0.09118217 -0.11965526
0000c0 3c 73 1d bd 47 ec 82 bd b9 e8 93 bd bd 36 0c 3d
       -0.038439974 -0.063927226 -0.07222123 0.03423189
0000d0 b6 96 66 bd 46 ce a9 3c 34 94 22 3d cb 48 13 be
       -0.056296073 0.020728242 0.03969212 -0.14383237
0000e0 4f e8 ab 3d 55 8c 83 bd 0e 92 a3 3d df 17 93 3d
       0.08393919 -0.064232506 0.07986842 0.071822874
0000f0 d6 74 a6 be 7c d8 2e bd b1 9d 57 3b 8d b1 ac bd
       -0.32511014 -0.042686924 0.0032900388 -0.084323026
000100 ef 65 0d bd f7 8a 88 3d 31 68 bd bb 0e d1 98 3d
       -0.03452104 0.066671304 -0.005780243 0.07461749
000110 00 77 1c bc 0c 00 a1 bd 54 a1 a2 3c aa 41 08 3c
       -0.009549856 -0.07861337 0.019852318 0.008316437
000120 a9 07 12 3d 50 56 4e 3d 9f 8f e9 3d 41 59 c6 bd
       0.035651837 0.050375283 0.11404347 -0.096849926
000130 a6 59 bf bb dc b5 11 3b ca 0a 88 bc ab 1f 12 be
       -0.0058395443 0.002223364 -0.016606707 -0.14269893
000140 8f 64 c2 3d ce 10 6e bd b9 57 02 be cb c0 31 bd
       0.09491836 -0.058121495 -0.12728776 -0.043396752
000150 38 e9 cd 3d 33 2c a5 bc c6 12 e9 be 78 09 13 3d
       0.100542486 -0.020162677 -0.45522135 0.035897702
000160 9f ba 97 bb e1 32 e9 3c f7 e0 16 bd 6e e2 a3 bd
       -0.0046304013 0.028466644 -0.036835637 -0.080021724
000170 53 65 49 bd d5 e8 45 bd 81 ab 0a bf e4 c8 c7 3c
       -0.049168896 -0.04831775 -0.54167944 0.024387784
000180 80 11 25 3d 0e 24 1c 3c a6 35 b2 3d 8d 80 99 3d
       0.040299892 0.0095300805 0.08701639 0.07495222

g.4.weight f4 [1, 100]
000000 86 45 5f bc bc 6c 3d be d8 07 ab bb 8d 57 35 bc
       -0.0136274155 -0.1849851 -0.005219441 -0.011068237
000010 a7 84 13 3d cf 0f be 3d 30 98 86 3c 21 3c 43 bb
       0.03601518 0.09280359 0.01642999 -0.0029790478
000020 a6 7d ea 3a a1 be 08 bd b6 60 16 3c 85 d1 f9 3c
       0.0017890229 -0.033384923 0.009178331 0.030495415
000030 8b 19 49 3c 0e 58 9d 3c 42 b0 af bb d3 bf 0c be
       0.012274156 0.019207027 -0.0053615877 -0.1374505
000040 73 9f 3a 3c 80 a1 be 3b 74 31 01 3c 2a b1 8f 3c
       0.011390555 0.005817592 0.007885326 0.017540533
000050 48 c4 43 3e 37 42 86 bb 5f c7 28 3c 08 30 e3 b9
       0.19117844 -0.004097249 0.01030144 -0.000433326
000060 e0 d5 14 3c dc e2 01 3b 08 c4 e7 3b b9 95 4c bc
       0.009084195 0.0019819057 0.0070729293 -0.012486869
000070 01 bc 0d 3a 59 0c b1 3d e4 5c ae bc 87 63 a5 3c
       0.0005406738 0.08644933 -0.021284528 0.02018906
000080 34 1e a4 bc 6a 2b fe 3c 02 2c 5c bc 8d 81 8d bc
       -0.020033933 0.03102656 -0.013438227 -0.017273689
000090 1c 3a 82 bc 19 67 7f bd 2d 4e 29 3c 34 b4 d3 bd
       -0.01589685 -0.06235418 0.01033358 -0.103371054
0000a0 f6 7a 41 3b 8e 2a 81 bc c6 e7 ef 3c 36 25 66 bb
       0.0029522753 -0.015767362 0.029285323 -0.0035117394
0000b0 09 ab 6b bc f0 d3 73 bd 01 32 2f bc e4 2a 6b bc
       -0.01438404 -0.05952829 -0.010693074 -0.014353488
0000c0 06 d7 fd bb d1 2b bf bc 9a 2f a2 3b 40 b0 e9 38
       -0.00774658 -0.023336323 0.004949522 0.00011143135
0000d0 9f 04 b1 3b de f3 bb bc a6 cd bc bc b2 18 f3 bb
       0.005402162 -0.022943433 -0.02304728 -0.0074187154
0000e0 85 f5 dc bc 2a 6c cb b9 10 6d c2 3b 00 ff 7e 3a
       -0.026972542 -0.00038799766 0.0059334114 0.0009727329
0000f0 4a b6 bf bd 78 9b c0 3c 28 14 98 bb f9 6c b0 bd
       -0.09360941 0.023511633 -0.0046410747 -0.08614535
000100 d7 2c 7a 3c 02 ad 01 3c 4e 3a b1 3b 00 38 97 3b
       0.01526948 0.007914783 0.005408562 0.00461483
000110 16 52 4f 3c 54 88 87 3b 58 15 33 bc ae c1 99 3b
       0.012653848 0.0041361246 -0.010930382 0.004692278
000120 7a 66 66 bc 03 b7 3d 3b 04 66 dd b8 1c 64 94 bc
       -0.014062518 0.0028948195 -0.00010557103 -0.018114142
000130 10 00 cd bc 12 26 dd bc 70 cb e0 bb e5 fb 6f 3d
       -0.025024444 -0.026995692 -0.006860189 0.058589835
000140 cb e5 00 3c 90 65 92 3c 38 5d c6 39 7a ee 93 bb
       0.007867287 0.017870694 0.00037834956 -0.0045145126
000150 31 16 cf 3b 0d 4e ae bb a1 e0 3f 3e e2 09 66 bc
       0.006319784 -0.005319363 0.18738033 -0.014040442
000160 8c c8 bc bb 08 1e 07 3c 6f f0 9f 3b ea 2d 1e bc
       -0.0057612117 0.008246906 0.004880957 -0.009654501
000170 27 a4 91 bb 63 69 21 bc e8 65 dc bd 0e 9d 22 ba
       -0.0044446173 -0.009851786 -0.107616246 -0.00062032125
000180 b6 23 c8 3a e0 e4 0f 3c e8 23 44 bc 4a 99 c6 3b
       0.0015269432 0.008782595 -0.011971451 0.006060754
