models/compas_ALLR0_mlp_l0.100_s0.pth (torch, 45157 bytes, 5 tensors)

g.0.weight f4 [100, 4]
00000000: 2718 8d3c 15e6 fdbc 08fb 6abd 85a1 f0bc
00000010: 7bc7 01be a9ef 9f3d 481e f3bc 2b2f 063f
00000020: 1d1c 303d ca72 f43c 019b e3bd ff2b 883d
00000030: 2126 03bd a42f 56be 12ca 06bc ca31 9a3c
00000040: 7597 053d 434b f53c 93b9 81bd c92a 4a3d
00000050: 0d9f 2abd 366e a03e 668c 9dbd 6d0d b23e
00000060: 702b 913d 6d46 0fbe e3f7 c93d 8aa8 52be
00000070: c3f0 80bd 1766 06be ca1c 8ebd 2f30 c03e
00000080: fbeb f53c 36f1 d3bc 22ec 24bd 7ab1 b2be
00000090: f0c6 1bbd 7482 1a3e 6515 01bd 6c76 ad3e
000000a0: 9f4f f13c d95b 01be effb aa3d 7add 2cbf
000000b0: e28b 76be 891d b6bd db00 1c3e 53ff 7f3e
000000c0: 733a b8bd 866c d5bc b396 4d3d 161f 2d3f
000000d0: 3f26 3b3e 3e21 b1bb 7280 fe3d db97 b9be
000000e0: c4d9 afbb dc40 c53a 9b0b 2a3d ad6a 37bd
000000f0: d2db 333d e3d4 e03d 6d5e e7bc 57fd 913b
00000100: 8c7d bbba 901a 9c3c 338c 03bd 26aa 4a3b
00000110: 8fad a43d d65d bb3d 63dd 35bc 4df9 9d3c
00000120: 4aa3 56bb 2d7e 4a3e 0c22 d43d 1e5e e93e
00000130: e00b 083e f613 b2be e0cc 783c 183d 69be
00000140: f5bd 5e3c c2fe 563e 45a1 4f3c 812b 05bd
00000150: fd5a 783c 21fe 433d 7c35 b63a a4b6 543c
00000160: 4406 37bd c229 083c 628a c13d aaf6 87bd
00000170: d253 be3e a37d 8e3d 60f3 7bbe ce6b abbe
00000180: 7349 863e b429 64bb de46 24be 5785 9ebe
00000190: 21d4 193d a6ab 433e 04ad 65bd c66f fb3a
000001a0: 13bb b43a e02a f13c 867f f23c ee77 a6bc
000001b0: d631 fabd 3544 2b3e 854a 11bd 8f96 723e
000001c0: c558 923c 9eec d33d 8d40 58bc 8d1e a93c
000001d0: bd04 15be 2868 61bd 4e77 093e e408 2bbe
000001e0: edc0 763d 42eb 6f3d f14f 83bd 5911 783d
000001f0: 3a25 21bd 5d53 57bd 2113 823d b1b1 1abd
00000200: ea16 43bd 4fdb e5bd ad70 963d eb1f 86bd
00000210: 48a4 15be 9b1f 41bd 6874 6d3d 8eb0 e0bd
00000220: b31c 0ebe df47 ba3d edfc c93d 9fcc 9c3e
00000230: c6a5 c33d 3a8a f13d f728 c73d 0907 25be
00000240: da0a 69be 8445 02be dcf1 223e b8f8 5f3e
00000250: 0b5f 853c a39b 05bd d9cc cdbc 8960 b3be
00000260: 331c 9a3d fe60 e33c c0ba 2f38 70d0 49be
00000270: db92 563c cb69 003d f21a 2bbd 2209 b73c
00000280: 6a68 093d 4c9f d03d 5797 d5bc aea6 d9be
00000290: 2c34 1cbe 90a3 343e c292 de3b 8d14 603e
000002a0: 34f5 70bd 76cc 4b3d 09d7 563d 455e 2e3c
000002b0: ec5f 403d dc80 17be 339d 3f3b 82c5 28bd
000002c0: f0c9 5b3c 79bc 113d 937c 0b3e 8c6d a7be
000002d0: 1644 b03c 734c 04bd 8e23 71bd 8037 0b3d
000002e0: e934 ee3c 8e71 563d d119 76bd 2bd8 f93c
000002f0: 2208 eabd a993 b53d 34ad c43d 7f86 a83e
00000300: 654c 4abd 068f 0abd 0f47 51bc d681 d2bc
00000310: 3f95 0abf 0412 433e 5847 70be a8ff 923d
00000320: 1712 153c a4d6 02bd bb80 4bbd ffe6 30bd
00000330: 132f 74bd 2442 ba3d 32d1 debd de55 b43e
00000340: 4393 9d3e 73c3 bbbd a7f7 6fbd a4ee a1be
00000350: 6351 1e3c 3a1e 25bd 40fc d8bc 0aaa b2b9
00000360: 9f4e 12bb 741e 253d 2711 8eb9 450c 5f3c
00000370: 421a 37bd 4278 6fbd c217 ad3c f978 75bd
00000380: 52db 1eba 65e6 cc3d 3c52 1f3c 0ca9 d63b
00000390: 6972 aebd ea7b e1bc 32d4 2dbd f607 1c3f
000003a0: 0f8f e63c 893e 903e c158 383d 3fa6 92bd
000003b0: c0ea 1fbb 6fe9 01bd 5668 173c 04fa eebc
000003c0: 64bf b03c a2df 453e d8fd 1dbc ee39 403d
000003d0: 6339 c03d 6f46 9fbe 180b 3c3e d4b0 c5be
000003e0: d31c 943d 327a ec3c 5cd7 ed3c 2fc2 673d
000003f0: ae2d b33b 5c3e 233d 11eb 92bd 6909 3e3d
0.01722343 -0.0309935 -0.05736831 -0.029373894 -0.12673752 0.078093834 -0.029677525 0.5241572
0.04299556 0.029839892 -0.11113549 0.066490166 -0.032018784 -0.20916611 -0.008226888 0.01882257
0.032615144 0.029943114 -0.063342236 0.04935721 -0.04165559 0.31334084 -0.076927945 0.34775868
0.07088363 -0.13991709 0.09861734 -0.20572105 -0.06295922 -0.13124882 -0.06939085 0.3753676
0.03001975 -0.025871854 -0.040264256 -0.3490103 -0.03803152 0.15088826 -0.031514544 0.3387941
0.029456912 -0.12632693 0.08348834 -0.67525446 -0.24076799 -0.08892352 0.15234701 0.24999742
-0.08995523 -0.026052725 0.050192546 0.6762556 0.18276308 -0.005405574 0.12426843 -0.3624867
-0.005366536 0.0015049237 0.041514974 -0.04477947 0.04391081 0.10978105 -0.028243268 0.0044552493
-0.0014304384 0.019055635 -0.032116126 0.003092417 0.08040916 0.09148757 -0.011100146 0.019283915
-0.0032751136 0.19774695 0.103580564 0.45579618 0.1328578 -0.34780854 0.015185565 -0.22777212
0.013595094 0.2099562 0.012672727 -0.03251219 0.015158412 0.047849778 0.0013901438 0.012982998
-0.04468371 0.008310737 0.094502226 -0.06638844 0.37173325 0.06957557 -0.24604559 -0.33480686
0.26227912 -0.0034814896 -0.16042659 -0.30961105 0.037555818 0.19108447 -0.056073204 0.0019183091
0.0013788663 0.02943939 0.029601824 -0.020320859 -0.12216537 0.16725238 -0.035471458 0.23690246
0.017864594 0.103478655 -0.013198984 0.02064445 -0.14552589 -0.05503097 0.13424417 -0.1670261
0.060242582 0.05857397 -0.06411732 0.06056342 -0.039342143 -0.052569736 0.06351305 -0.037767116
-0.047629274 -0.112234704 0.0734571 -0.065490566 -0.1461345 -0.047149282 0.05797234 -0.10971175
-0.13878135 0.090957396 0.09862695 0.30624864 0.09553103 0.11793943 0.0972461 -0.16115965
-0.22758046 -0.1272183 0.15912575 0.21872222 0.016280672 -0.03261913 -0.025122093 -0.35034588
0.0752491 0.02775621 4.1897176e-05 -0.19708419 0.0130965365 0.031350892 -0.041773744 0.022343222
0.033546843 0.101866335 -0.026073141 -0.4250998 -0.15254277 0.17640519 0.0067923972 0.2188284
-0.058827594 0.049755536 0.052451167 0.010642593 0.04696648 -0.1479525 0.0029237985 -0.041203983
0.013414845 0.035580132 0.1362174 -0.32700765 0.02151684 -0.03229947 -0.0588718 0.033988476
0.029077964 0.052354388 -0.060083214 0.030498585 -0.114273325 0.088660546 0.096033484 0.32915112
-0.04938926 -0.033827804 -0.012773289 -0.025696676 -0.5413398 0.19049841 -0.23464715 0.07177669
0.009098551 -0.03194298 -0.049683314 -0.043189045 -0.059615206 0.090946466 -0.108797446 0.3522176
0.30776414 -0.09168138 -0.05858579 -0.3162738 0.009662959 -0.04031203 -0.02648747 -0.00034077495
-0.0022324694 0.040312245 -0.0002709713 0.013613765 -0.044702776 -0.058464296 0.021129493 -0.05992982
-0.0006059903 0.10004882 0.009724196 0.0065509137 -0.08517916 -0.027524907 -0.042438693 0.6094965
0.028144388 0.2817271 0.045006517 -0.07160615 -0.0024401397 -0.03171676 0.009241184 -0.029171951
0.021575637 0.1932359 -0.009643041 0.046930246 0.09385946 -0.31108424 0.18363607 -0.38611472
0.0723206 0.028866861 0.029033355 0.056581672 0.005468092 0.039854392 -0.071737416 0.046395693

g.0.bias f4 [100]
00000000: 13b3 223d 0c10 b13b d033 923c 4a8d 463e
00000010: 5fcb 053d ff04 bbbe db69 803e e6f9 823e
00000020: 14a5 9cbd 59ab 9e3d 3efe 72be 3c24 c0bd
00000030: b81f bd3e 7d09 1b3d c75e 08bd 651d a2bd
00000040: 204b dfbc e976 4ebd 50c5 48bc 6b1b dc3e
00000050: 1ac9 dcbd 6e7b 06bd 4636 debc ddaa 843e
00000060: 030a 7c3e d84c 05be c063 43bc fb4e 8dbe
00000070: e7d4 48bd d017 1cbd cbeb b9bc 6bc7 823c
00000080: 90ed 993c f500 18bc f686 60be 298a 0dbe
00000090: f7ea d73c 9615 e2bd 590e 9d3d db44 f3bb
000000a0: 6953 77be 17c3 9abe 1624 58bd cfeb a13d
000000b0: 86a5 83be 1ccd 483d 89a3 fabb 9c18 d23c
000000c0: 8000 93bc c030 ffbe ce96 803d 8566 213e
000000d0: 84ab d83e 8843 5e3d c711 49bd a2af d3bc
000000e0: bab1 22bd 6c78 4f3e a5e9 85be 3ef9 81bc
000000f0: 284c f8bd 2f93 0ebe 1d52 9f3c 1ada 3c3d
00000100: 5603 1a3d 2c62 213e b1dd d83b fac0 26be
00000110: b6b7 8abd 888e ab3c b68f cd3d d7a1 c23d
00000120: 4747 8e3c 0475 353c 1268 833e d9d9 febe
00000130: d707 4ebc 846f 053e 2858 54bd 262d dfbc
00000140: 9f68 a2bc decb 71bc 0816 c1be 205d 593e
00000150: 7f64 00be 052e e83c 45a5 db3d 1616 f53d
00000160: 8ef4 6dbd a803 e7bd 3e2c f4bd 3df6 ce3d
00000170: 75ae 3b3e 5be0 b9be 6df4 ad3c d9e4 8c3a
00000180: 5b84 c2be b582 9bbd b706 973e 0251 993d
0.03972156 0.0054035243 0.017846972 0.19389835 0.032664653 -0.3652725 0.2508076 0.25581282
-0.07648674 0.07747526 -0.23729798 -0.09381911 0.36938262 0.037850846 -0.03329351 -0.07915763
-0.027257502 -0.05040637 -0.012254074 0.42989668 -0.107805446 -0.032832555 -0.027125489 0.25911608
0.24613194 -0.13017595 -0.011925638 -0.2759932 -0.049031164 -0.038108647 -0.022695443 0.01596423
0.018790036 -0.009277572 -0.21926484 -0.13822235 0.026357157 -0.110392734 0.07668752 -0.0074239797
-0.24152912 -0.30226967 -0.05276879 0.07906305 -0.25712222 0.049023733 -0.0076488894 0.0256465
-0.017944574 -0.4984188 0.06278764 0.15761764 0.42318356 0.05426362 -0.04908922 -0.025840584
-0.039720275 0.20260781 -0.2615482 -0.015865918 -0.12123901 -0.13923334 0.019448334 0.046106435
0.037600838 0.15760106 0.0066182246 -0.16284552 -0.06773321 0.020941988 0.10037176 0.09503525
0.017367972 0.011075262 0.25665337 -0.4977558 -0.012575111 0.13030821 -0.051841885 -0.027243208
-0.019825278 -0.014758078 -0.3771212 0.2122693 -0.12538336 0.028342256 0.10724882 0.11967103
-0.058094554 -0.11279994 -0.11922501 0.1010556 0.18328269 -0.36303982 0.021234715 0.0010749354
-0.37991604 -0.0759329 0.2949731 0.07486154

g.2.weight f4 [100, 100]
00000000: 52d4 03bd ecf0 ad3d 59e0 da3d d2e0 293d
00000010: 75f2 b03d 008d 6fbc 9aa2 3a3d 7ca9 ea3c
00000020: c4f7 18bd 3cde f33b 9a94 38bd 6856 27bc
00000030: 1cde 23bd 959a 29bc f8f0 b93c 1c16 143d
00000040: 3cc6 62bd 348d 863d 6926 913d 4813 7abc
00000050: db7b 1b3d c398 09bc 889e 083d 0a4c 94bc
00000060: 142b fa39 264e 0abd 6e82 b83d 0fb0 31bd
00000070: 6f64 653c f233 a13d c770 bb3d 24f5 cf3d
00000080: 29c2 65bd bc43 3c3d 5a71 e0bd c713 a63d
00000090: 1b03 bdbd 9486 91bd f3a6 50bc 670a 003d
000000a0: 7f8d 5abd 6b76 e63c 77c6 1dbc aeec 95bc
000000b0: 7c43 ed3c cbab 563d 9f6b 52bd 92eb 18bd
000000c0: 33d3 91bc f175 3f3d 6053 a6bd 8c00 00be
000000d0: 00a1 913d 4cda dcbd aced c73c d169 033d
000000e0: 8ce7 86bc 6abd b9bc 1267 083e 6dab 213d
000000f0: d2c4 5cbd b003 e7ba ec24 303c 87ac c5bb
00000100: 7783 8fbd fa1f ac3d f980 813c b6e3 a63c
00000110: 3ed1 dc3d 297e 003c 1f6f dc3c 2844 f23c
00000120: 926c a8bd bb30 bdbb 56c8 aa3c 968e 8e3d
00000130: 9805 15bd 97e7 7abd 8676 5fbc 8c72 113d
00000140: 869a 3ebb 5e2a 0dbe fa1a 7bbd 2641 6c3d
00000150: 1afe 013c b14f 63bd 868b b6bc 399d c33a
00000160: 5ebb 873d dfed 9f3d d648 b5bd d4a3 26bd
00000170: 3ce5 fabd cd85 203d 9158 043d 87fe cb3c
00000180: d001 c8bd 5112 fc3d 85eb 843d b3c3 a53d
00000190: 3a1f a5bd 78f5 103e 2522 a9bd 868f 323d
000001a0: 4c9d 0abd 3f17 853d bb7a 4c3c d9f3 073d
000001b0: cbb3 0cbe 71b7 943c 985f 3bbe eeb0 a5bd
000001c0: c5fa 603e 9b23 b5bd e45c a73c 5f01 673d
000001d0: 1fc3 923d 2843 f4b9 51d6 323e b235 b5bb
000001e0: f3e8 2abd 5508 b03d 56a7 b53c 0a48 01be
000001f0: 79df 46bd ee78 7dbd 278a 463d 0e92 ea3b
00000200: 85fc 79bd 14fa 9d3d 3458 443c 54a5 e53c
00000210: b267 873b 9080 183d 76a1 b33d b402 4e3c
00000220: 3ecb 90bd 2aad 19be 385b c9bd 6cf9 2a3d
00000230: d446 17be 6785 b03b 4102 ac3c 42e6 633c
00000240: 600e 0abe 4e13 943d d20b 13bd f27d bd3d
00000250: 6486 2bbd ae0e 0f3c 966a 823d e4c3 6a3b
00000260: 82cc 803d 6508 99bc 2ae7 9fbd 5f84 cfbc
00000270: 56f9 c4bc 1c89 973e 2f74 35bd 33a3 8cbb
00000280: c3ac 61bd fc4c 57bd a530 563d 2536 a4bd
00000290: 1be6 f93c 37dd 333e e069 eebc 896e ae3d
000002a0: 1ff0 bbbc 510e a23d 1a32 b7bd 5c90 0ebc
000002b0: edf7 3bbd 6faa 573d d9ad 0e3d 2dd5 1f3e
000002c0: a9e0 96bc 90d9 4f3d 6ce2 0f3d 8025 4639
000002d0: b9d0 cd3d b9dd e3bc 8d07 87bd 945f 72bd
000002e0: c016 843d cf05 7b3d e021 a5bb f2ca 82bd
000002f0: 4d40 883c ac6c 833c b06c 6c3d c9f5 cebd
00000300: 2609 063e 2ebe 7e3d 7e54 863c 511c e3bd
00000310: 8f66 793d 9d8c c0bd b1cd 183d 6e53 8cbc
00000320: f49a 38bd 712d 083e 9c11 643c 0278 da3b
00000330: c6be a1bc 2bb5 9c3d 32bb e9bc 83de d43d
00000340: 0062 6dbd 72f8 e83d ef80 eabd c221 adbc
00000350: a02e e7bc b991 0fbe df80 e53c 69b0 02bc
00000360: 6b2f ac3d 9bf9 3d3d 10c7 dd3d 3a5c ff3c
00000370: 58f7 ef3d 466a 0fbd 5a6d 0f3d fbae b9bd
00000380: 6063 b3bd edc1 3a3c 855c 983d 2349 1cbd
00000390: 2b78 c93d e593 2d3d 34b1 c53c 5186 293d
000003a0: 595a a0bd c968 5dbd 43c0 fbbc f690 aa3d
000003b0: e2d7 5abb 7059 9cbd 2521 853c 77b5 e3bd
000003c0: 12f7 71bd 7aa3 043d 3cee 913d 1850 cf3b
000003d0: b86c 193d 4e63 aabc f7db e33c 3386 31bc
000003e0: efe7 673c b64d 4a3d ef31 bcbd e075 153d
000003f0: f80c 223d dd20 453c f310 793b 5e6a 6d3d
-0.032184906 0.08493218 0.10687322 0.04147417 0.08639995 -0.014621019 0.045565225 0.02864527
-0.037345663 0.007442264 -0.045063592 -0.010213472 -0.040006742 -0.010351797 0.02269791 0.036153898
-0.055364832 0.06569901 0.07087404 -0.015263386 0.037959915 -0.008398238 0.033354312 -0.018102665
0.00047715812 -0.033765934 0.090092525 -0.043380793 0.014000996 0.07871236 0.0915237 0.10154179
-0.05609337 0.045963034 -0.1095912 0.08109241 -0.09229108 -0.07105747 -0.012735116 0.03125992
-0.053357597 0.028132638 -0.009629837 -0.018301334 0.028962843 0.05240993 -0.051372167 -0.037334032
-0.017800903 0.046743337 -0.08121371 -0.12500209 0.071107864 -0.10783824 0.024405323 0.032083336
-0.016467832 -0.022673327 0.13320568 0.039470125 -0.05389864 -0.0017625 0.01075099 -0.0060325298
-0.07007497 0.084045365 0.01580857 0.020372253 0.10782097 0.007842579 0.026908455 0.029573515
-0.08223833 -0.0057736314 0.02084748 0.0696079 -0.036382288 -0.061256018 -0.013639098 0.03550963
-0.0029083802 -0.13785693 -0.061305024 0.057679318 0.007934118 -0.05549592 -0.022283327 0.0014924175
0.06627534 0.07809042 -0.08851783 -0.040683582 -0.12250754 0.039190102 0.032311026 0.024901642
-0.09765971 0.12308181 0.06490234 0.08093967 -0.080625966 0.14156139 -0.08258466 0.043593906
-0.033841416 0.064985745 0.012480433 0.033191536 -0.1374046 0.018153878 -0.18298185 -0.08090387
0.21970661 -0.08844682 0.020430036 0.056397792 0.07166123 -0.00046589342 0.17464568 -0.0055300826
-0.041726064 0.08595339 0.022174519 -0.12625137 -0.048552964 -0.061882906 0.048471596 0.0071585244
-0.061031837 0.07713714 0.01198392 0.028032936 0.0041322345 0.03723198 0.087710306 0.012573887
-0.07070015 -0.15007463 -0.09831852 0.041741773 -0.14773113 0.0053869965 0.020997168 0.013909878
-0.13482046 0.072302446 -0.035899945 0.09252538 -0.04187621 0.008731527 0.06367986 0.0035822326
0.06289007 -0.01868076 -0.07807763 -0.025331674 -0.024044674 0.29596794 -0.044300254 -0.004291916
-0.0550964 -0.052563652 0.052292485 -0.0801814 0.03050523 0.17564856 -0.02910322 0.08517177
-0.022941647 0.07912887 -0.08945103 -0.00870141 -0.045890737 0.052652773 0.034833763 0.15608664
-0.018417673 0.050744593 0.035128042 0.00018896721 0.10049576 -0.027815687 -0.06593237 -0.05917318
0.06449652 0.061284836 -0.0050394386 -0.06386365 0.016632224 0.01604303 0.05772084 -0.101054735
0.13089427 0.06219309 0.01639771 -0.11089385 0.060888823 -0.0940182 0.037305538 -0.017129626
-0.04506965 0.13298585 0.013920214 0.006667138 -0.019744288 0.076517425 -0.028531644 0.10394003
-0.05795479 0.11375512 -0.114503734 -0.021134261 -0.028220475 -0.14020433 0.028015552 -0.00797663
0.08407482 0.04638062 0.10828984 0.031171907 0.11717099 -0.03501346 0.035016395 -0.09066578
-0.08759189 0.011398775 0.07439522 -0.038155686 0.09837373 0.04237737 0.024132349 0.04138786
-0.078297324 -0.05405501 -0.030731326 0.0832843 -0.0033392836 -0.07634246 0.016251156 -0.11118596
-0.059073515 0.032382466 0.07125518 0.0063266866 0.037457198 -0.020799305 0.027814848 -0.010835218
0.014154418 0.049390517 -0.091892116 0.036489367 0.03956315 0.012031761 0.0038004487 0.057962768

g.2.bias f4 [100]
00000000: 63ca bf3b 0aed 14be df77 80bc a580 3b3d
00000010: 4cd2 17bd ec71 3fbd 57bf 1cbd de2e 09bd
00000020: 8219 48bc ea11 603d a87a b83d bd23 c5bc
00000030: ea9f d3bc 3b2b 453f 3911 03bd 82d2 883c
00000040: c681 283c 3497 503c 3934 e5bc e8b2 adbd
00000050: 3708 293f 308a aebc 1e15 be3d 45de 06bd
00000060: 7e36 95bd 4266 f2bd c5d0 c23c ec5e 3dbd
00000070: c43b dcbc 72db f43d 6a38 0f3d 84e3 253d
00000080: 3e14 d53c 3103 163d 0548 75bd ac77 0b3d
00000090: 70f5 6e38 ad98 19be 470a 86bc 762e 8bbd
000000a0: e180 c0bd 82df 7dbd 3381 15bc 9fd9 d4bc
000000b0: e691 57bc 7994 b7bd 6268 0fbd 2f2c ccbd
000000c0: b3e0 68bc 7475 e3bd a0db abbd 638f d53d
000000d0: 83f4 ddbc dd9f 693d 6ee1 953d b189 83bd
000000e0: a471 6f3c 0071 e8bc d9bd 8d3d c760 ad3d
000000f0: fdb5 81be b2c2 94bc f8ad 2abc 422e 76bd
00000100: 740f ebbb 7455 e03b 1e30 1a3c efcb 663d
00000110: e6cc 1dbd 0dd6 a53c 4252 413d 9208 dc3c
00000120: 52f1 9c3c 1044 70b9 eef1 f23d 16a1 d0bd
00000130: 0a03 2a3d 954f e73d 959a 35bd 4859 afbc
00000140: aaba 8d3d 4bad b9bd 4659 68bd eaea 9ebc
00000150: a467 8fbc 6914 ac3c 971f c4bd 0a78 513d
00000160: ce4b a7bb 4115 bfbe 73c2 1cbf b752 c6bd
00000170: f7f6 cfbc 0a25 c6bb 4b65 9fbd dab1 42bd
00000180: accf c4bc 26be 1cbd 6992 093e a254 03bd
0.005852984 -0.14543548 -0.015682159 0.04577698 -0.03706579 -0.046739504 -0.038268413 -0.03349196
-0.012213113 0.054704584 0.0900777 -0.024064893 -0.025833089 0.7701909 -0.031998847 0.01670194
0.010284847 0.012731362 -0.027979003 -0.08481389 0.6602816 -0.021306127 0.092813715 -0.032926816
-0.07285784 -0.118359104 0.02378119 -0.046233103 -0.026883967 0.11955918 0.03496591 0.04050018
0.026010629 0.036624137 -0.059883136 0.034049675 5.6972203e-05 -0.14999647 -0.016362322 -0.06795971
-0.09399582 -0.06198073 -0.009125042 -0.025982676 -0.0131573435 -0.08963866 -0.035011657 -0.09969365
-0.014213729 -0.11106387 -0.083914995 0.104277395 -0.027094131 0.057037223 0.07318388 -0.06422747
0.014614496 -0.028374195 0.06920976 0.084657244 -0.2533416 -0.018159244 -0.010417454 -0.06010271
-0.007173473 0.0068461243 0.009410886 0.05634683 -0.038525485 0.020243669 0.047197588 0.026859555
0.01915804 -0.00022913539 0.11862551 -0.10186975 0.041506805 0.11294476 -0.044336874 -0.021404877
0.06920369 -0.09066256 -0.056725763 -0.019399125 -0.017505474 0.021005826 -0.09576338 0.05113987
-0.005105472 -0.37320903 -0.61234206 -0.09683745 -0.025386317 -0.006046896 -0.07782992 -0.047532894
-0.024024807 -0.038267277 0.13434757 -0.032063134

g.4.weight f4 [1, 100]
00000000: 983f 353c 9f20 8ebd 55b6 14bc 60ea a7bb
00000010: 80e0 91bc fc13 753d 5b71 46bd 244b 24bc
00000020: 1a23 dabc 2212 4a3d c8ab 393d 675e 363d
00000030: e290 d23c ba1c 69be f9f9 58bb 7814 dbbd
00000040: 169e 1bbc 1a41 b43c 0477 ac3a 29b0 9abc
00000050: 80ff 333e 3ce8 19bc 5b70 f23c deba f43c
00000060: 48ee 15bb e1d4 123d 884a 773c de72 0cbc
00000070: 317f cf3b 926c 413d 9488 fa3c 2783 193c
00000080: 14f3 4f39 6ac0 563c 1ecb 0fbb 1534 9dbb
00000090: 8d72 913c c89f cabd 66b5 a43c e9e0 b0bd
000000a0: a1c9 72bc 0f43 7cbc 7e31 803d 7659 423c
000000b0: f4e9 a03b 195a ca3a 5eb9 bdbb 206c 893c
000000c0: d8ed e9bc ad35 b8bc 4dd3 e6bc 8ed2 a33c
000000d0: 3010 823b c68b 033c 3a0a 1abb 4c8b 3dba
000000e0: 21a3 f5bc 67eb 563c a272 fcba 61ce 353c
000000f0: b9ec 08be 31b2 69bb 0605 74bc db73 82bd
00000100: 3b44 023d 6f92 8ebc 4f90 0a3d 646b 563b
00000110: 304d cab8 a036 c6ba 56d7 12bd 6380 0ebd
00000120: 8c25 ef3b 3dd1 c7bc 40c1 5f3d 7067 12bd
00000130: b6a4 6f3c 5d83 883b cc75 6ebc a1ec b53b
00000140: 3e3f 473c 68b4 82bc 7931 463b 82fa 15bc
00000150: d827 783b df03 643d c703 64bc 1cb7 f23c
00000160: e8f1 163c abb1 fe3d 5138 dbbd fff1 a9bc
00000170: 4b46 04bc 336e a43b 8299 713b 1a20 073e
00000180: 20f7 29bc 9d5b 26bc 87e9 8b3a a7f6 c9bc
0.011062525 -0.06939816 -0.0090766745 -0.005124375 -0.017807245 0.05983351 -0.048447948 -0.010027681
-0.026628066 0.0493337 0.04532984 0.044523623 0.025703851 -0.22764865 -0.003310798 -0.106972635
-0.00949814 0.0220037 0.0013158028 -0.018882828 0.17577934 -0.009393748 0.02959459 0.029874261
-0.0022877622 0.03584755 0.015093453 -0.008572308 0.006332301 0.04722268 0.030582704 0.009369648
0.00019831612 0.0131073985 -0.0021941136 -0.0047974684 0.017754817 -0.09893757 0.020106029 -0.08636648
-0.01481858 -0.015396847 0.0625944 0.011862149 0.004910702 0.0015438228 -0.0057899198 0.01677519
-0.028555796 -0.022486532 -0.028176928 0.019997861 0.003969215 0.00802893 -0.002350463 -0.00072305347
-0.029985012 0.013117648 -0.0019260237 0.011096568 -0.13371553 -0.003565919 -0.014893776 -0.06369754
0.03180335 -0.01740381 0.03382903 0.0032717818 -9.646488e-05 -0.0015122481 -0.03584989 -0.034790408
0.007298177 -0.024391765 0.054627657 -0.035743177 0.0146266725 0.0041660503 -0.014554452 0.00555189
0.012161074 -0.015955165 0.003024189 -0.009153964 0.0037865546 0.055667754 -0.013916916 0.029628329
0.009212948 0.12436231 -0.10704101 -0.020745276 -0.0080734 0.0050180196 0.003686518 0.1319584
-0.010373861 -0.010153678 0.0010674455 -0.024653746
