models/compas_ALLR_mlp_l0.100_s4.pth (torch, 45157 bytes, 5 tensors)

g.0.weight f4 [100, 4]
000000 3d 6f f1 bb d1 70 08 3e be 9f 01 3c 6d 14 d2 bc
       -0.007367997 0.13324286 0.007911621 -0.025644505
000010 1e cd af be f0 93 c9 be e3 2a 11 3e 66 80 9b 3e
       -0.3433618 -0.3937068 0.14176516 0.30371398
000020 e8 a9 1b bc f5 e0 ce 3d d5 51 3e 3d f1 76 14 bd
       -0.009500958 0.10101501 0.04646476 -0.036246244
000030 b3 46 96 bc bd ed ba 3d aa d9 62 3d a8 37 6f 3b
       -0.018344259 0.09127376 0.055383362 0.003650168
000040 40 d9 03 3e d1 1e 1e be a8 bd a8 bd f9 4e cb be
       0.12875843 -0.15441443 -0.08239299 -0.3970869
000050 0c e6 13 bd 34 9d 2c 3c 1e 46 0c 3d d0 a3 23 3b
       -0.03610806 0.010535527 0.034246556 0.0024969466
000060 f4 1a 76 3d 06 b9 5a bd ca 4e 3a bd 58 90 94 bd
       0.0600843 -0.05339911 -0.045485295 -0.07254094
000070 c1 a5 1f 3c e6 11 b2 bc 53 95 da bc be 7f b0 bc
       0.009744109 -0.02173705 -0.026682531 -0.021545287
000080 d0 81 c5 bc e4 56 85 3d f5 3a 05 3d 48 3c fd bc
       -0.024109751 0.06510714 0.03252693 -0.030912533
000090 6e 27 fc bc 28 72 ed 3c 51 a0 91 3c 68 1e 88 bc
       -0.03078052 0.028985098 0.01777664 -0.016616061
0000a0 78 00 7b bc 96 a8 32 3e 4a 55 a0 3d 0e a9 25 bd
       -0.015319936 0.17447123 0.078287676 -0.040444426
0000b0 04 cb bb bb 49 fb 31 3e 1e 93 96 3d ec 07 52 bd
       -0.0057309885 0.17381014 0.07352279 -0.051277086
0000c0 a7 9c b2 bc 49 78 68 3e f9 d2 e8 bd 9a 06 ce 3e
       -0.021803213 0.22702135 -0.11368365 0.40239412
0000d0 c9 2d 99 3c 19 81 f6 bd ca f8 7e bd 23 41 85 3c
       0.01869859 -0.12036342 -0.062248982 0.016266411
0000e0 10 da cd 3c 1d ba df 3e cf ab 1d bd 16 73 35 3f
       0.025128394 0.4369668 -0.038493928 0.7087873
0000f0 53 a2 81 be 20 26 56 3e 46 06 8a be 45 7a 45 3e
       -0.25319156 0.20912981 -0.2695791 0.19284923
000100 eb 35 d1 3c 03 7c 2d 3e d5 a9 d6 3d c8 10 f8 be
       0.025538405 0.16941838 0.10481612 -0.48450303
000110 4b c6 ff bc 50 08 a5 bc 31 06 1a 3d 84 a4 2d bf
       -0.031222483 -0.020145565 0.03760356 -0.67829156
000120 a4 de 35 be c2 72 8f bd 26 1f a7 bd db 46 af 3e
       -0.17760712 -0.0700431 -0.08160238 0.34233746
000130 7b e6 b5 3d 14 28 e1 3d b7 65 74 bc 22 ca b6 be
       0.08881851 0.109939724 -0.014916829 -0.3570109
000140 20 07 cb 3d 63 78 c0 3d b8 a4 35 bb 99 15 61 be
       0.09913468 0.09397962 -0.0027716588 -0.21980895
000150 8c 8d ed 3b 4f 00 34 3c 9c 6d 29 3b 6f d5 02 3c
       0.0072495397 0.010986402 0.0025852686 0.007985457
000160 8f 1c f4 bd b7 9c aa be df 8b c5 bc 5f 3b 00 3e
       -0.119195096 -0.3332269 -0.024114547 0.12522648
000170 09 ca 31 3e b7 ea 41 3e 33 68 fe 3d c3 ef 83 be
       0.17362227 0.18937193 0.12422218 -0.2576886
000180 df eb ce bc 8e ba 77 3b 3f f1 d5 3c 45 5d ed bb
       -0.025258956 0.0037800404 0.026116012 -0.0072437846
000190 ae 8a b3 bc 0d 2e 0c 3e 1f 68 93 3d c6 49 d4 bd
       -0.021916714 0.13689442 0.07197594 -0.10365634
0001a0 25 a7 05 bd 47 8f 52 3d 86 1b 48 3d a4 45 08 3c
       -0.032630105 0.05140617 0.048854373 0.008317385
0001b0 22 29 4f bc 14 c2 45 3d f8 e6 e8 3c 06 6a 49 3d
       -0.012644084 0.04828079 0.028430447 0.049173377
0001c0 3b 44 29 be 4e 84 85 3c a3 bd 20 3d f0 6a 51 3e
       -0.16529934 0.01629844 0.03924335 0.2045095
0001d0 3a 0e 05 bd 55 86 3f 3c cb c2 0d 3d 03 9a 86 3d
       -0.03248427 0.011689742 0.034609597 0.06572344
0001e0 35 1d b4 bc ae bb f0 bc 17 83 b0 ba d6 b6 c0 3b
       -0.021986583 -0.029386368 -0.0013466802 0.0058811707
0001f0 09 76 10 3c 9f 7a ae bd 77 98 14 bd b4 30 9c 3d
       0.008817204 -0.08519482 -0.036278214 0.07626477
000200 54 5c cc 3c d9 cd f9 3d 68 3f ab bc 44 ce 28 3f
       0.02494637 0.121974654 -0.020904258 0.65939736
000210 90 27 93 bb b1 a4 0e 3d ec e1 e5 3c e9 db 58 3c
       -0.0044908 0.03482503 0.02806183 0.013236024
000220 b5 e5 9c 3d 2f 60 48 bc 2c 8b f2 3c 06 91 fa bd
       0.07661001 -0.012229963 0.029607378 -0.12234692
000230 59 be 42 bd 28 9c dd 3d 0f ee 59 3d c6 df 93 3c
       -0.04754481 0.108208 0.053205546 0.01805104
000240 86 c9 a8 bb 44 4f b6 3d 0d 52 13 3d aa 44 db bc
       -0.0051509766 0.089018375 0.03596692 -0.02676614
000250 76 cb e5 bb da a8 1d 3d 75 74 e0 3c c1 e8 50 bc
       -0.00701278 0.038491108 0.027399281 -0.012750805
000260 13 68 98 3c 91 78 97 bd fe 02 0e bd b4 c4 1f 3c
       0.018604314 -0.07396043 -0.034670822 0.0097514875
000270 dc e6 53 bd b6 82 05 bd 3e b6 81 bc b0 e2 28 3d
       -0.051733837 -0.03259536 -0.01583397 0.04123181
000280 5d 5f a5 3c 7e f0 6d bc 6c 83 07 bc ed 6c 32 bc
       0.020187074 -0.01452267 -0.0082710795 -0.010890228
000290 72 79 67 be 7b ba 3a be e5 8a 55 3d 74 d8 e6 3e
       -0.22604921 -0.18235199 0.052134413 0.45087016
0002a0 31 7f a9 bc 7a 5d db bd e0 cd ad b8 19 ed 79 3d
       -0.020690532 -0.107111886 -8.28763e-05 0.06101713
0002b0 63 2e 8d 3c c2 f0 fb 3c c1 52 2c bc 17 8c 05 3c
       0.017234033 0.03075445 -0.010517777 0.008151076
0002c0 25 fb 3d 3d 9b ec 4e bd 94 eb b5 bd 52 9a 04 3f
       0.04638209 -0.050518613 -0.088828236 0.51797974
0002d0 09 c2 01 3e 2a a8 0b be 0a 68 20 be 10 12 28 be
       0.12671675 -0.13638368 -0.15664688 -0.1641314
0002e0 60 b2 20 bb 4e da 21 3b 68 c4 23 ba cb 70 09 bd
       -0.0024520382 0.002469677 -0.00062472234 -0.033554833
0002f0 cb ef 54 bc 0a 6c 24 bd 89 14 91 bc d4 2a 5a bc
       -0.012996624 -0.040142097 -0.017709987 -0.013315875
000300 8d 56 29 3d 38 56 b4 bd d6 f7 55 3c 0d ff 5e bb
       0.041342307 -0.088055074 0.013059577 -0.0034026534
000310 12 0c 24 bb 50 cf 2b bc 96 5c 31 3d 2b 86 a2 be
       -0.0025031609 -0.010486439 0.043301187 -0.31742987
000320 a0 0e 32 b9 5d 61 d6 bc c9 2b 19 bc 9c 8a b3 3c
       -0.00016980851 -0.026169473 -0.009348818 0.02191668
000330 90 13 39 ba 5d c4 58 bc e0 e7 14 bb f4 60 8d bb
       -0.0007060105 -0.01323041 -0.0022721216 -0.004314536
000340 86 9e 03 bc a2 21 c0 3d da da 07 3d 7a 83 25 bd
       -0.0080334 0.09381415 0.033167697 -0.04040859
000350 cd 25 ab bd b3 f9 c4 3d 2a e3 3b bd b8 1f 92 3e
       -0.08356819 0.09617939 -0.045870937 0.28539824
000360 e8 18 a1 bb 69 fa 04 be 4b 0e 33 bd ec 3b 03 3f
       -0.004916299 -0.12986149 -0.043714803 0.5126331
000370 a0 ca c3 3e 44 de 85 be e2 26 d2 bd 25 d1 00 be
       0.38240528 -0.26146138 -0.102613226 -0.12579782
000380 a6 4d 2b 3d 78 b4 9f bd e2 fc d1 3d a3 d1 32 bf
       0.0418221 -0.077980936 0.10253312 -0.6985113
000390 f4 fd d0 39 79 7c 75 3d b2 23 7c bc 8e 44 3c bd
       0.0003986206 0.05993316 -0.01538937 -0.045963816
0003a0 6d 88 b8 3d 58 a8 19 3e 02 7b 7d bc 7a 01 44 be
       0.09010396 0.15005624 -0.015471222 -0.19141188
0003b0 76 a4 a7 bc c6 0a 30 be 1d 72 a1 bd 3b 51 12 3f
       -0.020464163 -0.1719161 -0.078830935 0.571552
0003c0 b2 de 89 be b3 5c 5b 3d 5a 77 07 be 3c 63 a9 3e
       -0.26927716 0.0535552 -0.13229123 0.33083522
0003d0 0b 9a 46 3d ce 93 19 3d 0e 4d 04 bd d5 58 cb bd
       0.04848675 0.037494473 -0.032300048 -0.09929053
0003e0 be 88 8f be 3d 51 87 bd 80 37 11 be 2e 3d 38 3e
       -0.28034014 -0.06607292 -0.14181328 0.17992088
0003f0 b1 f6 34 3c b6 85 48 bc c0 25 9d bd 3d f5 58 be
       0.011045144 -0.01223891 -0.07673216 -0.21187301

g.0.bias f4 [100]
000000 98 dc 53 be b5 d5 7c be 82 ab 00 be 9c 4f 20 be
       -0.20689619 -0.24690898 -0.12565425 -0.15655369
000010 ff d7 8b 3e a7 eb 0a bd 48 0a c2 3d ae ac e9 3b
       0.2731323 -0.03391614 0.09474617 0.0071311807
000020 86 3f 3a bd c3 9e 8a bb c1 a3 6c be db bd 1a be
       -0.045470737 -0.0042303517 -0.23109342 -0.15111487
000030 84 7d 43 3d 81 fb cc 3d 4c 3c e0 3e 7a 17 00 bf
       0.047727123 0.10008908 0.43796003 -0.5003582
000040 f9 92 dd be cf d0 21 be b6 91 61 be ba cf 79 be
       -0.43276194 -0.1580231 -0.2202824 -0.24395648
000050 50 5c 0d 3e 05 61 67 bc dc 84 de 3e 82 55 7b 3e
       0.13804746 -0.014122252 0.4346074 0.24544337
000060 59 eb be 3c ec de ca 3c 8d 06 a0 bd 78 6e d1 bd
       0.023305582 0.0247645 -0.078137495 -0.10226148
000070 03 dc 07 be f5 8f 83 bd cc 8c 14 3d 3f 1c df 3d
       -0.13267522 -0.06423942 0.036267087 0.108940594
000080 01 fd 86 3d 1d 93 82 bd 3f d6 4e 3b e9 29 20 be
       0.065912254 -0.06375716 0.0031560806 -0.15640987
000090 90 00 0a be d0 f5 91 bd 7e 7d f4 3d 53 3b f3 3d
       -0.13476777 -0.07126963 0.11937998 0.118765496
0000a0 4e f7 95 3c 57 62 cb 3e 78 1a 89 3d 1a 14 43 bd
       0.0183064 0.39723465 0.06694502 -0.047626592
0000b0 c7 56 a5 3e 22 21 9b 3e f8 08 a1 3c 8f 82 4f 3d
       0.32292768 0.30298716 0.019657597 0.05066162
0000c0 98 50 c0 bc c3 78 dc bc 4b bd d7 3c 52 21 1b 3d
       -0.02347593 -0.026913052 0.02633538 0.037873574
0000d0 90 9f ee bd f7 9f 50 3e d4 2e cf 3e 47 05 39 3e
       -0.11651528 0.20373522 0.40465415 0.1806842
0000e0 8a 8d e5 be a5 9f 12 bc ec 16 23 3e 8b e0 f7 3e
       -0.44834548 -0.008949195 0.15926713 0.484135
0000f0 9b 05 26 3e ed c4 a6 3c c2 c8 48 3e 51 be 82 ba
       0.16213076 0.020357573 0.19607833 -0.0009974932
000100 dd 3a 17 3a b0 de ac 3e b4 92 28 bd 57 84 a8 bd
       0.0005768964 0.33763647 -0.041155532 -0.08228367
000110 6f e4 bd bd 84 ec 6d 3e ae 23 2d 3e 15 4e d8 be
       -0.09272086 0.23234755 0.16908142 -0.42247072
000120 5e 72 ab 3e fa 6f 6b be 60 fd a4 be 70 b7 6d be
       0.33485693 -0.22991934 -0.3222456 -0.23214507
000130 25 61 18 3e 40 67 17 3a 00 98 30 3c 3a 66 07 3f
       0.14880808 0.00057755783 0.010778427 0.5289036
000140 f3 ce 21 be a6 41 31 ba 8c f0 e7 bd 47 ca 5a be
       -0.15801601 -0.00067617965 -0.113251776 -0.21366225
000150 25 ce ea 3d 49 be 98 be d0 9e 9f be a2 35 b8 bc
       0.114651 -0.29832676 -0.31175852 -0.022486512
000160 e0 4d be bd 7c 1d b1 3e 83 30 47 be 64 fc 0c 3e
       -0.09292197 0.34592807 -0.194521 0.13768154
000170 47 31 b9 3d b9 66 47 3d cf 37 95 3d 07 6f 37 be
       0.09042602 0.04868195 0.07286035 -0.17913447
000180 07 03 b9 bd 1c a5 4d be 01 c3 3d be b5 30 71 be
       -0.090337805 -0.20082515 -0.1853142 -0.23553737

g.2.weight f4 [100, 100]
000000 9f ee c2 3b fe ab 6d 3d 4a 9c 4b bc 92 e8 23 3d
       0.005948856 0.058025353 -0.012427399 0.04001672
000010 17 9c 0b 3d 14 29 0f 3d d9 7d 66 bd b5 a1 8f 3c
       0.034084406 0.034951285 -0.05627236 0.017533163
000020 89 e3 1f 3d 50 4d 87 3d 2e 86 cc bd da 6c ac bc
       0.039035354 0.06606543 -0.0998653 -0.021047998
000030 5a a9 cd bd f1 4d ca bd 0e cc 6b 3c 52 59 40 3d
       -0.10042067 -0.098781474 0.014391912 0.046960182
000040 46 70 05 bd 47 fd da bb b2 34 45 bd 0a fa 04 3c
       -0.032577775 -0.006683025 -0.048145957 0.008116255
000050 04 c7 0b 3c 3b bd fa bd 7d 8f 5b bd 8c e1 72 bc
       0.008531336 -0.12243124 -0.053603638 -0.014824282
000060 66 eb 9f bb 93 ac af 3d 1e f1 18 bc b5 30 4e 3d
       -0.0048803566 0.08577838 -0.009334831 0.05033942
000070 c1 98 46 3c 16 85 8f 3d b5 6d 90 bd cd 1f 06 bc
       0.01212138 0.07007806 -0.07052175 -0.008186293
000080 e9 2f ca bc d2 b3 3c bc 08 88 34 3d 2d bb f1 3d
       -0.024681048 -0.011517482 0.044075042 0.11803279
000090 81 1c 15 3d 63 30 93 bd c8 9d 36 3d 83 f4 b4 bd
       0.036404137 -0.071869634 0.044584066 -0.088356994
0000a0 7f 18 fa 3d 25 75 89 3d e5 cb 7b 3d 3f 06 04 3e
       0.122117035 0.06711797 0.061473746 0.12893008
0000b0 e9 f7 ed bc 2c 1f b4 3d 1d 8f 9e 3d 37 79 87 bd
       -0.029048877 0.08795008 0.077421404 -0.06614917
0000c0 74 39 9b bd 6e db 3e 3d ba ee ea 3c a8 42 d5 3d
       -0.07579318 0.046595983 0.028678287 0.10413104
0000d0 e9 3d 29 bd 83 d7 e9 bc c4 b0 26 bd 6c 0f 9e 3d
       -0.041318808 -0.028545147 -0.04069592 0.07717785
0000e0 ac 3b 92 bd fd d3 5c 3d b7 4a 80 b9 bf 57 62 3d
       -0.07140288 0.053913105 -0.0002446973 0.055259462
0000f0 b6 e8 ae bd 50 cf 77 bd d5 25 f5 3c 6b 29 02 3d
       -0.0854048 -0.060500443 0.029925266 0.03177778
000100 5c a5 dc bc 78 ca 28 3d 02 ef 58 3a 9c ba 9c bd
       -0.026934318 0.041208714 0.0008275361 -0.076527804
000110 50 d1 d4 3d df c9 d8 bc fd 47 b1 3d 83 3c 30 bb
       0.10391486 -0.026463447 0.08656309 -0.0026891537
000120 6a 95 91 3c f2 fa 7b 3d 17 64 08 3e cc 4e d8 bd
       0.017771441 0.061518617 0.13319431 -0.10561904
000130 db 4f d5 3c 4f a5 4e bd 1a 1f 11 be 7d f6 e2 3c
       0.026039055 -0.05045062 -0.1417202 0.027705425
000140 bb 4a 53 bb d6 70 05 3d 74 3c 6e 3d 99 99 cc bd
       -0.0032240588 0.03257831 0.05816312 -0.09990234
000150 2b c4 b0 3c 1a d8 59 bd 93 c6 09 3d 09 d4 a4 bd
       0.021577915 -0.053184606 0.03363664 -0.08048255
000160 32 a2 86 3d b3 ba 18 bc 0f 3d 4b bc bc d6 89 3d
       0.06573905 -0.009321856 -0.012404694 0.067304105
000170 1e d8 b1 3d 9a d6 97 3c 25 d2 04 bd 31 d7 80 bc
       0.08683799 0.018534947 -0.032426972 -0.015727611
000180 b5 86 88 3d d4 5b 88 3d 9c d4 a1 3d 35 6a 1a 3d
       0.06666318 0.0665814 0.0790188 0.037698943
000190 a6 e5 8f bd 4a b7 66 3d 79 10 8e 3b b6 a9 b6 bd
       -0.07026224 0.05632714 0.00433546 -0.089190885
0001a0 e5 89 97 bd 5f 23 bf 3d 8a 29 55 3d 1e f5 ef ba
       -0.07399348 0.093329184 0.052041568 -0.0018307304
0001b0 9b 7d 7a bd 70 2d 11 3d ab ee 44 3d 63 56 8d 3c
       -0.061154943 0.035443723 0.048079174 0.017253106
0001c0 6d a9 15 3d f8 5e 4d 3d 48 2e 4c bd fa 77 99 bd
       0.03653853 0.050139397 -0.049848825 -0.07493587
0001d0 23 72 28 bd 5c 19 e6 3a 67 e5 0c 3d a8 32 b2 bc
       -0.041124474 0.0017555165 0.034398463 -0.02175267
0001e0 c8 09 c4 3d 23 e0 fa 3c 99 f2 78 3d f1 2f 98 3d
       0.09572178 0.030624455 0.060778234 0.07431019
0001f0 38 83 9f bd 40 b1 2a 3d 82 4a 2e 3d b2 97 bd bd
       -0.077887 0.041672945 0.042551525 -0.09257449
000200 2f 74 b0 3d 36 ad d2 3c e2 7a 83 bd cf 27 ca bc
       0.0861591 0.025717359 -0.064199224 -0.024677185
000210 1f e3 3d bb cf 04 1e 3d 7c 38 80 3d cc df 5e 3d
       -0.0028974486 0.038578805 0.062607735 0.054412648
000220 7d d1 c7 bd 30 b3 82 bd b4 65 a2 bd 1d 06 0f 3d
       -0.097567536 -0.063818336 -0.079295546 0.03491794
000230 dd d6 07 3d 18 a4 02 bd da 33 00 bc 57 eb 75 bd
       0.033163894 -0.031894773 -0.007824862 -0.06003889
000240 17 08 b5 bc cc a6 e5 bc 1a 40 95 bc 2d 60 4b 3d
       -0.022098584 -0.028033637 -0.018219043 0.049652267
000250 a5 1a d1 bd 86 57 80 3d 09 4e 9f bd 47 01 da 3c
       -0.1021016 0.06266694 -0.07778556 0.026611937
000260 63 33 da bd 1f 0f 8c bd 1c 52 77 3d 46 93 9a 3d
       -0.106543325 -0.068388216 0.06038104 0.075476214
000270 e9 87 d5 3c 64 f1 34 3c ac 11 ff 3c f3 ea 34 bc
       0.026065784 0.01104388 0.031136356 -0.011042344
000280 f5 47 3d 3d b6 b1 81 bb f5 72 96 bd a8 52 6b 3d
       0.0462112 -0.0039579524 -0.07346145 0.057451874
000290 80 23 ef 3c d9 0a c8 3d e8 db 50 bd 1d d1 85 3c
       0.029191732 0.09767694 -0.05099097 0.016335065
0002a0 df 05 da bc a6 c6 21 bd b0 5a 96 3a 58 c1 8d 3c
       -0.026614128 -0.039496087 0.0011471119 0.017304108
0002b0 68 5d e3 3b 06 eb 98 3d 3d 91 c8 3d 7f af 92 3d
       0.006938625 0.07466702 0.09793327 0.071623795
0002c0 db e4 72 3c 3e a0 f8 3c ad 28 c9 3d 0d 72 0b be
       0.014825071 0.030349847 0.098222114 -0.13617726
0002d0 c9 f9 71 3d 51 18 3d bd 68 76 6f b9 39 a8 1d 3d
       0.059076104 -0.046165768 -0.00022836926 0.038490508
0002e0 23 e3 14 bd e2 c2 b4 3d 8f 23 b8 bc 0f 81 39 bc
       -0.036349427 0.088262334 -0.022477893 -0.011322274
0002f0 6d a7 21 bd 08 51 f4 3c 6b 07 1b 3d 2a b9 a7 3d
       -0.03946631 0.029823795 0.03784887 0.08189614
000300 cf f8 d3 3d 9a 98 5d bd 60 00 fd bd 1d fc 67 bd
       0.10350191 -0.05410061 -0.12353587 -0.05663692
000310 34 d8 81 3d a6 21 99 3d b3 07 c0 3b e7 59 49 bd
       0.063400656 0.07477121 0.005860293 -0.049158003
000320 39 83 b8 bd 20 01 00 bd ee 89 3e bd 64 94 47 bd
       -0.09009404 -0.031251073 -0.04651826 -0.0487255
000330 9a f5 30 bd c1 bf 8b 3d 1f f2 a0 3d f8 c9 2f bb
       -0.043202974 0.068236835 0.07858681 -0.0026823264
000340 ff 9e 80 3d ad 76 cb 3c cb d4 05 bd a5 5e da bc
       0.06280326 0.024836862 -0.03267364 -0.026656458
000350 06 88 a9 3c 1c e8 a5 bd 3d 0a ab ba 4b 46 b8 3d
       0.020694744 -0.08100912 -0.0013049316 0.08997782
000360 2b 00 b6 3c d6 6e 29 3d d2 ee 0e 3d f4 55 7b bd
       0.022216877 0.041365467 0.034895726 -0.06136127
000370 40 60 c3 bd a1 d8 ac 3d f8 0a 13 bd b4 5d 6b bb
       -0.095398426 0.08439756 -0.035899132 -0.0035914006
000380 55 ab 0e 3c 4c 72 1f 3d 72 0a 1b bc 41 d5 a0 bd
       0.008707841 0.03892736 -0.00946294 -0.07853175
000390 22 60 cf 3c ad 83 fe 3c f9 a5 d7 3d 95 44 80 3d
       0.025314394 0.031068647 0.10529704 0.06263081
0003a0 b6 9b 9f bd 7f 3f 47 bd 82 cb c3 3c 8a b5 0f bd
       -0.077933714 -0.04864454 0.023900751 -0.03508524
0003b0 ad 49 ed bc 30 6f d4 bc 4f 8e 6a 3c af 1c 8d bc
       -0.028965795 -0.025931925 0.014316156 -0.017225591
0003c0 a6 19 37 bc 05 f7 2d bc c7 a3 a6 3c 2c 1e bc 3c
       -0.011175549 -0.010617976 0.020341767 0.022963606
0003d0 29 fd 36 3d 4e cb 8d 3d 20 c3 24 3e b4 40 94 ba
       0.044675026 0.06923543 0.1609006 -0.0011310787
0003e0 f0 22 e8 bb fe e0 a8 bc d6 f9 88 3d af 19 69 3d
       -0.007084243 -0.020615097 0.066882774 0.05690926
0003f0 a6 d1 92 3d 8e 87 9d 3c 8f 4a 4f bd d7 c6 b9 3d
       0.071688935 0.019229677 -0.050608214 0.09071129

g.2.bias f4 [100]
000000 a0 89 06 bd 51 27 52 3d e0 52 62 3d 64 b7 18 bd
       -0.032846093 0.051307026 0.055254817 -0.03728427
000010 fb 5d 20 bd 70 7d 14 bd 64 72 fb bc 74 38 a6 bd
       -0.039152127 -0.03625244 -0.030694194 -0.08116236
000020 63 66 22 be 4c f3 e5 3d 69 2a 70 bc 3a f7 9c 3e
       -0.1585937 0.11228046 -0.014658549 0.3065737
000030 18 a2 17 bd 4f 70 36 bd 1a ad 0f bd b9 79 cb 3c
       -0.03701982 -0.0445407 -0.035077192 0.024838315
000040 1e e5 16 3e 28 01 df bd 05 d1 9c 3e f4 1d 5f bb
       0.14735839 -0.108888924 0.3062822 -0.0034044953
000050 2a 7b 73 bd bd b5 99 3d d5 31 4e bd f4 54 4e bd
       -0.05944363 0.07505367 -0.050340492 -0.050373986
000060 52 36 63 ba e5 c3 6c 3d 2c a1 94 bd 2d cd 69 3d
       -0.0008667457 0.057804007 -0.072573036 0.057080436
000070 58 e6 8f bd 4c 1d 91 bd 13 9a 42 3e f9 f3 66 3d
       -0.070263565 -0.07085666 0.19004087 0.056385014
000080 6c 58 00 3f 4e 4b 04 bd 4f 38 b9 3c 99 5c 86 3d
       0.5013492 -0.03229838 0.022609858 0.0656063
000090 a6 e8 02 3d f0 0b 26 bd bb 19 54 bd b5 37 17 3d
       0.031960152 -0.04053873 -0.05178235 0.03691836
0000a0 04 d3 ac 3d 15 19 84 bc c6 a3 17 3f bc 02 5d 3d
       0.084386855 -0.016125241 0.59234273 0.053957686
0000b0 68 24 82 bc fa d8 69 3c 27 55 33 3e 74 e2 ef bd
       -0.0158865 0.014272923 0.17512952 -0.117131144
0000c0 0c 8e e6 3a 70 0c 9b bc d1 cf 4f 3d 07 54 cf 3c
       0.0017589941 -0.01892683 0.0507353 0.025308622
0000d0 10 62 8e 3b b5 db ec 3b e6 88 84 3d 1e 3e a3 be
       0.004345186 0.0072283396 0.06471424 -0.3188333
0000e0 78 a6 03 3b f7 7d 93 bc 66 9e d9 bd 3f 6a 3e bd
       0.0020088237 -0.0180044 -0.10625915 -0.046488043
0000f0 ac 1a ac 3c b4 b3 02 3d ef 66 10 3d 07 9d ad bc
       0.021008812 0.03190966 0.035254415 -0.02119304
000100 88 af 60 3c d0 3a 56 3e 5c 9c 22 3d f4 76 23 3d
       0.013713725 0.20920873 0.039699897 0.039908364
000110 eb a6 6f 3c 99 3f 7f 3d 38 51 fb bb ae b1 8f 3d
       0.014627199 0.06231651 -0.007669594 0.070163116
000120 13 cc 94 3c 9d bc 7a 3c 9f 70 59 bd 0b 58 02 be
       0.018163716 0.015303758 -0.05308592 -0.12728898
000130 9b b8 ab 3d 94 08 06 bf 25 d9 a4 3c 20 f7 c2 38
       0.0838482 -0.5235684 0.020123074 9.2966715e-05
000140 91 fe 18 3d 61 ab 96 bd 83 f6 42 3d 0c 33 c7 3d
       0.03735215 -0.07356907 0.047598373 0.09726533
000150 8a ee 10 bd 9d b1 28 3d b8 93 71 3d e6 9b 40 3c
       -0.03538374 0.04118501 0.058978766 0.011755919
000160 22 5f 82 3d 8e df 72 bc c0 c4 9e 3d 5f 9b 83 3d
       0.063658014 -0.014823807 0.07752371 0.06426119
000170 d2 a5 eb bd 49 6c 03 3d 3e 65 8c be e8 be ac bd
       -0.11506237 0.03208569 -0.27420992 -0.0843485
000180 85 30 60 3d c7 9a 71 bd 25 13 46 bd c3 36 80 bd
       0.05473377 -0.058985498 -0.0483581 -0.06260445

g.4.weight f4 [1, 100]
000000 82 f5 8e 3a 52 80 d0 3b 30 52 84 bb de 28 81 bb
       0.0010906907 0.006362953 -0.004038118 -0.0039416393
000010 b0 01 55 3a 16 16 08 bb 87 32 b1 bc 7e ae 4a 3b
       0.00081255566 -0.0020765117 -0.021630539 0.003092676
000020 20 bc 7e bd 5b 00 12 3d a2 ec 17 bd 08 2e 01 3d
       -0.06219113 0.03564487 -0.037090905 0.03153804
000030 32 b3 2a bb f7 77 4f bd f7 e0 67 3a 61 fd fd 3a
       -0.002604675 -0.050651517 0.0008845473 0.0019377881
000040 03 c3 91 3d 4c 02 08 bd 55 55 b9 3d a0 06 90 ba
       0.07117274 -0.033205315 0.09049479 -0.0010988303
000050 52 3e 84 bc 30 5a 76 bb d6 db 1c 3a b0 9d e0 3a
       -0.016142998 -0.0037590377 0.0005983686 0.0017136838
000060 7b a7 fa ba 72 98 01 3a 00 36 ec bb 2a 66 8d bb
       -0.0019123399 0.00049436756 -0.0072085857 -0.0043151574
000070 3b df 43 bb ca 76 6f 3b e6 32 f4 bd a1 88 f4 3a
       -0.0029887694 0.003653931 -0.119237706 0.0018656441
000080 d8 8f d9 bd 08 8e 5d bb 4c 65 74 3b 1b ea 36 bb
       -0.10623139 -0.003380658 0.0037291823 -0.0027910534
000090 f6 c6 a3 3a fd 42 49 3d 5a 8e fb ba f2 5c 27 3b
       0.0012495208 0.04913615 -0.0019192204 0.0025537577
0000a0 47 42 24 3c b2 c6 a7 3b 6d a7 c3 3d 7f c5 2f 3a
       0.010025567 0.005120122 0.09553418 0.00067051494
0000b0 3e 10 ee 3a 96 a5 28 3d 45 6f c4 3d 35 c9 e6 bc
       0.00181628 0.04117354 0.095915355 -0.028172115
0000c0 bc 9a 0b 3d 1a e2 31 3d 5c c7 04 3d 38 42 ed 3c
       0.034083113 0.043428518 0.032416686 0.02896224
0000d0 60 30 f7 3a 00 ae a7 bb f0 6d 1b bb 56 10 ec bd
       0.0018859021 -0.005117178 -0.002371665 -0.11526553
0000e0 96 87 cc 3b e3 3c 88 bb 8f 76 8a bb d6 a9 88 3b
       0.006241749 -0.004157649 -0.004225559 0.0041706366
0000f0 3d b0 d5 bc 06 ea 55 39 df 76 97 3c 91 c9 c4 3a
       -0.026085014 0.00020400443 0.0184893 0.0015013685
000100 7e bf c7 3a 60 6e da bd a0 39 e7 b9 7c 71 a4 bb
       0.0015239564 -0.106655836 -0.00044102687 -0.005018411
000110 a0 b5 1b bd 57 1c 20 3b 1c b6 08 bb 98 81 aa 3c
       -0.038015008 0.0024430954 -0.0020860499 0.020813748
000120 d2 20 2b bc cd 2d 4d 3b 9e 6e 84 3b 35 aa 61 bd
       -0.010444837 0.0031307817 0.004041507 -0.055093963
000130 45 fd fb ba 5d b5 fa bd 66 f3 4f ba 82 7a e9 3c
       -0.001922526 -0.122416236 -0.00079326925 0.0285008
000140 c0 09 20 bb 62 d5 c1 3a a6 47 0a bc 87 bc eb 3b
       -0.0024419874 0.0014788324 -0.008439934 0.007194105
000150 f4 5b 34 bb ed 52 3f bb 93 6a 0a 3d 75 f4 70 3b
       -0.0027520629 -0.0029193715 0.033793043 0.0036766801
000160 7a 73 c6 3b 42 84 3b bb 0e f5 1e bb 0e db 17 bb
       0.0060562463 -0.0028612767 -0.002425495 -0.0023171338
000170 94 a2 bf 3d 86 33 f3 3a d6 5f cd bd 92 70 43 3b
       0.09357181 0.0018554784 -0.10028045 0.0029821736
000180 5f 23 8c 3b 70 aa 93 ba ce d9 81 bb 2a 9d 36 3b
       0.0042766775 -0.0011266004 -0.003962732 0.0027864673
