models/german_ERM_lin_s3.pth (torch, 1217 bytes, 1 tensors)

g.weight f4 [1, 20]
00000000: c1f5 143f c800 a3be 63c0 d83e bcc1 ae3c
00000010: 12c1 6ebe a4f8 833e 6a09 643d 5130 a7be
00000020: 5b0e a43e 6adb 9a3e aa7b 9dbd e9f9 13be
00000030: 0599 2b3e 86b9 3b3e 7edd 4c3e 2fa2 c3be
00000040: 5d5d f63c 0733 683d 1bdb ad3e af13 73bf
0.5818749 -0.31836534 0.4233428 0.021332614 -0.23315838 0.25775635 0.05567304 -0.3265405
0.32042202 0.30245525 -0.07689603 -0.14450802 0.16757591 0.1833249 0.20006368 -0.38209674
0.030073816 0.05668929 0.33956227 -0.9495191
