models/german_ALLR_mlp_l0.500_s0.pth (torch, 51557 bytes, 5 tensors)

g.0.weight f4 [100, 20]
000000 51 8a 80 3d 0a a2 e8 3e da a7 24 be 47 fa 81 bd
       0.06276382 0.45436126 -0.16079655 -0.06346565
000010 be 97 13 3d 5b 6c be 3d b2 e0 d5 3c ba 48 0f 3e
       0.036033385 0.09298011 0.02610812 0.13992587
000020 7e 92 9f ba 94 9a cb bc 41 f7 0c bd 2d c2 d0 3c
       -0.0012174395 -0.024853982 -0.034415487 0.025483215
000030 b3 93 ca bd 32 27 9d bd d5 9c ef bc 84 42 93 bb
       -0.09891453 -0.076734915 -0.029249588 -0.0044940133
000040 13 31 da 3d f9 a2 49 3d 45 5a 08 bd a0 68 af bc
       0.106538914 0.04922769 -0.033289213 -0.021412194
000050 44 da 47 3c e5 b6 b4 3e b5 63 31 bd c2 94 d2 3d
       0.012198035 0.35295787 -0.04330798 0.102822796
000060 6e 49 9e 3d 59 99 2a 3c 91 a9 2f 3e 55 fd 39 be
       0.07728849 0.0104125375 0.17154528 -0.18163045
000070 d5 69 bd bd 90 cd 8b bc d7 0f 9e bd 0a 84 6e 3e
       -0.092487015 -0.017065793 -0.07717865 0.23292556
000080 fa 1e e1 bd 65 3b 65 bd b5 26 d2 bd ba 24 e3 bd
       -0.109922364 -0.055964846 -0.10261289 -0.110909894
000090 06 31 e8 bd 20 b8 1c 3e 27 3e 88 3c 18 45 bf 3d
       -0.113374755 0.15304613 0.016631199 0.093393505
0000a0 b7 d9 f8 bd f5 da 37 3d 4f a1 b5 bc a6 e1 72 be
       -0.12150901 0.044886548 -0.022171644 -0.2371889
0000b0 42 63 dc 3b d0 e0 19 be 79 71 97 3d 23 b6 c5 3d
       0.0067256996 -0.15027165 0.0739469 0.096538804
0000c0 68 b2 d2 bd 84 9e bd bb a2 9d 96 3d ac 90 1b 3e
       -0.102879345 -0.005786719 0.07354285 0.15191907
0000d0 01 46 7a 3c 36 c6 1d bc 87 5a d2 3d 87 af b5 bd
       0.015275479 -0.009629777 0.10271173 -0.0887137
0000e0 74 be 75 3c 2d 17 c8 bd 21 ba c3 bd 8e 3c e0 bd
       0.014999021 -0.097700454 -0.09556986 -0.1094905
0000f0 65 ce 17 bd e7 87 1b 3e d2 b0 58 be 45 a4 91 3c
       -0.037062068 0.15188561 -0.21161202 0.017778525
000100 76 4f 10 3e cc 8d 29 be 3a 53 1a bd a2 6f 20 3d
       0.14092812 -0.16557997 -0.037677027 0.03916896
000110 85 4e d6 3d 31 73 e6 3d df 00 59 be 7d 08 ec bd
       0.10464195 0.1125244 -0.21191739 -0.115250565
000120 9a 43 2f bd d4 85 0f 3e 7b fb e6 3d b1 6f eb 3d
       -0.04278908 0.14015895 0.11278435 0.11495913
000130 03 89 2c 3c 9e 49 42 be 45 2d 5c bc 34 2b 30 be
       0.010530713 -0.18973395 -0.0134385275 -0.1720398
000140 90 35 61 be 37 69 84 3e 46 f2 a1 3d 5d 4b dd bd
       -0.21993089 0.25861523 0.07907538 -0.1080539
000150 10 a3 97 ba e7 99 13 bd d8 50 0a bd ce 0e 4c bd
       -0.0011568982 -0.036035445 -0.033768505 -0.049818806
000160 1c 7c b4 3d 20 bd 27 3b 6e ce 38 3c 7f 48 a3 3d
       0.088127345 0.0025594905 0.011279685 0.07972812
000170 0a 8b 11 3d 86 23 44 3d b5 59 9e bd cc 65 9d bc
       0.03553299 0.04788544 -0.07731954 -0.01921358
000180 56 b6 1f 3d f4 bc 48 3d ac 80 6a bd 00 df 51 bc
       0.03899225 0.049008325 -0.057251617 -0.012809515
000190 7d 49 b0 3e 93 64 a5 bc 86 ff 5f 3c ec e5 ea bc
       0.34431067 -0.02018956 0.013671761 -0.028674088
0001a0 6a a6 5b bd 0e d5 80 3d ba 55 83 bd ad f3 0f be
       -0.0536255 0.06290637 -0.064128354 -0.14057799
0001b0 af 3e bf bc 58 ee b7 b9 2a c7 98 bd 60 aa 87 3d
       -0.02334532 -0.0003508206 -0.074598625 0.06624293
0001c0 5f 47 22 3b a1 d2 b5 3d cf 7a 5b 3d e8 b9 18 bd
       0.0024761779 0.08878065 0.053583916 -0.03728667
0001d0 43 62 23 bd 72 a8 15 3d b0 57 13 3d 02 7f a9 ba
       -0.03988863 0.036537595 0.035972297 -0.0012931528
0001e0 37 fe 8a 3d 7d 57 8b 3d 98 73 20 be 63 08 a8 3d
       0.06786769 0.068037964 -0.15669096 0.08204725
0001f0 fb 5b fc bd e4 eb 50 be f8 3f bd bd 7a f4 2d be
       -0.123222314 -0.20402485 -0.09240717 -0.16987792
000200 18 d5 cf bd e8 45 7e be d1 75 d3 bd 55 9a 41 3c
       -0.10148066 -0.24831355 -0.10325206 0.011816581
000210 8f 34 36 be 7a 08 81 bd a9 8a 07 3e 52 fe 97 bd
       -0.17793487 -0.06300445 0.13236488 -0.074215546
000220 e5 7c f0 bc 1a 19 7b bd f2 c9 ad 3a 66 78 cf 3d
       -0.02935643 -0.061303236 0.0013259037 0.10130386
000230 25 93 af 3d 96 d8 70 3d 4b 37 a0 3d 7d 3e 9c bd
       0.085729875 0.058800302 0.07823046 -0.07629106
000240 29 21 01 be 58 c2 55 be c1 96 3c 3d 73 87 c9 bd
       -0.12610306 -0.20874918 0.046042208 -0.09840288
000250 71 a8 55 be 06 ad 6c be ec c8 8a be dd a7 6f be
       -0.20865037 -0.23112878 -0.27106416 -0.23403879
000260 72 60 02 bd 19 55 63 3c 3b 1e c5 3c ea 0f a3 be
       -0.03183026 0.013875269 0.024062267 -0.3184808
000270 15 f5 d1 3c 47 4c 85 be 4c c0 a0 bd 89 82 3b be
       0.02562956 -0.26034757 -0.07849178 -0.18311514
000280 dd 9c 18 be bf 71 4e ba ba 1d 92 be 4b 18 81 be
       -0.14903589 -0.0007875226 -0.28538305 -0.25213847
000290 40 b8 36 bd 7d c0 d6 bd 40 f1 24 be c8 fb 82 3c
       -0.04460931 -0.10485933 -0.16107655 0.0159892
0002a0 0f d5 81 be 2f a8 a5 bd b3 38 04 3e 65 fd 04 be
       -0.25357863 -0.08088719 0.12912254 -0.12987287
0002b0 50 f5 ea 3d a2 f2 91 3c 7d 0b 8a be e0 0f 47 3d
       0.11472571 0.017815892 -0.2696189 0.048599124
0002c0 6d f5 a4 bd e3 d8 35 be 3a c5 8e 3d f1 91 87 be
       -0.08054624 -0.17758517 0.06971212 -0.26478532
0002d0 f4 e4 b7 3d a3 9b 60 be 68 4a 33 3e 3b d1 76 3a
       0.08979216 -0.2193437 0.17508852 0.0009415333
0002e0 81 55 5f bd 22 32 af 3d 6e e3 7c bd 7c 8e 5c bd
       -0.054524902 0.08554484 -0.06174033 -0.05384682
0002f0 78 05 07 be c9 76 8e 3d ea 33 e9 3d 93 d3 85 3d
       -0.1318568 0.0695625 0.11386855 0.06534495
000300 f8 58 d7 bc da d1 7d bc 58 22 eb bd 77 87 8c bd
       -0.02628754 -0.015491927 -0.1148116 -0.06861775
000310 ed 48 11 be 06 cd 1d 3d e5 1c 3f bd 62 21 73 bc
       -0.14187975 0.038525604 -0.046658415 -0.014839502
000320 33 0e 70 3c d1 92 ce 3e e7 41 28 be 4e 89 a1 bd
       0.014651823 0.40346387 -0.1643139 -0.07887517
000330 1d 91 4c 3d 79 b4 c9 3e 5b cf ec bc 86 94 24 3e
       0.04994308 0.39395502 -0.028907469 0.16072282
000340 89 7a 35 3d e0 dc ef 3c b6 e0 57 3d d8 0a 9e 3b
       0.04430631 0.029280126 0.052704535 0.00482307
000350 93 fb b8 bc 92 da df bb 5a ba 5c bc da d8 d1 3c
       -0.022580897 -0.0068314755 -0.013472164 0.025616098
000360 03 3b f9 bd 91 ae 41 bd 17 bd 97 3d f4 2e b5 bd
       -0.12169459 -0.04728562 0.07409113 -0.08846846
000370 f9 51 5a bd 3c 17 9a 3d 96 cc 02 ba de c6 bc bd
       -0.05330083 0.07523963 -0.0004989592 -0.092176184
000380 85 f4 4c be 9c d0 13 3d 20 d0 7e be 61 3d 49 be
       -0.20015152 0.036087617 -0.24884081 -0.1965232
000390 38 52 41 be f9 25 12 be 73 1e db bd be 30 3b 3d
       -0.1887902 -0.14272298 -0.10699167 0.04570078
0003a0 20 65 cd 3d 27 60 9a 3d 9c a9 cc 3c 21 a7 7c be
       0.10029054 0.07537871 0.02498322 -0.2467313
0003b0 e0 1b c6 bc ab d2 8d be e7 1e 46 be ac 6b a0 bd
       -0.024183214 -0.2769979 -0.19347726 -0.07833037
0003c0 e8 14 46 be 16 68 3b 3e f2 24 6f be be 06 ab 3d
       -0.19343913 0.18301424 -0.23353937 0.08350895
0003d0 59 26 24 3e e0 83 8f be 29 e4 21 3e cd 5e 4f be
       0.16030253 -0.280303 0.15809692 -0.20251007
0003e0 f7 77 e9 bd 14 7d 8d bd 8b 01 4e bd f7 4d ce 3d
       -0.113998346 -0.069086224 -0.05029444 0.10073464
0003f0 d1 25 ec 3d 71 46 e6 bd 2b 6c 77 be 96 83 0b be
       0.115306504 -0.112439044 -0.24162357 -0.13624415

g.0.bias f4 [100]
000000 8a c0 d1 3e ca 81 8e 3e b7 69 18 3d 46 c7 ed bb
       0.40967208 0.27833396 0.037210193 -0.0072564213
000010 fd 7a c9 3e 6e 6b 83 be 2b b6 cf bd 88 ac 1c bd
       0.39351645 -0.256679 -0.10142168 -0.038250476
000020 0b 52 5c be 18 e7 53 3e c9 55 46 be f2 cb 28 bd
       -0.21515672 0.20693624 -0.19368662 -0.041210122
000030 ab d3 d6 be 93 45 80 3e b4 10 17 3e b4 c9 48 3e
       -0.41958365 0.2505308 0.14752465 0.19608194
000040 e5 8e 52 3d 13 c8 42 3e 4a a0 7b bc 79 bf ff bb
       0.051405806 0.19021635 -0.01535804 -0.0078048077
000050 16 56 e8 be 0f dc 70 be 6b f4 7b 3d 12 52 09 be
       -0.45378178 -0.23521446 0.061512392 -0.13410214
000060 4a 9d ed bd f6 2e 97 3d 55 55 7f 3e b4 62 60 be
       -0.11602266 0.07382004 0.24934895 -0.21912652
000070 b0 9e 22 be a4 ad 46 3e 4f e5 e5 3c 09 6f b6 3e
       -0.15880847 0.19402176 0.028063444 0.35631588
000080 01 78 15 be 56 b0 12 be 69 28 21 be 8a 9b c2 3e
       -0.14596559 -0.1432508 -0.15738072 0.38009292
000090 1b 7a 5f 3d 82 46 25 bc 27 34 b1 3e 9e fc ed bd
       0.05455981 -0.010087611 0.34610102 -0.116204485
0000a0 ff b9 ec bd 53 01 2d be 34 da f6 3e 01 fe e7 3e
       -0.115589134 -0.16895036 0.4821335 0.45310977
0000b0 65 fa 30 3e e3 0d 03 3e 26 cf 82 3e e8 5b ba be
       0.17283018 0.12798266 0.25548667 -0.36398244
0000c0 7a 1d a6 be 4d 25 86 3c a3 d2 71 be 13 bd 82 3e
       -0.32444364 0.016375208 -0.23615508 0.25534877
0000d0 b9 74 3b 3e b3 bf 0f be d7 55 52 be f3 05 0b bb
       0.18306245 -0.14037971 -0.20540558 -0.0021213263
0000e0 ea a2 4e 3d 24 66 cd 3e f5 f7 dc bd 09 b5 d9 3d
       0.050448336 0.4011699 -0.107894816 0.10630233
0000f0 bb 0e f3 bc fe b7 50 3e 01 0f c6 3d c2 06 61 3e
       -0.02967011 0.20382687 0.096708305 0.21975234
000100 3e 26 8d 3e 83 d5 36 3e 4a f6 04 bf f2 2d ed 3c
       0.2756824 0.17854886 -0.5193831 0.028952572
000110 c9 85 64 be 8b 3c 0a 3e 27 d4 09 3e 16 d3 4d 3d
       -0.2231666 0.13499658 0.13459836 0.050250135
000120 7d 5f 27 3d e1 15 68 3e 84 43 a9 3c cb 84 19 be
       0.04086255 0.22664596 0.020662077 -0.14992063
000130 65 ec f2 bd 94 77 89 be ed 2c d9 bd 43 48 1d 3d
       -0.11861495 -0.26849043 -0.10604272 0.038398992
000140 56 b3 58 bd b5 16 2a bd 7b ac 9b be 15 ad 8b 3e
       -0.052905403 -0.04152556 -0.3040503 0.2728049
000150 73 2a 9f 3e 61 fc 86 be 61 4e 28 3c 4e b0 d1 3e
       0.31087074 -0.26364425 0.010272593 0.40954822
000160 36 50 2f 3e dd 30 d4 bd 26 84 8a bd ac 0b d7 bd
       0.17120442 -0.103608824 -0.067634866 -0.10500273
000170 2b 09 91 3e c3 5e 5e be df 1d 31 be 82 fc 85 be
       0.28327307 -0.21715836 -0.17296551 -0.2616921
000180 95 5b 0a be 3e 86 1a 3e fb 20 83 be 2b 61 b8 3d
       -0.13511498 0.15090272 -0.256111 0.09002908

g.2.weight f4 [100, 100]
000000 b2 e8 02 be 9d fa 32 3c 27 3b 08 bd 13 7c 46 bd
       -0.12784079 0.010924009 -0.033259537 -0.04845817
000010 89 c3 07 3d 87 47 b8 3d 75 af 5f bc 67 27 e7 bc
       0.03314546 0.08998018 -0.013652672 -0.02821703
000020 5e 2b 69 3d 90 99 5e 3d 06 a1 88 3c 6a 0f 1a bd
       0.056926124 0.054345667 0.016678344 -0.037612356
000030 dd 68 d4 bb e9 40 2e 3d 32 02 e3 3d c6 33 58 bd
       -0.0064822272 0.042542372 0.11084403 -0.05278375
000040 6d 6e 63 bd 81 f4 93 bc 9b f8 b6 3d ee bd 50 3c
       -0.055525232 -0.018060924 0.089341365 0.012740595
000050 a0 9b 2e 3d ce 25 00 3d 14 2e 13 bd de 3c c4 bc
       0.042628884 0.031286053 -0.035932615 -0.023954805
000060 da d4 54 bd 71 4f 20 bd ee 9d a4 3d 50 fd 3b 3d
       -0.051960804 -0.03913826 0.08037935 0.045895875
000070 67 7a 8d 3d e0 87 d8 bd c8 25 31 bc f8 1d f0 bc
       0.06908112 -0.10572791 -0.01081223 -0.029311165
000080 86 b2 7b bd ef f3 8f 3c d0 1d f9 bc 0d 81 13 3d
       -0.06144955 0.017572371 -0.030409724 0.036011744
000090 e5 9c a0 3d 37 52 96 bd 82 e0 ae 3d 52 4f f5 3c
       0.07842425 -0.073399 0.08538915 0.02994505
0000a0 2c 76 0e bc 16 d7 16 3e ee e4 e3 bd fd e6 f3 bd
       -0.008695167 0.14730486 -0.11127649 -0.11909292
0000b0 69 8f e2 bc ea 77 be bc a7 e6 18 3c bf c9 3f bd
       -0.027656274 -0.023250539 0.009332336 -0.04682326
0000c0 d5 89 b1 bd 2d 5b 96 bc 63 b1 98 3d d5 94 60 3d
       -0.086688675 -0.018354023 0.07455709 0.054829437
0000d0 aa 48 b8 3d 7f 89 5a bc 01 36 a1 3d f0 5f 4a bd
       0.089982346 -0.013338446 0.078716286 -0.0494079
0000e0 49 90 b8 3c 46 1a cd bd 7b 86 76 bd dc b1 a6 bc
       0.022529738 -0.10014777 -0.060186844 -0.020348482
0000f0 32 0f 8d 3d 2e 70 51 3c 5d d2 0e bd 7c 78 32 3d
       0.06887664 0.012783093 -0.034868587 0.043571934
000100 5e 37 cb bd 1c 59 82 bd 38 ed ec 3c bc 0a 0c bb
       -0.0992267 -0.063646525 0.028921708 -0.0021368703
000110 f5 dd 5e bc 34 f6 9e 3d 6a fb 3e bd b3 4c 86 bd
       -0.013602723 0.07761803 -0.046626486 -0.06557598
000120 a8 89 bd 3d 08 0c e5 3c 1b a8 f8 bc f5 7c c5 3d
       0.092547715 0.027959839 -0.030353596 0.09642974
000130 02 f9 ba 3d 91 17 12 3b c1 44 73 bd 75 e5 8e bc
       0.09129526 0.0022291879 -0.05939174 -0.017443398
000140 f4 cf 3a bc d3 00 46 3b 51 16 dc 3c 4c 64 92 bd
       -0.011402119 0.0030212894 0.02686611 -0.07148036
000150 04 33 9a bd 6a 50 9c 3d 92 ef f6 3c 0a a7 e8 bc
       -0.07529262 0.07632525 0.030143533 -0.028399963
000160 6a b3 1e 3c a2 7a 28 bc 85 5e 0d bd 7c 8f 8e 3d
       0.00968633 -0.010283144 -0.03451397 0.06960961
000170 6f c9 23 bc 08 f2 64 bc e2 33 9b 3c 9f cc af 3c
       -0.009996756 -0.01397372 0.018945638 0.021459876
000180 f7 0a f0 bc 12 2f 97 bd 5a b2 e5 bc bb d5 f6 bd
       -0.029302103 -0.07382025 -0.028039146 -0.120524846
000190 3e ae 32 3d df d6 03 be b9 cd c5 3d 98 f0 02 3e
       0.0436232 -0.12874936 0.09658379 0.12787092
0001a0 c6 a3 37 be 1a ac 19 3b dd 08 81 be c8 2f 18 3b
       -0.17933568 0.0023448528 -0.25202075 0.002322184
0001b0 77 dc 06 be 58 e3 8f bd c4 a6 49 bd 12 b3 ab bd
       -0.13170038 -0.07025784 -0.049231306 -0.08383764
0001c0 c6 7b a9 3c a2 3a d9 bd c8 6b 23 3e 97 8b 14 3d
       0.020688903 -0.106068864 0.15959084 0.036265936
0001d0 8f 07 fd 3d 44 5c 64 3d 77 54 e4 bd da 92 e4 3a
       0.12354957 0.055752054 -0.11148923 0.0017438785
0001e0 bb 78 5f 3e b9 b2 e9 bd f6 ee b6 3d 56 f6 13 bd
       0.21823399 -0.11411042 0.08932297 -0.036123596
0001f0 0d 6c 31 3e 90 95 e5 bd f4 8e 0b bd 89 cc 10 be
       0.17326374 -0.112101674 -0.034071878 -0.14140524
000200 82 c3 9d 3d 8b 33 d7 3c 8b a9 71 bc a9 49 05 be
       0.07703306 0.026269695 -0.014749895 -0.1301638
000210 71 ae 69 bc ef 86 1b 3d 64 b9 96 bd 2e 34 2e 3e
       -0.0142627815 0.03797048 -0.07359579 0.17012092
000220 e4 dd 2d 3e cf 5d eb 3c 3a 3e 66 3d 6f 15 1e bd
       0.16979176 0.028731255 0.056211688 -0.03859466
000230 ff da 37 3d d4 07 7c 3c 94 a9 ae bd f5 01 1b be
       0.044886585 0.015382726 -0.08528438 -0.15137465
000240 b1 6d 1e 3d 6a 27 a0 3d 62 12 f4 3c db fc 47 3d
       0.03867883 0.07820018 0.029793922 0.048825126
000250 29 80 d1 3c e4 4c 58 be 83 bc 86 ba 97 34 81 3d
       0.025573807 -0.21123081 -0.001027957 0.06308859
000260 b3 cb 1c 3d d4 ab 0e 3e d8 55 3d 3d 79 4b 08 bd
       0.0382802 0.13932735 0.046224445 -0.0332751
000270 82 ec af bc 3f 03 aa bd 28 72 b3 bc 0a ca 8e 3d
       -0.02147508 -0.083014004 -0.02190502 0.0697213
000280 1c 32 69 bd e8 1a dd 39 6f 8c 2e 3c c9 7b af 3d
       -0.056932554 0.00042172452 0.010653599 0.08568532
000290 49 9f 28 bd e2 dd 59 be 2d bf 9e bd bf 09 31 3e
       -0.04116753 -0.21276048 -0.07751308 0.17288874
0002a0 79 3d 5a 3d 8e 3d 31 bd 2e ea 36 3e 38 92 94 bc
       0.05328128 -0.043271594 0.1786277 -0.018136129
0002b0 0a 37 16 bd 80 99 67 bd e1 a2 b0 3d 54 bd 53 bb
       -0.036673583 -0.056542873 0.08624817 -0.0032308893
0002c0 2d 6e 85 bc 26 41 9d bd 04 fc f0 bc 96 99 08 3d
       -0.016287887 -0.07678442 -0.029417045 0.033349596
0002d0 90 71 cf bd be e8 55 3d 9a d7 6f bd 03 3f 65 3d
       -0.10129082 0.052223913 -0.058555223 0.055968296
0002e0 95 c7 d6 3c a1 88 b7 bc d3 f7 d9 bc 4d 05 0c bd
       0.026218215 -0.022404017 -0.02660743 -0.034184743
0002f0 c7 1b b4 bd 34 7f 8c bd b0 70 07 3d 1d a1 9b bd
       -0.087943606 -0.068601996 0.03306645 -0.07599089
000300 64 90 06 3e 1d 8d 79 3d 8b cf 24 be d8 93 24 3d
       0.13141018 0.06092559 -0.16094796 0.040180057
000310 8f 61 12 3d 8b 37 f4 3d 70 8b 7f 3b 73 e6 fd bc
       0.03573757 0.119246565 0.0038993023 -0.030993676
000320 16 4d e3 3b ef f7 54 bd f1 78 19 bc 4e 07 a2 3d
       0.0069366796 -0.05199426 -0.009367214 0.079115495
000330 b4 72 b8 bd 24 aa cc bd e2 40 94 3d a6 96 c1 bd
       -0.09006253 -0.09993389 0.07238938 -0.09452562
000340 76 59 88 3d d5 02 57 3d 02 d8 18 3d 43 d0 d7 3d
       0.06657688 0.052492935 0.037315376 0.1053777
000350 44 92 d4 bd 94 d8 c0 3d 10 77 14 bd b8 ae 14 bd
       -0.103794605 0.09416309 -0.03624636 -0.036299437
000360 69 4f da 3c fa 83 06 bd d4 aa f2 bc fd 1f 17 bb
       0.026649194 -0.032840706 -0.029622473 -0.0023059838
000370 44 8b 37 bd 4e aa 99 3d 2f 94 b3 3d fa 77 86 bc
       -0.04481055 0.07503186 0.08768498 -0.016414631
000380 cc 46 30 bc 05 60 b7 3d cc ea b0 3c 13 b3 6d 3d
       -0.010759067 0.08953861 0.021596335 0.058032107
000390 9f 6c a0 3c ee ab 41 3d 8b bc f8 3b 5a 2c 0e 3b
       0.019583045 0.047283106 0.0075908354 0.0021693916
0003a0 56 05 76 bd 47 3b 8d bd 90 02 8e bc a2 a5 ea 3c
       -0.060063682 -0.06896072 -0.017335206 0.028643433
0003b0 64 03 22 bd 08 d7 f0 3d a0 2d 10 3c a5 9d 97 bd
       -0.039554015 0.11759764 0.00879994 -0.07403115
0003c0 6d 09 33 bd aa 3e 04 be 2d 23 e3 3c 8e 1b 0d 3e
       -0.04371016 -0.1291453 0.027726734 0.13780043
0003d0 9b 4a 8d 3c 15 c2 b4 3d a1 69 32 3d e3 75 47 bd
       0.017247489 0.08826081 0.043557767 -0.04869641
0003e0 ff fe 6f 3d 42 f3 4f bd c2 7d 85 bc f3 af 07 3d
       0.058592793 -0.050769098 -0.016295318 0.033126783
0003f0 27 dd bd 3c df 0d c1 bd c1 d4 0c bd 86 e7 80 bd
       0.023176743 -0.09426474 -0.034382585 -0.062941596

g.2.bias f4 [100]
000000 5c ba 88 3d 39 fd 2f 3d 8c ff a6 bc ec a1 84 3d
       0.0667617 0.0429661 -0.020385526 0.06476197
000010 a2 1e 47 3d 1c ec f7 bc 09 28 ff 3c d7 47 02 be
       0.048613198 -0.030263953 0.03114702 -0.12722717
000020 7a fb 9f 3a 65 c2 ae bc 43 64 d2 bd eb 8c 01 3e
       0.0012205683 -0.021332929 -0.1027303 0.12651412
000030 4e 56 8d 3d 3c 47 3e 3d 8d 24 25 bd 60 d7 d2 bc
       0.06901227 0.046454653 -0.04031806 -0.025737464
000040 31 2f 68 bd 4b 0a 6b 3d 84 67 8c 3d cf e7 0c 3e
       -0.05668563 0.057382863 0.068556815 0.13760303
000050 e8 31 ba 3d f8 2c 58 3d c2 9e 9e bc f0 89 1c 3c
       0.0909155 0.05277726 -0.019362811 0.009554371
000060 db df 43 bd cd 15 3d 3c 1e ef c5 3d 70 2e 89 bd
       -0.047820907 0.011540842 0.096647486 -0.066983104
000070 b1 fe 73 3d 83 91 9a bd 36 98 9e 3c a7 e7 0c 3e
       0.059569065 -0.075472854 0.01935969 0.13760243
000080 c4 7f 8d 3d 0c bc a4 3d 54 08 30 bd fa b8 0c 3e
       0.06909135 0.080436796 -0.042976692 0.13742438
000090 6e f8 c5 bd 45 45 7d 3d d9 ce 99 3d 7b bc 85 3d
       -0.09666525 0.06183364 0.07510156 0.065300904
0000a0 f1 d9 4b 3d 6a 0f 73 3c 25 3c c7 bd 83 92 db bd
       0.049768392 0.014835218 -0.097282685 -0.10721304
0000b0 94 f6 1b 3d 63 d1 ab bd e8 a0 04 bd f9 5e 05 be
       0.038076952 -0.08389547 -0.032380015 -0.1302451
0000c0 8c 1e 8e 3d 21 fb 34 bc 94 25 9c 3d 31 ab 9a 3c
       0.0693942 -0.011046202 0.07624355 0.018880459
0000d0 a1 8b 04 be f8 85 10 3d 1a d5 fa bd d2 bd b8 3d
       -0.12943889 0.035284013 -0.12247677 0.0902058
0000e0 da c4 06 3e 01 b3 12 3c 59 e6 fa 3c 7c a1 1b 3d
       0.1316103 0.008953811 0.030627416 0.0379958
0000f0 65 d3 a3 bc ed 94 64 bc 53 d4 d4 3b fb 89 7b 3d
       -0.019998262 -0.013951522 0.0064950376 0.061410885
000100 da 81 4b 3d 26 1e a7 3d 2b 30 50 bd e7 ab 56 bd
       0.049684383 0.08160047 -0.050827187 -0.052410033
000110 70 b6 e6 bd b6 fc b5 3d 07 fe 74 bd 7b 60 7d 3d
       -0.11265266 0.088860914 -0.05981257 0.06185959
000120 9e 18 34 bc a4 dc c2 bd 6c 60 53 bd 4e b7 68 3d
       -0.010992197 -0.0951474 -0.051605627 0.056815438
000130 49 ee 55 3d 58 c7 cc bd 8a 86 c2 bd b7 d9 64 3d
       0.0522292 -0.09998959 -0.094983175 0.05587169
000140 95 26 3f 3d 89 7e 78 bd 6e 2b 7f bc fc c7 ba 3d
       0.046667654 -0.06066755 -0.015574319 0.09120175
000150 31 bb 4c 3c d8 11 f7 bc 34 20 e2 3d 96 33 b2 bd
       0.012495802 -0.030159876 0.110412985 -0.087012455
000160 34 dc 01 be 58 92 61 3e 1a 1a de 3c a2 38 0e 3d
       -0.12681657 0.22028482 0.027112056 0.034721978
000170 5f 3b 52 bd 36 ef b1 bd 2b 05 a3 bb dd 00 cc 3d
       -0.051326152 -0.08688204 -0.0049749813 0.09961102
000180 d1 33 44 3d 79 90 48 bc 36 72 15 3c 52 bf ed 3d
       0.04790098 -0.012241476 0.009121468 0.11608757

g.4.weight f4 [1, 100]
000000 b3 5d 69 3b 80 f5 10 3d 70 a3 3a bc 2e 65 4f 3b
       0.0035608828 0.035390377 -0.011391506 0.0031646
000010 16 46 64 3c b6 94 42 3d 12 1a 67 bc 0e f0 92 3d
       0.013932725 0.047505103 -0.014105337 0.07174693
000020 4d 9e 8d bc 69 85 31 bc 36 75 06 bc 69 e4 8b 3d
       -0.017287398 -0.01083503 -0.008206656 0.06830675
000030 19 fb c3 3c 42 cd f3 3c a1 05 63 3c d4 fe 4c bc
       0.023923444 0.02976096 0.0138563225 -0.012511928
000040 64 00 76 3b 14 31 41 3c e7 ec 0e 3d 23 fb 90 3d
       0.0037536854 0.011791486 0.034893896 0.070791505
000050 8a f7 7e bd 15 41 70 bc 00 24 b2 bc e1 6e e2 3c
       -0.06224779 -0.014663954 -0.021745682 0.027640762
000060 08 85 0f 3c a7 6c e3 3c 56 ef fb bc 13 34 49 bc
       0.008759744 0.02776177 -0.030753773 -0.012280482
000070 69 8e d7 bd 67 f2 e2 bc 3b 44 ae 3d dd 30 bc 3d
       -0.105252095 -0.027703477 0.08509108 0.091890074
000080 68 ac 72 3c fc 78 1b 3c c6 94 3d 3d eb 3e 5d 3d
       0.014811613 0.009489294 0.04628446 0.05401508
000090 6f 93 d6 3b 8a 92 82 3d 3c e0 d6 3b 35 25 28 bd
       0.006548337 0.06375606 0.0065574925 -0.04105111
0000a0 5c f4 e5 bb 34 22 21 3d fb 58 45 3d 45 ba 84 bd
       -0.0070176553 0.03933926 0.04818056 -0.064808406
0000b0 95 0e 0c 3d 2b 3d 54 3d f9 c6 cc 3c 6f 56 79 bd
       0.034193594 0.051816147 0.024997221 -0.060873445
0000c0 44 b1 42 bb 68 35 a4 3c 09 18 15 3d e3 19 ad 3b
       -0.002970771 0.020044997 0.036399875 0.005282627
0000d0 e1 ef 50 bd af 13 72 bc 69 ea 5c bd 02 b1 6b 3d
       -0.051010016 -0.014775201 -0.05393449 0.057541855
0000e0 72 e2 1b 3d 40 f4 86 3c ba 36 ea bc ba 33 21 3c
       0.038057752 0.01647389 -0.028590549 0.009838993
0000f0 ba 10 a8 3a 13 da ef 3c de d1 09 3d 77 c6 09 3c
       0.0012822368 0.02927879 0.03364741 0.008409134
000100 9c 4d 8d bb 10 d6 7c bb 99 a2 f5 3c 33 76 e8 3c
       -0.0043122303 -0.003857974 0.02998476 0.028376674
000110 eb f0 8b 3d c0 27 40 bc 38 09 72 bc c9 95 f0 bb
       0.06833061 -0.011728227 -0.014772706 -0.0073420745
000120 ff fb 4d 3c 45 10 bb 3c 73 e4 c3 3c 1e 90 07 3d
       0.012572288 0.022834906 0.023912644 0.033096425
000130 c5 b6 42 bc 00 7f 50 3c 3c d3 97 bb 54 af 22 bb
       -0.011884396 0.012725592 -0.0046333354 -0.0024823742
000140 ec bf bc 3d 25 06 35 bd cb 4e 9d 3d 03 e5 92 bd
       0.09216294 -0.044195313 0.07681044 -0.07172587
000150 7d 45 b8 bd 2b 27 fd 3b b8 60 25 3c fb 7b 52 3c
       -0.08997629 0.0077256165 0.01009386 0.012846942
000160 7f 7e 00 bd 62 8d b7 bc a3 dc 5a bd 11 81 e1 bc
       -0.031370636 -0.022406284 -0.05343307 -0.027527364
000170 bf de 0f 3c 6e a6 83 3b fe 04 14 bc c4 5e 2f 3d
       0.008781134 0.0040176427 -0.009034393 0.042814985
000180 91 af 86 3d 0f 21 8d bb 90 d7 c1 bc fa d7 d3 bb
       0.065764554 -0.0043069194 -0.023662359 -0.0064649554
