models/german_ERM_mlp_s3.pth (torch, 51557 bytes, 5 tensors)

g.0.weight f4 [100, 20]
00000000: 4054 94be 1216 65bc 733c 35be 09f2 c3be
00000010: fb47 913e b827 23be 8d2a 143e 2654 133e
00000020: 2d1c 6abd 8db6 e03d 08ad a1bc e48a ef3d
00000030: d001 dbbd 8aaf fdbd b9a2 8abe 90e7 813d
00000040: b509 31be 98ad 803e bfe2 923d 4473 493e
00000050: 3acc 1b3e f2d9 c6bd 3a40 a63e ab78 84be
00000060: e450 94be 09e9 adbd 3cce 0cbc d6e0 283e
00000070: 5e47 8abd b225 c33b 3000 8e3c 3fd4 943e
00000080: bfd7 9bbe 76a0 12be 8a6d 03be 7857 8cbd
00000090: 985b a2bb 0de7 07be 455b 80bd 523f 873d
000000a0: 7d37 66bd bd34 8e3e 0ee6 f7bd e7be 3ebe
000000b0: ff96 263e 80c5 cebd cd64 d0be bc99 38be
000000c0: 01e5 f2bd a690 f63e ab49 1b3e c26c f4bd
000000d0: acb2 f03e 05d8 493e 9142 333e 4f90 52bd
000000e0: 1140 dcbd 443e 203e aee1 85bd 6c61 2bbe
000000f0: fbe4 9d3d 6345 293e fdad 89be 7e15 20be
00000100: 504d 51be f6af 9bbe 3129 50bd c265 23be
00000110: 6cec da3d 98fc cc3d 7a99 7dbc da60 363e
00000120: 0cf7 c1be 26ad abba bf6a fc3d 5472 97bb
00000130: 5ca0 833c 94b9 353e ab93 debb e597 e03d
00000140: 18f9 59be 9acb 43be cc50 73be ecd2 913d
00000150: 9314 ab3e d9a8 00be e836 353e 6057 5cbe
00000160: 2400 26be cfdc 123c a800 823d 27d0 a33d
00000170: e0e0 23be 1276 823e 2cdb 653d a9f6 4f3e
00000180: 663f e9bd 07ed 5f3e 935b e8bb 4931 b6bc
00000190: 34df 313d 3e90 f2bc 9346 4f3d 51f9 abbd
000001a0: f2c8 84bd 5047 c2bd d302 ffbd 75a7 d5bd
000001b0: 2977 e63d a13b 6dbe 0af5 de3d 8f92 9c3d
000001c0: 0a21 bc3d c0ab 44be 2766 19be c1d7 56be
000001d0: 4ec5 403e e56d 223e 6d03 dcbc 7da3 443e
000001e0: 0b10 8ebc 4fa4 ee3d 2d2a 9cbe 04a3 1bbe
000001f0: 443e 643d bf85 eebd a304 033e d9c5 c83c
00000200: ee25 bcbd f34f e13d 2508 a33e 6c3f b0bc
00000210: 86c1 94bd 68c6 b6bd f3c9 12be 2869 e03d
00000220: 526a 003e 56d6 743e 5865 69be 026b 8c3d
00000230: 0bfb 95be 14ba 563e a561 47bc 740d 083e
00000240: 1e7a 49bd f2a1 d9bd 2be8 cdbc 7440 73be
00000250: 13f0 f13d 2e8f f53d 1889 35be c814 3b3e
00000260: 3a0b 503d 163e 803e 8f54 7b3e 6cb6 71be
00000270: 7819 423e c857 65bd 541d d43c bf39 b2bd
00000280: 9865 47be 9471 b63e cd92 fd3b 531e 9e3e
00000290: f77f 16bf d622 82be d44f d83c 4807 9e3c
000002a0: 9e69 2cbc 2805 40be b8dd 9bbd 0cf0 c5bc
000002b0: 395a 5ebe 3cb1 813d e5a9 2fbc dd76 533e
000002c0: 7e6a 14be 27ca 243e c264 b03c 40ee 66bd
000002d0: 2be0 723e b8b9 0f3e 9ea5 803e 884e c63e
000002e0: 700b 873e e19d 16bd 60f9 24bd 7a28 9eba
000002f0: 1a1f 4dbe 75cf 4bbc 31bf da3d 13fa 70be
00000300: bd49 9abe c23b b6bc 0f46 a83d fb05 52bd
00000310: 9444 0c3c cf79 30bc ce0b fcbd 0898 013e
00000320: d8ba 06be f1de 883e fcd4 5d3e e659 cd3e
00000330: 612d 5b3f ef7c d1bd ee24 4e3e 4e54 d5bd
00000340: ecc8 863e 8474 6cbc 90ca bbbd 33ed 2bbe
00000350: 0873 823e 8dbf 043e 2c67 8dbd 20f8 5fbe
00000360: 253f ca3d d5fc ae3a 823f 723e ce4c ce3d
00000370: 0fa1 27be 10a7 8eba 15fd 5bbd 5115 9a3e
00000380: 236e 1e3d a82b 98bd 34e0 15be c4b3 f93d
00000390: 02fa 8b3d 34c8 e2be b4bd b7bd a731 363e
000003a0: 235f ca3e 2d3c 3e3e b7bb 0e3d 71f1 7d3e
000003b0: 0811 85be b525 48bd 1f0b 77bd 8ace 3c3e
000003c0: ec7d 43bd 277e d9bb dcaf aebe f56c 9abd
000003d0: 5c8f e03b e723 303e 8bdb 1bbd bae6 5e3e
000003e0: ad0e f8bd 691d 0bbe 0340 813e 8a72 093e
000003f0: 69d2 023f ed89 89be c8d2 dabd ad0f 01be
-0.28970528 -0.013982313 -0.17698841 -0.38270596 0.2837523 -0.1593312 0.14469357 0.14387569
-0.057155777 0.10972319 -0.019735828 0.11696413 -0.10693705 -0.12386997 -0.27077273 0.06342995
-0.17288859 0.25132442 0.07172155 0.19672877 0.15214625 -0.097095385 0.32470876 -0.25873312
-0.28967965 -0.084917136 -0.008594092 0.16492018 -0.067518935 0.0059554214 0.017334074 0.2906818
-0.3043804 -0.14319023 -0.12834755 -0.06852621 -0.0049547665 -0.13271733 -0.06267408 0.06603874
-0.05620526 0.2777461 -0.12104426 -0.18627511 0.16268538 -0.10096264 -0.40701905 -0.18027395
-0.11860085 0.48157233 0.15164821 -0.119348064 0.47011316 0.19711311 0.17505862 -0.051407155
-0.10754407 0.15648752 -0.065371856 -0.16736382 0.0770969 0.16530375 -0.26890555 -0.15633199
-0.20439649 -0.30407685 -0.050820533 -0.15956786 0.10689625 0.10009116 -0.015478486 0.17810383
-0.37883794 -0.0013097867 0.12325048 -0.0046217833 0.016067676 0.17746574 -0.0067925057 0.109664716
-0.21286428 -0.19120637 -0.2376129 0.07120308 0.33414134 -0.1256441 0.17696726 -0.21517706
-0.16210991 0.008963778 0.063477814 0.07998686 -0.16003752 0.25480705 0.05611722 0.20308937
-0.113890454 0.21867763 -0.0070909946 -0.022240298 0.043425754 -0.029609796 0.050604414 -0.08397163
-0.0648364 -0.09486258 -0.124517106 -0.104323305 0.11253197 -0.23167278 0.10886581 0.07645141
0.09185989 -0.19206142 -0.14980374 -0.20980741 0.18825266 0.15862234 -0.026857102 0.19202991
-0.017341634 0.11652433 -0.30500928 -0.15198904 0.055723444 -0.11646604 0.12794738 0.024508404
-0.09186922 0.11001577 0.3184215 -0.021514617 -0.07263474 -0.08924562 -0.1433485 0.10957557
0.12540558 0.23909888 -0.22792566 0.068563476 -0.29293093 0.2096942 -0.012169276 0.13286382
-0.049188726 -0.10626592 -0.02513512 -0.23755056 0.11813369 0.119902 -0.17728078 0.18269646
0.050791956 0.25047368 0.24543975 -0.23604745 0.18955028 -0.055991918 0.025892891 -0.087024204
-0.19472349 0.35633528 0.0077384473 0.3088251 -0.5878901 -0.25417203 0.026405253 0.019290581
-0.010523228 -0.18751967 -0.07610649 -0.024162315 -0.21714105 0.06332633 -0.010721658 0.20650811
-0.14493749 0.1609274 0.02153242 -0.056379557 0.23718326 0.1403569 0.25126356 0.3873179
0.26375914 -0.03677166 -0.040276885 -0.0012066506 -0.20031396 -0.012439598 0.10680998 -0.23532896
-0.30134383 -0.022245292 0.082164876 -0.051275235 0.008561272 -0.010771229 -0.12306939 0.12655652
-0.13157213 0.2673259 0.21663278 0.4010765 0.8561612 -0.10228907 0.20131275 -0.104164705
0.26325166 -0.014432076 -0.09169495 -0.16789703 0.25478387 0.12963696 -0.06904444 -0.21871996
0.09875325 0.0013350496 0.23657039 0.10073243 -0.16370033 -0.0010883529 -0.053708155 0.30094388
0.038679253 -0.07430202 -0.14636308 0.12192491 0.068347946 -0.44293368 -0.0897173 0.17792378
0.3952571 0.18577643 0.034846988 0.24799134 -0.25989556 -0.048864085 -0.06031334 0.18438163
-0.04772751 -0.006637353 -0.34118545 -0.07540313 0.0068530273 0.17201196 -0.03805117 0.21767703
-0.12112174 -0.13585438 0.2524415 0.134226 0.5110231 -0.26863042 -0.106847346 -0.12603636

g.0.bias f4 [100]
00000000: 3c95 6c3e 1904 f8bd cc2c d63d a94a 2cbe
00000010: 2165 61bc 9398 4a3e 3bad 523e dc9b 2f3e
00000020: 5046 253e 12b5 f53b 9db8 d3bd 7cf0 6c3d
00000030: a4cf aebd 5cb6 ef3d ee1f 00be 7381 8cbd
00000040: bafe 35bc 5d6b 803e 6ff6 92bc 23ad 9cbd
00000050: 00af 3cbe 15a7 89bb 0b4e 553e 62d3 d0bd
00000060: 2f2d 363e 9afd 873e c3c1 abbd 9b63 23be
00000070: 6b90 b43d 793b c2bd 689f 65be 9984 9bbc
00000080: 9733 293e aa64 913e 583c 2fbd a3e8 81be
00000090: 5348 4fbe a4aa 653e 394a 73bd a219 33be
000000a0: c233 a8bd 06c4 f63d 0e29 dfbd bcc7 683e
000000b0: 2c50 7dbe 09ed 123d e6cf d2bc 8014 fcbc
000000c0: 4323 4dbe fe9a fc3d 151c fa3c c774 873a
000000d0: 6b08 a5bd 0e67 cd3c c52d cfbc 3b37 8abd
000000e0: a997 153e 6b2d 1a3e 5aa3 f1bd 4331 8a3c
000000f0: ea02 d33c 89ed 8cbd f574 5ebc 921a 023e
00000100: c0e5 2c3e 2736 dfbc aa1e b33d 1b14 37be
00000110: 862b a43d 3446 11be 70f1 23be 18b7 75be
00000120: 1a06 053e 14e6 61be f5b2 e63d c58d 45be
00000130: 2e39 8e3d f16c 1cbe 7e3d 47bd f8c8 6b3e
00000140: 2630 00be d3d0 4f3d b474 073e ede2 413e
00000150: c9b0 4f3d 3a0e cb3d d536 353e 91ab 36be
00000160: c29e 5e3e 3036 213e 63ba 353d 4f8e 8b3d
00000170: 07db 99be 1283 2cbe 3d5d 3b3e 0f9a f93d
00000180: 919b bdbc 4bbe 81be 08f5 b9bd 3833 273e
0.23103803 -0.121101566 0.10457763 -0.16825356 -0.013757021 0.19784765 0.20573895 0.171493
0.16140103 0.007498392 -0.103379466 0.05784653 -0.08535698 0.11704704 -0.1251218 -0.06860628
-0.011108095 0.25081912 -0.017939774 -0.07650211 -0.18426132 -0.004200826 0.20830552 -0.10196568
0.17790674 0.2656067 -0.083865665 -0.15955965 0.08816608 -0.09484 -0.2242409 -0.018984126
0.16523586 0.28397113 -0.042782158 -0.253728 -0.20242433 0.22428375 -0.059396956 -0.17490247
-0.08212997 0.12049107 -0.108965024 0.22732443 -0.24737614 0.035870586 -0.0257339 -0.030771494
-0.20032983 0.1233425 0.030530969 0.0010334485 -0.08058246 0.025073554 -0.02529038 -0.067488156
0.14608635 0.15056388 -0.11798735 0.016869193 0.025758225 -0.06881244 -0.013577689 0.12705448
0.16884518 -0.027247502 0.08746083 -0.17878763 0.08016114 -0.14186937 -0.1601007 -0.23995626
0.12990609 -0.22060424 0.11264602 -0.19292362 0.069445 -0.15275933 -0.048642628 0.23025882
-0.12518367 0.05073626 0.13228112 0.18934222 0.050705705 0.09914823 0.17696698 -0.17838885
0.21740249 0.15743327 0.044367205 0.068142526 -0.30049917 -0.16846874 0.18297286 0.121875875
-0.023145469 -0.25340495 -0.09079939 0.16328132

g.2.weight f4 [100, 100]
00000000: 0447 0a3e 312b a43d af1f 1ebe 08a3 4b3b
00000010: 1c03 1e3d 9405 85bd 7f16 3dbe 24d4 263c
00000020: 3ee2 593d 359e c9bc 50e0 da39 18f9 1b3d
00000030: 57d5 db3d 2b2b 833d 9844 b1bd b869 7ebd
00000040: 3b6d 6a3d ae49 acbd 8d70 dcbd f0e1 5f3a
00000050: 4487 ac3d 11ea e1bd 5248 9e3d cb2b 89bd
00000060: 16ea c63d 4078 97bc c7b9 a2bd ce97 01be
00000070: e5f8 0b3d 6cb7 08ba 2bea 1fbc 8da3 163d
00000080: cfa9 bc3d b399 d33d 47ff 993d c185 aebd
00000090: 98e9 803d 11de cd3c 9dc1 b63d 82a0 7fbd
000000a0: a8d6 343c c9c0 5dbd 5c6e 933d ff1d 3fbe
000000b0: 9c12 be3d 86c2 afbc e08a 17be 6039 82bd
000000c0: 8981 02bd e96d 8abb 9f01 4bbd fe87 7d3d
000000d0: d238 0e3c 7a4d 0fbd 95e0 c03c 98c6 cebd
000000e0: d291 dc3d 61f6 aa3d 37c1 213d eb0e d6ba
000000f0: d403 c43c 451a 483d e5c9 60bd c3d0 58bd
00000100: f2bf 32bd 1cc2 f8bc 0d50 333b 9ab2 083d
00000110: af26 92bd b720 52bd 9aa6 8ebc a5b0 6cbd
00000120: 7379 813d 1ef7 e4bc fe91 02bd 58c9 6cbd
00000130: f168 0bbe 16b2 9abc 439e cfbb b585 1e3e
00000140: 8cfb 723d 2ed7 93bc 0aef abbd b818 aabc
00000150: 7bd1 ad3d 1dd6 563a 3a33 1abd 86ae 97bc
00000160: 5966 d73d 0da8 b53b 9cc4 293d a336 393c
00000170: f41d b8bd 33dc 263d 065a 7cbd 2b63 7e3d
00000180: 71f1 d1bd cfe4 283c de8c e13c 513b eebd
00000190: ce90 b93d b3e4 a8bd a59b 003c e8fd af3d
000001a0: ce84 a1bd 15cd 2d3d 0dae e0bd 3c93 663d
000001b0: 1c0b 093e 6f25 bd3d 8add 253d ee44 023d
000001c0: 0c81 1d3e 2e59 a6bd b6c9 a53d 872f c33d
000001d0: 6f28 ec3d e991 77bd c4cb cebc 48e4 9ebd
000001e0: f3ba c83c 1ca6 a73d 096f ba3d 62e0 87bd
000001f0: 7943 ab3b 44e9 abbc 2420 003e 563e 953d
00000200: 5067 533d cfb2 503d 4f4b e7bd 1edb 9abc
00000210: 6817 c038 1ce2 863d 5f48 193e 0307 30bd
00000220: 26ed 5fbc 030f bbbd cb64 823d c7c8 a8bd
00000230: 5334 5a3d aeef c83d c55a c93d 4859 afb8
00000240: 570d cc3d c976 133d b1da 21be 980a 973d
00000250: bf62 d03d 3e31 34bd 9c09 47bc 4dd0 963c
00000260: 6730 5e3d 9188 ccbd 098b 153d 9b81 12bd
00000270: 1c6e 073e 1a10 b2bc 12b0 213d 3c8c 05bd
00000280: 3ddb e63d 2564 13bd 73dc e3bd 3b3f 933d
00000290: ae9b b3bd f035 883d c02f 7a3d 1ef6 e0bc
000002a0: c23b 15bd 9b60 84bd 446c 363d e021 623a
000002b0: d1b3 c83d d2b6 ce3a f51f 563d 64d3 30be
000002c0: 3752 01be 58c0 e8bd 770f fb3c 9397 423c
000002d0: 6631 d9bc 29b3 013d dad8 373d 7290 04bd
000002e0: 1587 a6bc c8d0 fbbb be54 61bd 506d 1fbc
000002f0: 0ec4 0e3d 7948 be3d ab53 573a ab61 bfbc
00000300: d2c9 76bd 11ac 21be 157a 98bc 5615 d3bd
00000310: de54 903d 4085 d13c 10a1 e43d 4152 81bd
00000320: d382 233d b0ca 433e f79d 3bbe b107 603c
00000330: 9269 13be b503 cb3c 1dce a23c 5dd3 0fbe
00000340: e23d 583e ba4c f33d e4f5 00be b7ce aa3c
00000350: cd92 c6bd a4f9 a4bb 82bd 4a3e a18a 2dbe
00000360: 08db b5bd 0809 713d 88e7 93bd 9d09 40be
00000370: 9888 5dbe 2556 00bc b0bb 153e 7496 95bd
00000380: d7de 6cbe 679e d43d 8377 bd3c e71d b93d
00000390: e89b 23bd 0c7e a7bd 99b7 47be b49d 8bbd
000003a0: dc18 203e dda4 42bd d55e 60bd d844 86be
000003b0: 03b1 653e 7856 a23d a0a2 0fbe ad90 d8bd
000003c0: d77a 0cbe 7b6b 8b3e e959 4dbd 4f98 81be
000003d0: a2b5 39be 87d2 bf3d 5d04 43be f4e0 f5bc
000003e0: b5c1 62bd f593 213e 1103 463d 0973 15be
000003f0: 0d4f 0d3e 8f7e 99bd 28c6 fdbd 9f68 75be
0.13503653 0.080160506 -0.15441774 0.0031072516 0.038577184 -0.064952046 -0.18465613 0.010182414
0.053194277 -0.024611572 0.00041747326 0.03807935 0.10734051 0.06404718 -0.08655661 -0.06211254
0.057233077 -0.08412491 -0.10763655 0.0008540442 0.08424237 -0.11030973 0.07728638 -0.06697806
0.09712617 -0.018489957 -0.079455905 -0.12655565 0.03417291 -0.000521532 -0.00976042 0.036777068
0.09212076 0.1033205 0.075193934 -0.08521605 0.062945545 0.025130304 0.089236476 -0.06240893
0.011037506 -0.054138932 0.07198784 -0.18663786 0.09280893 -0.02145506 -0.1479907 -0.063586
-0.031861816 -0.004224528 -0.049562093 0.06189727 0.008680539 -0.034985997 0.023544589 -0.100964725
0.107700005 0.08347774 0.039490905 -0.001633135 0.023927607 0.048853178 -0.05488004 -0.052933466
-0.043640085 -0.030365996 0.0027360946 0.033373453 -0.071362846 -0.05130073 -0.017413426 -0.05778565
0.06321993 -0.027949866 -0.03187751 -0.057809204 -0.1361425 -0.018883746 -0.006336005 0.15480693
0.059321925 -0.018046942 -0.083952025 -0.02076374 0.08487221 0.00081953575 -0.03764651 -0.018515836
0.10517568 0.005543715 0.041447267 0.01130453 -0.08990088 0.040737342 -0.06160929 0.062106293
-0.102511294 0.0103084585 0.027532991 -0.116324075 0.090608224 -0.08246746 0.007849609 0.08593351
-0.078866586 0.04243191 -0.109706976 0.056292757 0.13383144 0.092356555 0.04049448 0.031804018
0.15381259 -0.081224784 0.08095114 0.095305495 0.115311496 -0.060441885 -0.025243647 -0.07758385
0.024503207 0.0818598 0.091032095 -0.066345945 0.005226549 -0.020985253 0.1251226 0.0728728
0.0516122 0.050951775 -0.11293661 -0.018903311 9.159633e-05 0.06586096 0.14969014 -0.042975437
-0.01366738 -0.09133723 0.06366881 -0.0824142 0.053272557 0.0981134 0.09831766 -8.36128e-05
0.09963482 0.036001954 -0.1580608 0.073750675 0.10175084 -0.043992274 -0.012148287 0.018409872
0.05424538 -0.099869855 0.036509547 -0.035768133 0.13225597 -0.021736193 0.039474554 -0.03260444
0.11272285 -0.035984177 -0.11126032 0.07189795 -0.08769928 0.06650913 0.061080694 -0.027461108
-0.036433943 -0.064637385 0.044536844 0.00086262636 0.09799922 0.0015771037 0.05227657 -0.17268139
-0.12629019 -0.11364812 0.030647023 0.011876958 -0.026512813 0.031665 0.04488454 -0.032364316
-0.020328084 -0.007684801 -0.055012457 -0.009730652 0.03485494 0.09291167 0.00082140666 -0.023362001
-0.060251065 -0.15788294 -0.0186129 -0.10306804 0.07047437 0.025576234 0.11163533 -0.06314517
0.039919686 0.19120288 -0.18321978 0.013673709 -0.1439574 0.024782041 0.019873673 -0.14045472
0.21117356 0.11879869 -0.125938 0.020850522 -0.09695969 -0.0050346423 0.19798854 -0.16947414
-0.088796675 0.058846503 -0.072218955 -0.18753667 -0.21634138 -0.007833038 0.14622378 -0.07304087
-0.23131882 0.10381775 0.023128277 0.090389065 -0.039943606 -0.081783384 -0.1950363 -0.06817189
0.15634483 -0.047520507 -0.05477794 -0.262244 0.22430806 0.07926649 -0.1402688 -0.1057447
-0.13718735 0.2723044 -0.050134573 -0.25311515 -0.18135694 0.09366327 -0.19044633 -0.030014493
-0.055360515 0.15779097 0.048342768 -0.14594664 0.13799687 -0.07494842 -0.12391311 -0.23965691

g.2.bias f4 [100]
00000000: 22d3 b5bc 3757 5bbc 4630 ab3d 184d c53d
00000010: 0673 8cbd c897 8fbd 076a 653d 477c a5bd
00000020: e008 da3d 7ee9 153d f736 9ebd 1366 963c
00000030: ba20 b33d 45e3 43bb a6d4 223b 79be 133d
00000040: 73b6 a7bc 2673 b2bd 3c24 0cbe 23ce 3c3d
00000050: 66b6 4b3d 9295 eabd bb32 6e3d ac5e 9ebd
00000060: fc9e 2c3d f350 013e e183 c03c 41b7 f8bd
00000070: a967 213c 1e69 d1bc 6163 46bd 7b0d 773d
00000080: 9b60 18bd d25b 123d 25a7 d3bd 61e1 03bd
00000090: fc79 6d3d 1fe4 1dbc dd50 173d 3665 a83d
000000a0: a43d 0d3a d215 b4bd a506 73bd c609 613d
000000b0: 111d ccbd 0644 04bb 30f6 083d d75f ddbd
000000c0: 22b0 433d 53ea 25bc cf1c 4ebb 948a bdbd
000000d0: e2a7 f73d c729 bdbc 4085 e7bc 9181 e73d
000000e0: 53c1 cabd 5cac 7a3d cba0 bfbd 90c9 783c
000000f0: b7b2 163c a858 313d 7af1 923d aa6d aa3d
00000100: 4ced d0bc eabe 86bd c7c5 de3d d2e9 e7bd
00000110: 5dab 30bd 39de d13d 2a7a 083c 17a8 8b3d
00000120: 6338 7b3d a5b7 74bd bde1 1fbc 24f7 8f3d
00000130: 3dd5 efbd 37fb 58bc 40f7 01be 4f0e 6bbd
00000140: fa3a 9d3d 719d dcbb 0044 483d f7af b4bd
00000150: 8a80 10bd 61fe 133c 1f1a 273d e190 d1bd
00000160: 2e91 36bd a882 0d3e c26f 9f3b b215 24bd
00000170: c2c3 01bd a7d4 8dbd 291a e3bd 2a07 bd3d
00000180: 920c 1dbe 2d03 90bd d87f 753d c2c4 0d3b
-0.022195403 -0.013387493 0.08358817 0.09633845 -0.068578765 -0.07011372 0.05600932 -0.08080345
0.10646224 0.03659963 -0.077253275 0.01835922 0.087464765 -0.0029890102 0.0024845987 0.03607032
-0.02047274 -0.08713369 -0.13685697 0.046095025 0.049734496 -0.114543095 0.05815385 -0.07732901
0.042143807 0.12628536 0.023500385 -0.12144328 0.009851375 -0.02556282 -0.04843462 0.06031559
-0.037201505 0.035732098 -0.10334615 -0.03219736 0.05797766 -0.009636908 0.03694235 0.082224295
0.00053879083 -0.087932244 -0.05933251 0.05494096 -0.099664815 -0.0020182147 0.033437908 -0.108092956
0.047775395 -0.010126668 -0.0031450277 -0.09254947 0.12092568 -0.02309121 -0.02826178 0.1130401
-0.09900155 0.06119953 -0.09356841 0.015184775 0.009197882 0.04329744 0.07174964 0.08321698
-0.025503777 -0.06579383 0.10877567 -0.113238946 -0.043132175 0.10247464 0.008329907 0.0681917
0.06133307 -0.05974545 -0.00975841 0.0702956 -0.11710594 -0.013243488 -0.12691975 -0.057386693
0.076772645 -0.0067326357 0.048892975 -0.08822625 -0.035278834 0.009032817 0.040796395 -0.102327116
-0.044572048 0.13819373 0.0048656175 -0.040059753 -0.03168083 -0.06925326 -0.11088974 0.09229882
-0.15336826 -0.07031856 0.059936374 0.002163217

g.4.weight f4 [1, 100]
00000000: f198 8dbc 34d3 9bbc 4e57 e8bd ecb0 20b9
00000010: 0034 a93d 205f 923c f4f8 4bbb 2695 803d
00000020: 1e33 9cbc e844 133d ae81 83bd 0c4d 85bd
00000030: b731 2ebc 32b5 9e3d 1d2e ebbd 1a49 84bc
00000040: 9379 00be 60b6 9e3d 63e2 233c 00cb a33b
00000050: f929 193c 8625 dabd 0c23 153e 5859 813c
00000060: 3f4b 873d ec55 e1bd b0f6 9ebc 59ad 043e
00000070: 3792 cf3d d2b0 033c 3085 6ebd ff34 353d
00000080: 1f45 21bc 148c 243e dac4 373e 5415 fcbc
00000090: d447 d9bc 5310 f93c 2082 7ab9 ec6f 3e3b
000000a0: 275c 0c3e 0390 a33d 4d24 94bd 8313 80bd
000000b0: 888f 023e 5ac2 f2bc f1c5 313b 04c2 293c
000000c0: 8ee9 bf3d a39e 25bd 209e a5bc 1a8e b83d
000000d0: 235e 01be bb0a b4bd d7c8 03bd 6499 d6bc
000000e0: 727e a93d fabb c8bc 8405 2a3d 1186 1a3d
000000f0: 1cdd ab3c 6d2b 1d3c 42ad 983d bc86 fabc
00000100: b8ba 8d3b fb98 22be e68e 05bd 1512 d23d
00000110: 3ad3 a33a 5167 a03d e61c c6bd 12f9 833d
00000120: 244a 0ebc d8a5 7d3a 2f49 50bc 80b8 dcbc
00000130: 3c61 013e 6219 59bc df88 b73c c47f 4ebd
00000140: 3ded 05bd 4d98 8fbc 44fa f9bb c450 413d
00000150: 50b2 e63d 1cf7 d1bc 39e1 be3d 67d1 773d
00000160: b65b fd3d 1d54 14bd 56e9 2a3e 3b7e 7e3c
00000170: 02c3 f33c 5023 37bc a458 c8bd 0677 933d
00000180: 8a0a b83d e323 f73b 99aa 7bbb 772c 403c
-0.017284842 -0.019021608 -0.11344777 -0.00015324698 0.08261871 0.017867625 -0.003112373 0.06278448
-0.019067343 0.035954386 -0.06421219 -0.06508836 -0.01063197 0.07749404 -0.11483405 -0.016148139
-0.12546377 0.07749629 0.010002705 0.0049985647 0.009348386 -0.10651688 0.1456415 0.015789673
0.06606149 -0.110027164 -0.01940474 0.12956752 0.1013531 0.008037763 -0.058232486 0.044239994
-0.00984314 0.1606906 0.17946187 -0.030771889 -0.026523508 0.030403292 -0.00023890333 0.002905841
0.13707028 0.079864524 -0.07233486 -0.062537216 0.12750065 -0.02963369 0.002712604 0.010361198
0.09370719 -0.04043449 -0.020217001 0.09011479 -0.12633567 -0.08791109 -0.032173958 -0.02619619
0.08276071 -0.024503697 0.041509166 0.037725512 0.020979457 0.009592873 0.07454921 -0.030581824
0.004325237 -0.1587867 -0.03260698 0.10257355 0.0012498864 0.07832206 -0.09673481 0.06443991
-0.008684669 0.0009675897 -0.012712761 -0.026943445 0.12634748 -0.013250681 0.022404132 -0.050414816
-0.03269695 -0.017528677 -0.007628711 0.047196165 0.11264479 -0.025630526 0.093203016 0.060502436
0.12371008 -0.03621303 0.16690573 0.015533025 0.029756073 -0.011177853 -0.09782532 0.07200436
0.08986385 0.00754212 -0.0038401245 0.011729351
