models/german_ALLR_lin_l0.100_s3.pth (torch, 1217 bytes, 1 tensors)

g.weight f4 [1, 20]
0.31614813 -0.37934345 0.18378325 0.0019557108 -0.08406165 0.16400243 0.036049705 -0.14238034
0.067044266 0.022501778 -0.06104453 -0.08374425 0.07683429 0.038289115 0.02077006 -0.04557049
-0.017818725 -0.021692833 0.039949577 -0.047396272
00000000: 2bde a13e 4e39 c2be ad31 3c3e 622b 003b
00000010: 8428 acbd 41f0 273e dba8 133d 27cc 11be
00000020: 814e 893d a655 b83c d409 7abd 1b82 abbd
00000030: 4c5b 9d3d 0cd5 1c3d f925 aa3c 1fa8 3abd
00000040: 93f8 91bc 2bb5 b1bc 2ba2 233d 9822 42bd
