models/german_ALLR1_mlp_l0.500_s4.pth (torch, 51557 bytes, 5 tensors)

g.0.weight f4 [100, 20]
000000 42 78 68 3d 2e e1 c5 3c f1 55 4d be b9 a3 61 bd
       0.05675531 0.024155226 -0.20052315 -0.05508778
000010 d4 a0 42 3b b7 9a bb be bd 83 81 3e 94 b3 5d 3e
       0.0029697912 -0.36641476 0.2529582 0.21650535
000020 8d d0 89 3d 50 eb 69 3e ed c8 00 bd 25 7a 34 bc
       0.06729231 0.22843671 -0.031441618 -0.01101545
000030 c0 09 8c bb d9 be 72 bc 35 eb 96 3d ff 3b 2c 3e
       -0.004273623 -0.014816009 0.07369081 0.16819762
000040 31 1f fe 3d be 8e d8 bd 55 5d dd bd 40 f8 02 be
       0.12408293 -0.10574101 -0.10808817 -0.12790012
000050 be e5 12 be 59 ef 31 be 01 97 10 be 14 27 2f be
       -0.14345452 -0.1737646 -0.14120103 -0.17104751
000060 ce 58 11 3e e0 ef 19 be 3d 1f 88 bd d0 e4 fa bd
       0.14194033 -0.15032911 -0.06646583 -0.12250674
000070 86 b7 42 3b d5 f6 89 be 42 67 70 3b 1e 97 13 bd
       0.002971144 -0.2694613 0.003668264 -0.03603279
000080 e8 19 12 3d 54 0d 36 bd 8b 21 20 3c 13 26 9e be
       0.035669237 -0.044446304 0.009773622 -0.30888423
000090 e1 b0 88 be d4 2a 16 bd 6c 85 a3 ba a2 16 0d be
       -0.26697448 -0.036661938 -0.0012475676 -0.13778165
0000a0 e5 d1 49 3d 61 14 ae 3c b4 16 30 3e 94 f3 5b be
       0.049272437 0.021249952 0.1719616 -0.21479636
0000b0 1b 45 c5 ba cc 30 4f 3e 12 a0 d6 3d 85 ef f7 bd
       -0.0015050502 0.20233458 0.1047975 -0.121062316
0000c0 89 71 e5 bd af 28 1e 3e 52 b6 04 be 7c 54 a9 3d
       -0.11203296 0.15445207 -0.12960175 0.08268067
0000d0 3c 61 1b 3e 59 10 8a be d9 e5 87 be 1e 3e 8f 3d
       0.1517381 -0.26965597 -0.26542547 0.0699427
0000e0 ad a0 93 3d c9 f5 3b 3e fc e1 f6 3c be 39 df 3d
       0.07208381 0.18355478 0.030137055 0.10899685
0000f0 88 1c f8 bd 1e ee df 3e 3b d4 5f be bf ba 34 3d
       -0.12114817 0.43736356 -0.21858303 0.044123407
000100 95 30 e7 3e 6c ee 11 3e 80 15 9c 3d b8 5f 1e be
       0.45154253 0.14251107 0.07621288 -0.15466201
000110 61 d3 27 bd 8e 49 3a 3c 6d 1f d0 3c 6c 4b 45 be
       -0.04097307 0.011370076 0.02540561 -0.19267052
000120 19 37 cf bc c8 c5 cc bd 6c 2f 06 be ff 47 62 3e
       -0.025294827 -0.09998661 -0.13104028 0.22097777
000130 9f 4c 4a 3e 4f 42 f7 3d 46 fb 73 bd 87 e5 2a be
       0.19755791 0.12073194 -0.059565805 -0.1668912
000140 27 d3 1f bd f1 3f 18 3e e1 00 37 bb 93 13 8e be
       -0.03901973 0.14868142 -0.0027924108 -0.2774931
000150 41 23 92 bc 46 d9 9e bd 2d ae 17 3d 90 26 67 bc
       -0.017839076 -0.07756285 0.03703134 -0.014108315
000160 e8 e0 84 be 3e 1a 9c be 89 37 16 bd 69 b9 fc 3b
       -0.2595284 -0.3048877 -0.036674056 0.0077125323
000170 18 e3 57 3e 03 30 4f 3d 3a ce ba 3d 0d 3a 49 be
       0.21082723 0.050582897 0.09121366 -0.19651051
000180 ad af a4 be b7 6a be 3b b7 e4 f4 3d 1c fa 89 be
       -0.3216528 0.0058110612 0.119576864 -0.2694863
000190 cb 40 24 be 10 69 0a 3f c6 f0 2c 3e 89 25 23 bd
       -0.16040342 0.5406656 0.16888723 -0.03983072
0001a0 dc 25 0d be 4b f5 0e bd b7 01 85 be d8 7f 99 bd
       -0.13783973 -0.0349019 -0.2597787 -0.074950874
0001b0 b7 3e 28 bd 47 61 c0 bc da 1d 78 3d f2 0f 1f bd
       -0.041075435 -0.023483885 0.060575344 -0.038833566
0001c0 a3 97 16 be ba 3e 11 bd b7 47 c5 3a ec d1 ee 3d
       -0.14706282 -0.03546021 0.001505128 0.11661133
0001d0 33 a7 a6 3c e2 64 6e bd a2 60 7f 3d 2f 59 d5 3d
       0.020343399 -0.058201678 0.062348016 0.10417401
0001e0 33 d7 65 3d dc f1 46 bf 0c 14 05 bd 3c e5 13 3d
       0.056113433 -0.777128 -0.03248982 0.036107287
0001f0 9d 55 a8 3f da a6 f7 3c 85 e1 59 bc 30 53 d4 3a
       1.3151127 0.030230928 -0.013298397 0.0016199108
000200 9a b6 81 bc de c7 85 3d cb fb 81 3c 8f 03 0d 3d
       -0.015834142 0.06532262 0.015867135 0.034427222
000210 2f 5e 5d 3d 0d f3 b4 bd 21 9b 3e 3d 4d 51 03 3a
       0.0540449 -0.08835421 0.04653466 0.0005009368
000220 9e 15 10 3e 98 c6 e2 3b 59 aa 3a 3e 02 58 a8 bd
       0.14070746 0.006920647 0.18229045 -0.08219911
000230 cc aa c0 3d 1e 80 15 3f 3e 8b 58 be 2a 74 e0 3c
       0.09407577 0.58398616 -0.21146867 0.027399141
000240 a0 4a 38 3e 6b db 58 3e 56 66 e2 3d b8 9e 17 3d
       0.17997217 0.21177451 0.11054675 0.0370166
000250 7e df f8 3d a1 b4 3d bb 0c 94 12 be 6e b0 2c 3e
       0.12152003 -0.0028946775 -0.14314288 0.16864178
000260 5c 39 8f be 88 5b e5 3c 3d db 8b 3c 75 a2 a8 bd
       -0.2797345 0.027997747 0.017072314 -0.08234111
000270 c6 2c de bd 5d e2 66 3e 15 99 ad bc 0d b6 65 3d
       -0.108483836 0.22547288 -0.02119116 0.05608182
000280 df 76 2c be f8 7a 99 3d 39 01 71 be d6 09 7a bc
       -0.1684222 0.074941576 -0.23535623 -0.015261134
000290 a8 4d 15 bf 76 40 08 bd 61 02 84 3d fa 8f 3e 3e
       -0.5832162 -0.0332646 0.06445766 0.1860961
0002a0 4a e2 1f be 2a 00 96 be f2 6e 48 3e b9 1d 06 3e
       -0.15613666 -0.29297 0.19573572 0.13097276
0002b0 d7 4d 8d 3e f2 0a 66 bd 23 89 89 bd 6a 6f 7c bc
       0.2759845 -0.056162782 -0.0671561 -0.015407423
0002c0 02 f6 0d bd f1 8a b8 bd 51 28 6c be b3 04 14 3e
       -0.03465844 -0.09010876 -0.23062254 0.14454918
0002d0 92 04 21 3e b4 85 8f bd e4 e6 03 be d2 56 92 bd
       0.157244 -0.07007924 -0.12881047 -0.07145466
0002e0 dc 10 69 be cc f2 5e 3c f6 d1 09 3e a9 14 ea 3c
       -0.22760338 0.013607692 0.13459 0.028574305
0002f0 38 d8 15 3e b3 f2 99 bd 9a 95 b9 3c f0 71 2c 3e
       0.14633262 -0.07516994 0.022654343 0.16840339
000300 5f 3f b7 3e fe 37 e0 bd 19 cb d4 3d 1a dc 3b 3e
       0.35790536 -0.1094818 0.103903 0.18345681
000310 6a 0c 4d 3d b7 dc 03 3e 96 62 47 3e dd 5d 11 be
       0.050060667 0.12877165 0.19471201 -0.14195962
000320 f6 a6 14 3e 14 a3 d3 be 78 a2 8d ba 3e 30 14 3e
       0.14516816 -0.41335356 -0.0010805866 0.14471528
000330 c5 b9 95 be 50 1f a9 3d 8a d3 72 be 78 ea 53 bd
       -0.29243293 0.082579255 -0.23713508 -0.05173728
000340 b9 b1 be 3d ca 2a 99 bc 74 f1 01 bd a6 d9 16 bd
       0.09311242 -0.018697161 -0.03172441 -0.03682866
000350 2e 4d 68 bd 55 0a 4a 3e 2f cc 93 3c c1 11 9f 3d
       -0.05671423 0.19730504 0.018041698 0.07767058
000360 ad ac 2b 3d 45 12 af bd ab 8c 80 bc 4b 50 27 3e
       0.041912723 -0.085484065 -0.015692076 0.16339223
000370 e4 8a 0e 3e be 56 15 bf 4f 43 6c be 02 3c a5 bc
       0.1392017 -0.58335483 -0.23072551 -0.020170216
000380 a9 bc 02 3f f8 8b fb bd 18 c7 da 3d 49 61 63 be
       0.5106912 -0.12282556 0.10682505 -0.2220508
000390 77 a6 6a bd 02 07 58 3d 70 7f 89 bd 31 e7 97 bd
       -0.05728766 0.05274106 -0.0671376 -0.07417143
0003a0 ae 37 b5 bc fb 79 e1 3d fc 70 23 3d b6 e7 38 bd
       -0.022121277 0.11009594 0.039902672 -0.04514285
0003b0 5b 8e df ba 77 08 64 be bd 5e 8d bd 8f d1 4b 3e
       -0.0017055975 -0.22268854 -0.069028355 0.19904159
0003c0 0a 07 a0 bd 1e 64 20 3f 1e 66 77 bd 3c 61 e4 3d
       -0.078138426 0.62652767 -0.06040012 0.111513585
0003d0 21 a8 3a 3e 61 f1 f0 3e 9c bc 85 3b da 49 61 3d
       0.18228199 0.47059157 0.004081322 0.05500207
0003e0 ad 17 88 bd 84 01 a5 3d 3a 0d cf bd ed 26 55 3e
       -0.06645141 0.0805693 -0.10109945 0.2081563
0003f0 16 2e b1 be be 2b 0b 3c 2b ad 31 bd 2a 18 21 be
       -0.34605473 0.008494316 -0.043378036 -0.15731874

g.0.bias f4 [100]
000000 05 ed 0c 3e fa cf 82 3c d7 9c 1b be e9 87 f9 3d
       0.13762291 0.015968312 -0.15196548 0.12184126
000010 ba 10 a0 be b8 97 85 3d 1c 55 a2 bd 45 8b 39 3e
       -0.3126276 0.06523079 -0.079263896 0.18119533
000020 f6 09 7c 3d 71 ad 8d bd 9b 6a 21 be e0 d6 86 3d
       0.061532937 -0.06917847 -0.15763323 0.06583953
000030 6b 07 9c 3d 60 92 47 3d 60 37 81 3e b2 5d 1d be
       0.07618602 0.04872358 0.2523756 -0.15367773
000040 31 a5 cd 3b b3 45 64 3e 9a c4 35 be 32 be 2e 3e
       0.006275796 0.22292213 -0.17750779 0.17064741
000050 82 ae 97 3d 3a e9 e3 bd 50 36 1d be 13 4b 15 be
       0.074063316 -0.11128469 -0.1535275 -0.1457942
000060 d0 7c 90 3d 1d d4 05 be 42 89 34 be 4d d3 94 bd
       0.07055056 -0.13069196 -0.17630485 -0.07266865
000070 40 5b 22 3e eb f7 38 be f6 24 44 3c 13 b4 a5 be
       0.15855122 -0.18063323 0.011971703 -0.32363948
000080 12 b4 3d 3e 8e 6d 7e be 83 1d 7d 3d 0b b2 22 be
       0.18525723 -0.2484648 0.061795723 -0.1588823
000090 d2 bf d8 3b 96 bb f3 bd 2b 72 56 3d d8 cd 27 3d
       0.0066146636 -0.119010136 0.052354973 0.040967792
0000a0 08 3b 67 3d 86 e8 42 3d 72 13 ee 3d 97 9e 9a bd
       0.05645278 0.047585033 0.11624803 -0.0754978
0000b0 cb 1a 17 3e 00 5d 9b be b4 96 12 bd 88 2e 26 bd
       0.14756314 -0.3034439 -0.035788253 -0.04057172
0000c0 87 89 00 3d c5 28 98 be 52 b0 81 3e d0 4d bd 3d
       0.031381156 -0.29718605 0.25329834 0.09243357
0000d0 16 99 45 3d 0e df 52 3d 84 39 12 3e 79 6d 53 bd
       0.048241697 0.051482253 0.14279753 -0.051618073
0000e0 a7 5c 7c bc 9e ed 55 bd ad a7 c8 3d 9c 76 0f 3d
       -0.015402949 -0.052228563 0.097976066 0.035025224
0000f0 c9 83 29 be d7 ff af bb 1d 13 ab bd a2 29 14 3d
       -0.16554178 -0.0053710747 -0.08353255 0.036172517
000100 9b 04 09 3e fe 00 d3 3c 3e 34 c5 3d 39 2c ae 3d
       0.13380663 0.025757309 0.09629105 0.085045286
000110 c0 a8 9e 3e 69 bb 86 be c1 f8 a4 3d 9f 31 42 3e
       0.3098812 -0.26314858 0.080552585 0.18964241
000120 00 44 10 bd ba 99 67 bd ac 20 8c bd 2c 80 00 3e
       -0.0352211 -0.05654309 -0.06842169 0.12548894
000130 d5 3f b5 3d 03 aa 97 bd 72 c8 f3 bd 5a 22 9a 3e
       0.088500656 -0.07405474 -0.11903466 0.30104333
000140 a8 52 09 3e 13 73 0d 3d bb e0 92 bd 3c 16 98 3c
       0.13410437 0.03453357 -0.0717177 0.01856529
000150 13 7d 85 be 6c 9d d0 bd 8f 39 d1 bd 04 08 83 be
       -0.26071987 -0.10186276 -0.102160566 -0.25592053
000160 b7 a9 2b be e3 6d 2c 3d 70 7e 72 be 52 69 5b 3e
       -0.1676396 0.042096984 -0.23681045 0.21426895
000170 ea 5f 85 3d 2c 5f aa be da 5d 1c 3e 7d ea 76 be
       0.06512435 -0.33275735 0.15270177 -0.24112888
000180 82 88 ef bc f3 af 02 3e 8b be f0 bd 98 d1 97 bd
       -0.029239897 0.12762432 -0.11755093 -0.07413024

g.2.weight f4 [100, 100]
000000 42 f5 64 3c 9e 7a a8 3d df ed ef 3c 43 e5 62 bd
       0.01397449 0.08226512 0.02928823 -0.055394422
000010 e6 0a 01 be 6a 8b 82 3d 67 8c 40 3d 92 44 9e bc
       -0.12601814 0.06374247 0.047008898 -0.019319806
000020 50 ac e5 3c 65 bd 11 bb 25 e6 8f bc 77 d8 f1 3d
       0.028036267 -0.0022238132 -0.017565796 0.118088655
000030 08 35 5a 3d 0c 22 8e 3c 08 5e d9 bc ee 90 6f bd
       0.05327323 0.01735022 -0.026534095 -0.058487825
000040 bb 75 aa 3d be 84 e4 3d 0a ab c2 bc 6e 40 cd bd
       0.083232366 0.11158131 -0.023763198 -0.100220546
000050 8b 31 3c bd f7 15 f4 3b 1d ed 92 bd ff 58 49 3d
       -0.045945685 0.0074489075 -0.07174132 0.04915714
000060 c1 c6 41 3d 0d ca 8c 3c b4 aa e6 3b bb 79 9b bd
       0.047308687 0.01718619 0.0070393924 -0.075915776
000070 bf 66 ed bc f3 55 8e 3c 43 bf 01 bd 7f ef 55 bd
       -0.028979657 0.017374968 -0.031676542 -0.052230354
000080 86 5d dd 3c af b8 6b bd 88 24 45 3d 96 e6 3f bc
       0.027022135 -0.057549175 0.048130542 -0.011712691
000090 91 0b ac bd 8e d0 07 3a 14 40 39 bd 7b 9c 82 3d
       -0.084006436 0.00051809184 -0.045227125 0.063775025
0000a0 1f 6f 4a 3c 72 25 2e bc d7 13 71 3d 04 10 ae bc
       0.012355595 -0.010629045 0.05885681 -0.021247871
0000b0 ec 40 12 3d e8 7b d7 bd 5a 8c 76 3c d8 83 1d bd
       0.035706446 -0.1052168 0.015048111 -0.038455814
0000c0 06 0d 37 bd 5c 5c a6 3d 4d 5c 65 bc 17 fc 73 3d
       -0.044690154 0.08123085 -0.013999057 0.059566583
0000d0 f0 ad 9e 3d 3e fb 41 3d c5 d7 a4 3d 5b b7 fd 3c
       0.0774802 0.047358744 0.08048967 0.03097122
0000e0 bf a6 36 3d 24 10 c9 3d 78 db 11 3d 75 e4 a1 bd
       0.044592615 0.09817532 0.035609692 -0.07904903
0000f0 da 8b 3b bd 02 67 b6 3c 2e 8c 76 3d 87 21 f4 3b
       -0.04578767 0.022265915 0.06019228 0.007450286
000100 be 8b dd bd 85 40 17 bb df 5b b6 bd 1b ac 2f bd
       -0.10817669 -0.0023079228 -0.08904242 -0.042888742
000110 71 50 2e 3d d4 5a 03 3d a6 66 c5 3d 91 b9 a2 3d
       0.042557184 0.032069042 0.09638719 0.0794555
000120 4a e0 cd 3c 37 33 59 bd 2d 0b 47 bd 96 f0 8d 3d
       0.025131363 -0.053027358 -0.048594642 0.06930654
000130 07 3b 65 bd de 38 79 3d 73 d6 90 bd 63 07 18 3d
       -0.055964496 0.06084525 -0.07072153 0.03711642
000140 80 49 64 3d c6 7a fd 3b 43 3b 85 bc 37 9e 51 bd
       0.055734158 0.007735583 -0.01626361 -0.051176276
000150 14 ba e7 bb a5 36 7f 3c 0b 27 56 bd 70 10 9c bc
       -0.007071743 0.015576993 -0.052283328 -0.019050807
000160 52 a8 a0 3d f2 79 02 3b 0f f3 f2 bc 2e 21 37 3d
       0.078446046 0.001990911 -0.029656915 0.044709377
000170 e3 8f 04 3d 15 b4 75 bc a6 bb 7d bd 4b 04 f6 3b
       0.032363784 -0.014996548 -0.061946534 0.007507836
000180 19 7c 82 3b 0a 7f ad 3c b5 02 71 bd 44 3c 50 3c
       0.0039820787 0.021178741 -0.058840472 0.012709681
000190 9a 1c b9 3d 80 83 8a 3c 3c 64 2c 3d 0f 42 ff 3d
       0.090386584 0.016908407 0.04208778 0.124637716
0001a0 ae fb a0 bd d6 df 8b be 63 12 b9 bd 1b 5a 87 3d
       -0.07860504 -0.2731921 -0.0903671 0.06608983
0001b0 21 a5 09 3e 24 4b 80 3d 2e 25 21 bd 79 81 c3 3d
       0.13441898 0.06264332 -0.039342098 0.09546179
0001c0 98 ce 17 bc 65 eb e6 bd da d6 2a 3c cc 44 2d 3e
       -0.009265564 -0.11275367 0.010427201 0.16920775
0001d0 9b d7 c0 bb b0 d2 03 bd fe 31 0b bd b2 55 05 3c
       -0.005885077 -0.03218335 -0.033983223 0.008138107
0001e0 42 95 f2 3d f5 14 05 3e 09 8e 49 3d 87 51 09 be
       0.11844875 0.12996276 0.04920772 -0.13410006
0001f0 a4 12 0d 39 f1 a9 0e be 66 35 fa b9 20 4a 45 bd
       0.00013453752 -0.13932015 -0.000477235 -0.048166394
000200 63 1f 14 3e e2 4b 94 bd bb 28 f7 bd a3 40 26 be
       0.14465098 -0.07241036 -0.120683156 -0.16235594
000210 23 c1 b7 bd 1e 09 33 3e c7 58 86 bc f6 0d 46 3e
       -0.08972385 0.17483947 -0.016399754 0.19341263
000220 14 7b 3c 3c 8b 13 2e bc 57 b2 e7 3d fe 27 d4 bd
       0.0115039535 -0.010624777 0.113133125 -0.103591904
000230 87 c3 13 be c2 e8 8a 3d 01 d7 b6 bc 3e 26 eb 3b
       -0.14430057 0.06782676 -0.022319319 0.0071761897
000240 75 a7 3b be 0b a4 4d 3d e7 67 0d 3e 80 00 aa 3d
       -0.18325599 0.05020527 0.13809167 0.083008766
000250 f0 91 16 be af 33 c6 3d 7a ce 3c 3d 86 14 c2 3d
       -0.14704108 0.096778266 0.04609535 0.09476571
000260 5c b6 1a be 2e 4b a0 bc 5a 2b cb 3c 18 97 93 3d
       -0.15108627 -0.019567098 0.024800945 0.07206553
000270 8f 01 e7 3d b9 1b 21 3c eb d0 35 bd be ec 4a 3e
       0.11279594 0.00983327 -0.044388693 0.19816872
000280 15 57 a5 bc 28 96 8e 3d 0b 28 df 3b 80 fd 51 bd
       -0.020183126 0.06962234 0.0068101934 -0.051267147
000290 b7 d6 24 3e da e5 8f 3c a2 63 ae 3d 26 bd 83 3d
       0.16097532 0.017565656 0.08515097 0.064325616
0002a0 31 bb 88 bc a6 70 24 bd 09 35 a5 bd e0 35 fb bd
       -0.016690822 -0.040146492 -0.08066756 -0.12266135
0002b0 26 23 21 be 2a 16 a8 3d a6 86 d3 bd 22 9c d1 bc
       -0.15736064 0.082073525 -0.103284165 -0.025587145
0002c0 28 9d f9 bc ce c3 2a 3d 84 4f 23 bd a5 15 a0 3d
       -0.030470446 0.04169064 -0.039870754 0.07816628
0002d0 a3 17 c5 bc ec 32 3f 3c 65 43 13 3e 91 e9 7f bd
       -0.024059122 0.011669856 0.14381178 -0.062478606
0002e0 f9 f3 4a ba 27 8d e2 3d 84 da 88 3d e1 3c e1 bc
       -0.0007742043 0.11062079 0.066823035 -0.02749485
0002f0 15 0a 94 bd 82 81 75 3e fb 1e bf 3d d8 60 8a bd
       -0.072284855 0.23975185 0.09332081 -0.06756753
000300 91 43 9b bd 4d 6a 2d bd 53 e3 91 3b 25 ee 0f 3c
       -0.07581247 -0.042337704 0.004452148 0.008784805
000310 03 01 33 bc ed 8c e2 3d 95 29 0d 3c fe ff ca bc
       -0.010925534 0.11062036 0.008615871 -0.02478027
000320 ed 48 39 3c b2 08 a3 bd 79 1b f0 bb f2 3c 62 bd
       0.011308891 -0.07960643 -0.0073274937 -0.055233903
000330 cd 7b 4f 3c 13 fc a2 bd 0a c2 9c bd 9d f2 72 bd
       0.012663794 -0.079582356 -0.076541975 -0.059313405
000340 18 ed c1 bd 6d 51 72 3d 5b 8a 81 3d 4f fd a7 3d
       -0.0946905 0.059159685 0.06325217 0.08202612
000350 aa 33 6a 3d a0 89 e0 bc 44 97 56 bd a2 fc 03 3d
       0.057178177 -0.027409375 -0.052390352 0.03222335
000360 a4 21 87 3d 85 5c 58 bd 0c ee 3b bd d7 a8 eb bd
       0.06598213 -0.05282261 -0.045881316 -0.11506813
000370 17 81 2d 3d ee a3 be 3d d6 ba 19 3d bd 33 3c 3d
       0.042359438 0.09308611 0.037531696 0.04594778
000380 97 1e 8c bd c5 81 1e bd bb ce 89 bd 02 fd 9d bd
       -0.06841772 -0.038697977 -0.06728884 -0.07714273
000390 7c f9 96 3d 42 22 3e 3d a0 36 95 bd 0b e2 4b bd
       0.07371804 0.04641939 -0.072858095 -0.04977612
0003a0 29 f5 7e bd f2 b3 e2 3b b9 bc b0 bd 83 e6 8a 3c
       -0.06224552 0.006918424 -0.08629746 0.01695562
0003b0 98 07 af 3c 3a f3 5f bd 99 79 31 bd 06 46 4a 3d
       0.021365926 -0.05467532 -0.043328855 0.049383186
0003c0 f1 0b 72 3d a1 5d 9f bd 71 01 ae bd 7f 17 18 bc
       0.05909342 -0.0778153 -0.08496369 -0.009282946
0003d0 2d 63 73 3d 7f 01 3c 3c 25 61 ad bd bf b7 8f bd
       0.059420753 0.011474966 -0.084657945 -0.07017469
0003e0 24 b2 cb bd 16 6b 5c 3d 92 53 96 bc cb af a3 3d
       -0.09946087 0.053813063 -0.018350396 0.07992514
0003f0 5c 02 24 3c dd b7 7c 3d c6 9a a6 3d a0 7d 00 3e
       0.010010328 0.061698783 0.081349894 0.12547922

g.2.bias f4 [100]
000000 6d 78 9e bd 7f 98 7d 3c 71 31 18 3d db 72 87 3d
       -0.07737813 0.015478252 0.037156526 0.06613704
000010 4e 72 aa 3d df 0f 88 3d 7b 3c 61 bd 2f 6b 96 3d
       0.08322583 0.06643652 -0.05498932 0.073446624
000020 ff e5 f0 3d 04 b1 72 3d 6c 11 e2 bd ef fa 6c bd
       0.11762618 0.059250847 -0.11038479 -0.057856496
000030 a7 17 86 bc 7e 74 0b bd 79 d2 c7 3d 30 83 49 3d
       -0.0163687 -0.034046642 0.09756941 0.049197376
000040 c7 c0 49 3d 8e 92 91 bd 94 95 74 bd 1c 4b 6c 3d
       0.049256112 -0.07108031 -0.05971296 0.057688817
000050 54 9c ae bc 6e a0 b9 bd 36 fd f4 bc ee ac e4 bd
       -0.021314777 -0.09063803 -0.029905897 -0.11165796
000060 37 cc 2c 3d 43 d5 c3 bd 0f 61 71 bd 7d ac e4 bd
       0.042186942 -0.09562161 -0.058930453 -0.11165712
000070 75 8d 0b be d5 f7 b8 3d a6 b5 99 3d 7c 93 0d 3e
       -0.1362818 0.09031645 0.0750535 0.13825792
000080 f8 cf 4b 3c 04 a0 d2 bd 0a 71 34 bd 53 cb 10 be
       0.01243972 -0.10284427 -0.044053115 -0.14140062
000090 de 22 2f 3e 57 18 c8 3d 4b d9 80 bd c9 9f a4 3d
       0.17103145 0.097702675 -0.06291445 0.08038289
0000a0 d5 58 f1 bd 20 af d9 bc 5b a0 4c bc 32 b6 42 bd
       -0.117845215 -0.026572764 -0.012489404 -0.047537036
0000b0 82 d3 78 3d 81 b6 68 bd 12 8e 62 bd ce 7e b6 39
       0.060748585 -0.056814674 -0.05531127 0.00034808222
0000c0 98 8b 64 bd 5b 1e fa bc 24 4b b5 3d e5 c8 43 bd
       -0.05579719 -0.030532053 0.088522226 -0.04779901
0000d0 eb 4c 0c bd e0 86 2d 3d 14 22 a7 3d 46 3a 8d 3c
       -0.034253042 0.042364955 0.08160797 0.017239701
0000e0 75 57 27 bc de a6 cd bd d4 95 7b bd 5a 1a ba bd
       -0.0102137225 -0.10041593 -0.061422184 -0.090870574
0000f0 f8 a9 bb 3c 60 42 aa bc 72 7d 70 bd 9c 63 f0 bc
       0.022908196 -0.020783603 -0.058713384 -0.029344372
000100 1a a9 0b bd 68 72 02 3d 4b 47 02 be 83 3c 55 bd
       -0.034096815 0.031847388 -0.12722509 -0.05205966
000110 e1 13 9b bd 74 e8 72 3d 63 3a 7e bd 87 72 a1 3c
       -0.07572151 0.059303716 -0.0620674 0.019707931
000120 a4 19 7c bd a2 2f 33 3d 70 46 92 3c d6 9e 2a bd
       -0.06154789 0.043746598 0.017855853 -0.041655384
000130 db d4 cf bc 28 c4 a0 3d fc 0e 83 bb e6 56 d0 bd
       -0.025370052 0.07849914 -0.003999589 -0.101728246
000140 d5 19 60 bd ad 15 de 3c dd f4 b5 3c a9 8f b0 bd
       -0.054712135 0.027109945 0.022211486 -0.08621151
000150 6a bd 97 bd 2e aa 18 3d f4 53 a2 3d 5a f4 d4 3c
       -0.07409175 0.03727167 0.07926169 0.025995422
000160 50 ae d6 3d ea 29 af bd 9a 2a 95 3c d7 75 80 3c
       0.10482466 -0.08552916 0.01820879 0.01568119
000170 b8 f6 94 3d a6 9f 4b 3d 57 7c 18 bd 5a 71 b7 bc
       0.0727362 0.0497128 -0.037227955 -0.022392917
000180 ec 37 5c bc 40 cf da bd 4d 22 1f bd e8 dc 09 3d
       -0.013441067 -0.10684061 -0.03885107 0.03365794

g.4.weight f4 [1, 100]
000000 de 8d 8f bb 29 33 4b bd c5 a1 12 bb 8e b5 e1 ba
       -0.0043809256 -0.049609337 -0.0022374254 -0.0017220245
000010 79 46 29 3c 2c 23 6a 3b 80 4b 54 bd 87 5f 89 3b
       0.010331743 0.003572653 -0.051829815 0.004192296
000020 09 d5 ab 3c 6d d6 af bc 5c 9b 47 bd 0e fc 77 bd
       0.020975607 -0.02146455 -0.048732147 -0.060543112
000030 ec 95 05 bc fb 2d 2c bd 7e 7e 82 3c a8 80 0c bb
       -0.00815342 -0.042036038 0.015929457 -0.002143899
000040 b3 29 97 3c 4c 50 32 3c aa ff 5c 3a 2e c9 20 bd
       0.0184525 0.010883402 0.0008430431 -0.03925436
000050 21 35 1b bd 4a 16 2a bc c3 eb 57 bc de 02 96 bc
       -0.037892465 -0.010381291 -0.013178769 -0.018311914
000060 63 39 b9 bc 24 74 07 3b d0 15 c9 bc 86 3d 52 bd
       -0.022610372 0.002066859 -0.024546534 -0.051328205
000070 ec df 73 bd 7c 02 60 39 46 2c b1 3d 9c cb 15 3d
       -0.05953972 0.0002136323 0.086510226 0.03657113
000080 85 8d 0e 3c fd 88 ae bc 27 e3 ab bc d3 0e 5e bd
       0.008700733 -0.021305555 -0.020982338 -0.054213356
000090 1c f2 93 bd 84 bb 22 3d 90 39 e0 bb 83 8e c5 bb
       -0.07223913 0.03972961 -0.0068427995 -0.0060289516
0000a0 17 ca 50 bd 1b 3f da bc 5a 66 ae 3b 69 23 54 bc
       -0.050973978 -0.02664142 0.00532226 -0.012947896
0000b0 20 cd 7a ba b2 2b d3 3b 58 20 22 3b 00 03 39 bc
       -0.0009567309 0.006444418 0.0024738517 -0.011292219
0000c0 83 23 10 bc 53 70 42 3c a5 a0 b4 3a 68 28 cc 3c
       -0.008797529 0.0118676005 0.0013780786 0.024921611
0000d0 d6 bc a3 3d 63 99 96 bd dd ac cc bc 95 4e 86 3c
       0.07995002 -0.07353475 -0.024984771 0.016394893
0000e0 4a 5b 86 3d cf d3 bb bd c5 a9 43 bc 84 48 85 bd
       0.06560381 -0.09171259 -0.011942332 -0.06507972
0000f0 00 7a 0e 36 15 d5 83 3c 27 a9 52 bc d4 bf 27 3d
       2.1230662e-06 0.016092816 -0.012857712 0.040954426
000100 d1 56 90 bb 57 3e 30 bc 60 97 f7 3d 15 2d ac 3b
       -0.0044048806 -0.0107570505 0.12089419 0.0052543976
000110 43 9c 31 bd 2c 53 34 3d 2a 7d 82 bd ee e7 7d bb
       -0.043361913 0.04402463 -0.063715294 -0.0038742977
000120 4d e7 d4 bc 3f cd c7 bb 15 5e 7c 3d 8c 64 9b ba
       -0.025989199 -0.0060974653 0.06161316 -0.0011855527
000130 8c 74 6d bd 0e 38 9f bb 20 4c d7 bb 67 e0 2d 3d
       -0.057972476 -0.004858977 -0.006570354 0.042450335
000140 8a 8a be bb 5f 17 6d 3c 4a 7a 93 bd 4b 46 b0 3b
       -0.005814855 0.014470904 -0.07201059 0.0053794733
000150 4d a0 27 3d 0e 6c 13 bc 53 1b 0f 3b ab b3 92 bc
       0.04092436 -0.00899793 0.0021836355 -0.017907938
000160 7f 55 6a 3c 43 e5 67 bc 5e f1 ed ba 6a bf 95 3d
       0.01430261 -0.014153781 -0.0018153598 0.073119
000170 16 dd fc 3b 90 a4 21 3b d2 c4 7d 3b 01 9c 22 3c
       0.007716785 0.0024664737 0.003872205 0.00992489
000180 5f 9c 07 3d e2 56 82 3d 1b 41 48 3d 90 b5 dd 3b
       0.03310811 0.06364228 0.048890214 0.0067660287
