models/german_ROSS_lin_l0.800_s4.pth (torch, 1217 bytes, 1 tensors)

g.weight f4 [1, 20]
000000 51 ae c8 3e 20 64 f8 be 6c 12 a6 3d 62 57 19 3c
       0.39195493 -0.4851389 0.081089824 0.009359213
000010 26 ca 08 be 60 1e 49 3e 7e 2f 16 3e 7f d0 ef bd
       -0.13358364 0.19640493 0.14666554 -0.11709689
000020 70 a0 b0 3d 9e b6 30 3e 3e bb 99 bd dc a2 1f be
       0.08624351 0.17257163 -0.07506417 -0.1558947
000030 4b b7 56 3d 8a 65 73 3d d3 de 8b 3d 7d 79 5c 3d
       0.052420896 0.059423007 0.0682961 0.053826798
000040 b5 f1 e4 3d be 52 c1 bd 8f 94 96 3d 5f a2 74 be
       0.111789145 -0.0943961 0.07352554 -0.23890065
