models/loan_ALLR1_mlp_l0.010_s1.pth (torch, 46309 bytes, 5 tensors)

g.0.weight f4 [100, 7]
000000 ad ad 47 3e ed 5b 3d be 3e 43 27 3d d7 9a 7f 3e
       0.19499846 -0.18492098 0.04083561 0.2496141
000010 f3 3c cd be 9c 19 a6 3e 2e 1f 35 bd 98 53 04 3e
       -0.40085563 0.32441413 -0.04421919 0.12922513
000020 71 81 a0 bc 7c 5c 9f bd 6a 62 47 3e 6c a1 86 bd
       -0.019592972 -0.07781312 0.19471136 -0.065737575
000030 dd da 99 3e 2b 30 81 be e5 ed 65 bd e4 b6 05 be
       0.30049792 -0.25232062 -0.056135077 -0.13058048
000040 e8 3b 1f bc 28 34 82 3d 0d 95 a7 3e 9d 8c 1f 3e
       -0.009718873 0.06357604 0.32730904 0.15580983
000050 cb f3 70 be e7 c7 94 be 18 80 02 3c 24 45 bf bd
       -0.235305 -0.29058763 0.00796511 -0.093393594
000060 bd e4 23 be 33 ae 8b bc a5 4e ab 3e 79 14 02 3e
       -0.16005225 -0.017050838 0.3345844 0.12703122
000070 e8 cc e1 be e4 34 6a 3e 4d 7c 92 bd 41 1e d6 3e
       -0.44101644 0.22871739 -0.07152615 0.41819957
000080 e4 4a 58 3e 1b a6 2c bf 44 cf 9d be ed ca 82 be
       0.21122319 -0.67440957 -0.30822194 -0.25545445
000090 3f bb 58 3e 19 a4 44 bd 76 52 35 3e f7 e4 98 be
       0.21165179 -0.04800806 0.17707238 -0.29862186
0000a0 a9 aa fc 3e 91 25 9f be 8f f5 de 3d 17 84 d1 3d
       0.49348953 -0.31083348 0.1088668 0.10230272
0000b0 19 7b 12 3d 89 3f 39 3d 99 32 a4 be 5a 1d 26 bd
       0.035761926 0.045226607 -0.32069853 -0.040555336
0000c0 ff b1 82 3d 3f e7 6c be 75 27 d2 be 7b 66 ec bd
       0.06381606 -0.23135088 -0.41045728 -0.11542984
0000d0 df 3a 2b 3e ca 81 2b be ac e0 62 3e 4d e7 d6 3e
       0.16721676 -0.1674873 0.22156018 0.41973343
0000e0 41 19 18 be 7b ad ab be c9 f0 88 3e fc 10 b9 bd
       -0.14853384 -0.33530793 0.26746204 -0.09036443
0000f0 5a c2 a2 be 6e b8 5a 3e 3d ef 42 3e 11 b9 dd 3e
       -0.31788903 0.21359417 0.19036575 0.43305257
000100 f9 84 4e be d9 18 a4 bd 3b 89 97 3c 00 85 1b 3e
       -0.20167913 -0.08012552 0.018498054 0.15187454
000110 ea 11 b0 be 75 53 74 be fa bc 08 3e 08 95 7f be
       -0.34388667 -0.23859961 0.13353339 -0.24959195
000120 e0 52 fd 3d 29 fc 70 be 2b 7c bc bd a9 57 53 3d
       0.12369323 -0.23533691 -0.09203371 0.05159727
000130 0c c6 c4 3e e8 1a 43 3e ec 7a 1e be b5 8f 7c 3e
       0.38432348 0.19053233 -0.15476578 0.24664195
000140 6c b3 6d be 1d 0a 99 be 33 ab 85 3e d4 36 c0 bd
       -0.23212975 -0.29890528 0.26107177 -0.09385458
000150 93 5e 44 3e ea 07 cc bd 9b 8d 28 bf 91 c3 04 3f
       0.19176702 -0.09962447 -0.6584107 0.5186091
000160 1a 05 01 3e 8d 3f 3b 3e 33 69 26 3e 85 fc 60 be
       0.12599602 0.18285961 0.16251068 -0.21971329
000170 f4 9c c1 3b ba f2 80 3d ea 09 52 be 81 f9 22 be
       0.005908603 0.062962964 -0.20511594 -0.1591549
000180 3a 32 3a 3e fa 15 00 39 3a 69 9f be 38 06 8c be
       0.18183222 0.00012215218 -0.3113497 -0.27348495
000190 e2 0e 9d 3e 5c 07 12 3d e1 cb 1c 3e 10 f1 a7 3e
       0.30675417 0.03565155 0.15312149 0.32801104
0001a0 5a 05 c2 be 81 81 98 be 43 fb 99 3e 26 c7 53 3e
       -0.37894708 -0.29786304 0.3007451 0.20681438
0001b0 13 b4 b9 3e 5f 3f bd 3d a7 93 45 3e a6 c5 d8 3e
       0.36270198 0.09240603 0.19294606 0.42338294
0001c0 fa 01 ac 3e b5 34 9a be 6c b9 0c 3e 8b ae 44 3e
       0.33595258 -0.30118337 0.13742608 0.19207208
0001d0 6b aa 49 3e d9 f0 f9 3e 3d 47 6d be f5 91 9f be
       0.19693916 0.48816565 -0.23171706 -0.31166044
0001e0 e9 95 2f be cd 66 2f 3e c3 1d b1 3e d0 0b 5e be
       -0.1714703 0.17129059 0.3459302 -0.21684194
0001f0 ac 0d bd 3e ed 2c 58 be e3 25 ab be 17 f4 fb bd
       0.36924493 -0.21110888 -0.33427343 -0.12302416
000200 3e 42 28 3e bf 86 a3 3e 83 db 83 be 78 6d 79 3d
       0.1643152 0.3193874 -0.25753412 0.060895413
000210 ac 34 22 3f 5b 0a 66 3e c2 14 cb 3d c6 f5 ed 3d
       0.6336162 0.22464888 0.099160686 0.11619143
000220 11 fc 9c 3e 68 00 82 3d 2f 9c 83 be 8c f5 cb be
       0.3066106 0.06347734 -0.25705096 -0.39835775
000230 8d ff c3 bd c7 d8 3e 3e 53 0d 41 be d9 fb 41 bc
       -0.09570227 0.18637381 -0.18852739 -0.01183983
000240 30 56 4a 3e ab 96 19 be 68 f4 84 3e 23 0a 79 3d
       0.1975944 -0.14998882 0.25967717 0.060800683
000250 08 43 1c 3f ff 97 5a 3e 99 97 43 be c6 f9 1d 3f
       0.6103978 0.21347044 -0.19100799 0.6170925
000260 e5 25 97 3d d6 2a d8 3e a5 85 9f be 65 fb 16 be
       0.07380275 0.4222018 -0.3115665 -0.14744337
000270 f7 a2 73 be d5 f9 15 bd db 9a d1 3e 8d 03 1f be
       -0.23792635 -0.03661521 0.40938458 -0.15528698
000280 79 79 ba be 53 a0 3b 3e 9d 83 8b bd 69 24 d4 3e
       -0.364208 0.18322878 -0.068122126 0.4143403
000290 88 f1 7e be ce b5 0f 3d 56 4d a1 bd 15 0a 38 be
       -0.24896824 0.03508549 -0.07876079 -0.17972596
0002a0 92 ea 9c be 58 58 a1 be 93 1e e3 bd d1 fe 33 3e
       -0.30647713 -0.31512713 -0.11089816 0.17577673
0002b0 55 25 91 bb 20 7b 6c bd 2a 3f 61 3f 5e 68 d5 3e
       -0.004429499 -0.05773461 0.87987006 0.41681188
0002c0 c5 39 3b 3e 83 b9 38 be da 9b c6 be 4a f8 93 3e
       0.18283756 -0.18039517 -0.3879078 0.28900367
0002d0 fb 44 09 be 48 ab 14 3e e8 98 bd be cd e0 0e be
       -0.1340522 0.14518464 -0.3703072 -0.13952942
0002e0 67 09 71 be 13 90 a6 3e d6 6e 75 be a4 ef 57 bf
       -0.23538743 0.32531795 -0.23968062 -0.8435004
0002f0 32 36 41 3d 70 94 90 be 43 d4 90 3d aa b0 30 be
       0.047170825 -0.2823825 0.07071736 -0.17254892
000300 b1 07 1d bd be 9b 0f bc db 23 02 3f a2 00 de be
       -0.038337413 -0.008765159 0.5083596 -0.43359858
000310 5b ec 8a 3e 44 9f 83 3d b7 9a c8 3e 9f 04 17 bd
       0.2713345 0.06426862 0.39180538 -0.03686964
000320 a8 20 b7 3d e0 6f d2 be 65 37 ac 3e 81 41 28 be
       0.089417756 -0.4110098 0.33636013 -0.16431238
000330 7b 13 78 3e 8b c3 61 bd 2c 0b 83 bc 9d 54 05 bd
       0.24226181 -0.055118125 -0.015996538 -0.032551397
000340 8e ff 95 3e 18 3e a5 3e f5 91 af 3e 7e 12 f8 3d
       0.29296535 0.32273936 0.34291044 0.12112902
000350 fd 32 3b bc 13 17 7d 3e ab 21 c8 3e d6 e2 21 3f
       -0.011425731 0.24715833 0.39088187 0.6323675
000360 ef e9 fa 3e 00 9d 6e be 54 40 f9 be ee d9 28 3e
       0.49006602 -0.23302078 -0.4868189 0.16489384
000370 12 0b a7 be 0a 17 43 3e d0 4c 4d bf b5 ff ab be
       -0.32625633 0.19051757 -0.8019533 -0.33593526
000380 46 2e 85 3e 6f a6 69 be 31 4e 68 bc 3c e8 19 3e
       0.26011866 -0.22817396 -0.0141787985 0.15029997
000390 d8 4c b2 3d 3f 32 2c 3f 81 76 9b bc 3b 55 4a 3d
       0.08706063 0.6726417 -0.018977406 0.04939769
0003a0 e1 15 8c 3e 9c f4 07 be 07 65 fc bd 55 e5 83 3e
       0.27360442 -0.13276905 -0.12323957 0.25760904
0003b0 5a 6b c3 be db 51 aa 3e 87 7c 33 3e 80 1f c9 be
       -0.3816784 0.33265576 0.17527972 -0.39281845
0003c0 ca 9c 97 be d4 01 2c be 94 3d 21 3e 11 6b 94 be
       -0.29611808 -0.16797572 0.15746146 -0.28987935
0003d0 df 29 6e be ee c2 a1 be 1e 1e d4 be 4d 79 39 be
       -0.2325816 -0.31594032 -0.41429228 -0.18112679
0003e0 a4 e6 c1 be 78 54 6f 3e 1d 13 13 3f 48 35 6c be
       -0.37871277 0.23372066 0.5745104 -0.230672
0003f0 44 2c ab bd ca 7b a7 3e ec cb 31 3e 67 8f 05 be
       -0.083580524 0.3271163 0.17362946 -0.13042985

g.0.bias f4 [100]
000000 45 30 81 be 01 85 c9 be 52 d3 45 be 1f d5 91 3e
       -0.2523214 -0.39359286 -0.19318894 0.2848291
000010 e4 46 aa bc 40 d6 9e be 96 0f e9 3e 2a 61 8c 3e
       -0.020785756 -0.31022835 0.45519704 0.2741788
000020 10 b3 85 3e 9a 6f 78 be 6f d8 0b bd 15 a2 2e 3d
       0.26113176 -0.24261323 -0.034141954 0.042635042
000030 a2 23 12 3f b3 04 32 be c8 d3 e3 be eb 44 58 3e
       0.5708562 -0.17384605 -0.44497514 0.2112004
000040 09 4d 84 bd 13 23 d9 3b 5b 95 03 bb 02 70 8d be
       -0.06460006 0.0066264956 -0.0020078036 -0.27624518
000050 9d 08 06 3f a2 5f a0 3e 1d 4b a7 3e e5 92 1c bf
       0.5235689 0.31322962 0.32674494 -0.61161643
000060 7a 1d 49 3e f3 3a 12 3f da 90 31 be 0a 04 c1 be
       0.1964015 0.571212 -0.17340413 -0.37698394
000070 10 85 f0 3d 8f 70 8d be 5b 0f 37 3f d1 81 03 3f
       0.1174413 -0.27624938 0.71507806 0.5136996
000080 59 67 2c 3e 76 8a 91 be 92 86 d7 3e 81 4a 8d 3e
       0.16836299 -0.2842595 0.42094857 0.27595904
000090 99 18 8d 3e 7f 7b 8b be ed 61 bf 3e 0f 5c 90 be
       0.2755783 -0.27242658 0.373794 -0.28195235
0000a0 e2 0f e2 be 54 76 e4 be 56 33 52 3b 4f 13 a1 3e
       -0.44152743 -0.44621527 0.0032074056 0.31460044
0000b0 9e 1e a7 be 8d 49 8d 3e c6 a2 12 3f db b5 00 3f
       -0.32640547 0.27595177 0.5727962 0.5027749
0000c0 34 38 11 3f 1a f8 b7 be 3a a6 b6 3e ef ce 02 3f
       0.56726384 -0.35931474 0.35673696 0.51097006
0000d0 d6 8a ca 3e de f4 b2 be 10 06 51 be b7 a1 e8 3e
       0.39559048 -0.34952444 -0.20412469 0.4543588
0000e0 6e c9 23 3f c6 af c3 3e c1 74 45 be de fc d4 bd
       0.6397923 0.38220042 -0.1928282 -0.10399793
0000f0 23 d8 e0 be 23 08 da be e6 a8 a3 3e ce a7 e8 be
       -0.439149 -0.42584333 0.31964797 -0.45440525
000100 05 5c d6 3c 5e 62 1c 3e 6e 3c d9 be 8b e5 f2 3e
       0.026166925 0.15271899 -0.42428917 0.47440752
000110 b2 32 1e be 94 69 9e 3e cb 09 d8 be 9c 16 89 be
       -0.15449026 0.30939925 -0.4219497 -0.26775062
000120 fc 1d af be b7 4d fe 3e 3b 63 06 3f 62 dd 86 bd
       -0.34202564 0.49668667 0.52495164 -0.06585194
000130 16 cf 43 3c 5f 29 4f be 8d 60 07 bf 06 0c 30 be
       0.011951229 -0.20230626 -0.528817 -0.17192087
000140 5b 50 ab be d6 50 84 3e 7b af 49 bd 6f 58 0c 3d
       -0.33459744 0.25842923 -0.049239617 0.034264024
000150 df 0b d8 be b8 f9 eb bc d6 99 d5 be a8 82 ef be
       -0.42196557 -0.028805599 -0.4171893 -0.4677937
000160 71 23 c6 3e a6 8d cb 3d 10 52 c3 be 01 d2 9a bd
       0.38698915 0.09939127 -0.38148546 -0.07559586
000170 56 54 d2 3d 46 06 a8 3e 9c 6e 1a 3f 45 6d 8c 3e
       0.10269992 0.32817286 0.60325027 0.27427116
000180 b5 5a e9 3e be cc 60 be 5a 1d 87 3e 67 3c c6 be
       0.45577016 -0.21953103 0.2638958 -0.38717958

g.2.weight f4 [100, 100]
000000 27 cf f3 3b 11 96 d6 3d ca d9 ec 3d a4 d1 f4 3d
       0.007440466 0.10477842 0.115649775 0.11954048
000010 0e 86 f1 bd e2 7e 98 bd 1b ff 04 be 1d 5e 08 bd
       -0.11793147 -0.07446076 -0.1298794 -0.03329288
000020 51 d5 29 be 68 18 c3 bd b7 98 6e bc 05 cd 84 bc
       -0.1658528 -0.095261395 -0.014562777 -0.016211042
000030 1c 44 af bd e1 b0 ba 3d 15 67 24 bd 66 4b 45 3d
       -0.08557913 0.09115768 -0.04013737 0.04816761
000040 66 d2 96 3d dc a2 64 3d 96 78 02 3d 7d 5b 82 3b
       0.07364349 0.055819377 0.03185328 0.0039781914
000050 7b c8 cb 3c 43 8f 8e bd 5a c5 0d be 0d 43 2a 3e
       0.02487587 -0.06960919 -0.13844815 0.1662714
000060 8a 14 17 3d 59 eb 21 be 00 3d dc bd bd a5 31 bd
       0.036884822 -0.15812434 -0.10753822 -0.04337095
000070 08 e3 e4 bc 00 48 51 3e b0 42 22 be 5f 37 12 be
       -0.027940288 0.20437622 -0.15845752 -0.14278935
000080 6e 03 8f bc 70 a2 76 3c fe da 3a be 18 16 ac bc
       -0.01745769 0.015053377 -0.18247601 -0.021006629
000090 59 06 d2 3d fd 47 b3 bd 8a e5 2a 3c 4d ee dd 3d
       0.10255117 -0.08753965 0.010430703 0.10836468
0000a0 97 64 ac 3d 99 83 9b 3d 95 c9 3c be f0 58 d6 3d
       0.084176235 0.0759346 -0.18436272 0.10466182
0000b0 a9 e6 9b 3d 55 7e 7b be a5 d7 cf bd f7 26 46 be
       0.07612354 -0.2455991 -0.10148553 -0.19350801
0000c0 5a 64 8e be 57 f0 be 3c c3 20 3e be fc 54 a5 3d
       -0.27810937 0.023307962 -0.18567185 0.0807285
0000d0 17 4c 65 be 90 78 79 3d 56 3c ab 3d f2 58 24 bd
       -0.22392307 0.060905993 0.083611175 -0.040123887
0000e0 0d d6 35 be 16 aa ab be de 4b 46 3d 3e bb 19 3d
       -0.17757435 -0.33528203 0.048412196 0.037532084
0000f0 55 4a 8d 3d 0d 25 75 3d 9c b1 17 bc bf d7 40 3c
       0.06898943 0.059849788 -0.009258654 0.011770188
000100 25 8e 02 3e e8 c3 98 bd 2b e5 aa 3c 51 e4 31 be
       0.12749536 -0.07459241 0.020861229 -0.17372252
000110 43 95 12 3e 9d 9d 87 bd 12 8a 8c 3d 93 17 a2 3d
       0.14314751 -0.06621859 0.06862272 0.07914653
000120 f3 01 e1 3d 5f 02 af be 7c e7 39 be c3 e8 86 3c
       0.109867 -0.34181497 -0.1815471 0.016468411
000130 89 7f ef bc 1f 94 21 3d d7 45 16 be e8 d6 35 bd
       -0.029235618 0.0394479 -0.1467508 -0.044394404
000140 b8 0e 45 3d 4b 82 4f be 8e 7a de 3d 77 b2 01 3e
       0.04810974 -0.20264547 0.10863219 0.12665735
000150 61 57 06 3e f3 f2 1d 3d 7e bf 72 3d 7f c3 a2 3e
       0.1311927 0.038561773 0.059264652 0.31789777
000160 65 3d 3e bd 60 f7 3b 3b 47 ac 03 3e d8 8b 89 3d
       -0.04644527 0.0028681383 0.12858687 0.06716126
000170 9b b4 9e bd cc 0d a2 3d 19 35 39 bc cb c9 97 bc
       -0.077492915 0.07912788 -0.011304163 -0.01852884
000180 67 86 8e bc 38 2f 95 3d a7 f7 ff bd 70 bc 91 3d
       -0.017398072 0.07284397 -0.12498408 0.0711602
000190 df 1b 0c bd 42 a4 cb 3d 1c 1a f2 3d 69 9b 1b 3b
       -0.034206267 0.09943439 0.11821386 0.0023743755
0001a0 14 eb 1b bc 77 24 c5 3a 07 80 70 be 58 63 c3 bd
       -0.009516496 0.0015040775 -0.23486339 -0.09540433
0001b0 2e f1 0d be 7f e3 bf bd 2a 46 19 bd e9 69 93 3b
       -0.13861534 -0.09369563 -0.03742043 0.0044987095
0001c0 e2 a2 11 be 42 3f 5e 3e 4e 57 ae 3d 03 86 04 3e
       -0.14222291 0.21703818 0.08512746 0.12941746
0001d0 a2 63 1a 3e df 55 e7 3d d0 4c de 3d 5a 01 89 bd
       0.1507707 0.112956755 0.108544946 -0.06689711
0001e0 83 b7 71 bd a1 3f 2e be 87 23 2b be 5f e9 70 3e
       -0.0590129 -0.1701646 -0.16712771 0.23526524
0001f0 d7 cd 04 3e dc e5 bf be e0 cb b6 bc de 5b 09 3e
       0.12969147 -0.37480056 -0.022314012 0.13413951
000200 69 c4 75 bd 17 00 ef 3e 22 ed 2f be 11 d9 de be
       -0.060001764 0.46679756 -0.17180303 -0.43524984
000210 1f 5f a0 3d dd 8d 2e 3e 4f 9d 98 be e4 f2 1f 3e
       0.07830643 0.17046304 -0.29807517 0.15619999
000220 36 9b 66 3b 3b 1b 8d bc 08 1b a3 bd af ca 97 3c
       0.0035187728 -0.017224899 -0.0796414 0.018529264
000230 a0 3b 93 3a ae bb 8f 3e 59 99 c7 bd c8 4d 00 3e
       0.001123298 0.28072876 -0.097460456 0.12529671
000240 1f d2 2c 3e 64 8e 1d be b9 3e 7a be b4 86 a7 be
       0.1687703 -0.15386349 -0.2443799 -0.32719958
000250 51 3a eb be d1 56 dd bd 97 cd ea bc 2b f9 64 bd
       -0.4594293 -0.108075745 -0.028662486 -0.055901688
000260 b7 1c 94 be 59 23 b7 3e 70 e2 b4 bc 37 fd 5b be
       -0.28928158 0.35769156 -0.02208063 -0.21483313
000270 4c b8 c8 bb 78 53 b1 be bf 3d 83 3e 9f ec 4d 3d
       -0.0061254855 -0.34633994 0.25633046 0.050274488
000280 ee 5c 15 3e 7b d9 9a 3d f6 1f 36 bc ba 44 2e be
       0.14586231 0.07561012 -0.0111160185 -0.17018405
000290 5e 0f b7 3e b9 3f aa bd a2 6b 15 3e b0 2c 96 bd
       0.35753912 -0.083129354 0.1459184 -0.07332742
0002a0 88 53 00 3e d8 b6 28 be 49 a4 8d 3e 15 4c ca 3c
       0.12531865 -0.16476 0.27664402 0.024694482
0002b0 eb 99 a8 3d 66 f9 00 bf 6a 30 66 be 4d ba 37 bc
       0.082324825 -0.5038055 -0.22479406 -0.011213851
0002c0 0c 64 84 bd 49 68 a6 bd 94 ba ac 3d 71 23 1e 3e
       -0.06464395 -0.081253596 0.084340245 0.15443207
0002d0 39 8d 08 3e a6 0b 35 be fb 8e 06 3e dd 93 b4 bc
       0.13335122 -0.17680225 0.1314048 -0.022043163
0002e0 ba 05 61 3d 5d 39 27 3e 0a 63 3f bd e9 72 fc 3e
       0.054937102 0.16330476 -0.04672531 0.4930642
0002f0 53 bd 7d be 1a 2c d9 bd 23 93 8c 3d 61 60 5e 3e
       -0.24779253 -0.10604115 0.068640016 0.21716453
000300 f4 5a e9 bd 83 ea 81 bd b8 94 90 bd 0a 61 ab 3d
       -0.11394301 -0.06343558 -0.07059616 0.08368118
000310 b6 73 95 3c 0e 36 c5 bd a2 6c a8 be c0 2c 80 3e
       0.018243652 -0.09629451 -0.3289538 0.25034142
000320 71 b7 50 bd b0 4d f0 bd cb ca 34 bd 2e 3e 1d bc
       -0.050956193 -0.11733568 -0.04413871 -0.009597344
000330 88 4b 6b bd 3c 5b 5a bd ad 83 ec 3d 7b e8 de bd
       -0.05744508 -0.053309664 0.11548553 -0.10884186
000340 2e 26 27 bd 7b cb de bd 24 20 04 3c 7a 35 10 3e
       -0.040807895 -0.108786546 0.008064304 0.140829
000350 89 bb d4 3d 76 e3 86 3c 6a 34 cd bd 36 67 2d bd
       0.10387332 0.016465884 -0.10019763 -0.042334758
000360 8e 4e f1 3d 32 90 63 bd 7c d9 64 bd f6 af 38 bd
       0.11782561 -0.055557437 -0.05587147 -0.045089684
000370 9a 7a a9 bd be 14 da bc 29 e1 0d bd 46 eb 93 bd
       -0.082753375 -0.026621219 -0.034638558 -0.07222609
000380 89 9d c1 bd 60 0c af 3d 2a 75 98 bd 73 cd 43 be
       -0.094538756 0.08547282 -0.07444222 -0.19121341
000390 bc f0 e7 bd ca 1f dc 3c 29 3a 80 be 07 cd 1a be
       -0.11325213 0.026870627 -0.25044373 -0.15117274
0003a0 f9 44 ba 3d 6c 46 e6 bd b6 77 26 bb 7c fd 3a 3d
       0.09095187 -0.11243901 -0.0025400943 0.045651898
0003b0 25 28 83 bd fc b6 19 3c dd 77 53 bd 3f 8c 17 3a
       -0.06404141 0.009382006 -0.051627982 0.0005781091
0003c0 bf 45 85 bd 36 01 26 3e 56 05 09 be bf 3c 2b 3e
       -0.06507444 0.162114 -0.13380942 0.16722392
0003d0 af a6 34 bd e7 b6 65 3d f8 f9 62 3e ce 01 16 3e
       -0.044104274 0.056082632 0.22165668 0.14649126
0003e0 46 1c 15 be c5 d2 0c bd f1 67 33 be 6d ba 24 3e
       -0.14561567 -0.034380693 -0.17520119 0.16086741
0003f0 18 6a cf 3b 51 c8 6f be d3 7d ac 3d 31 6e 2f 3d
       0.006329786 -0.23416258 0.084224366 0.042829696

g.2.bias f4 [100]
000000 c7 9d 96 bd 76 d6 4f be 63 4c 1d 3e a2 ff 32 be
       -0.073543124 -0.20296654 0.1536117 -0.17480329
000010 cd 47 6f 3e 0a 5b b6 3c 7c 83 9e 3b a1 05 8b be
       0.23367234 0.022260208 0.0048374515 -0.27152732
000020 f5 27 74 be 90 88 2b 3e 35 4c 28 bd 0f 69 be 3d
       -0.23843367 0.16751313 -0.0410883 0.09297382
000030 ac 1f 78 be 5d 98 3d 3e a4 bc 4c be de 35 3c be
       -0.24230832 0.18515153 -0.19993836 -0.18379924
000040 c0 7f 86 be 4a 74 ef bd f4 d7 40 3e b8 d9 58 3d
       -0.2626934 -0.11692102 0.1883238 0.052942008
000050 1b 29 f1 bd 2b 90 83 3e 37 dd 70 3e b4 19 80 3e
       -0.11775418 0.2569593 0.23521887 0.2501961
000060 0a ee 9a be a4 3a 9d 39 85 88 2c 3e 44 de 1c 3e
       -0.30259734 0.00029989064 0.16848953 0.15319163
000070 90 cd 11 3e 50 77 0b be 32 d0 7e be 4e 89 79 3e
       0.14238572 -0.13619733 -0.24884108 0.24368784
000080 c5 fd 92 bd 1b 76 18 be b4 33 47 3e 39 7c 81 be
       -0.07177309 -0.14888804 0.19453317 -0.25290087
000090 90 57 c3 bd 53 fa 2f 3e b5 be c9 3d 86 a9 b7 3e
       -0.095381856 0.17185335 0.098508276 0.35871524
0000a0 87 e9 90 be 01 b8 4a 3e 66 84 8d be 9d 6b 85 3e
       -0.28303167 0.19796754 -0.27640074 0.26058665
0000b0 58 fc 16 be 52 e1 2f 3e 9b 90 31 be f2 cc 2c 3e
       -0.14744699 0.17175797 -0.17340319 0.16875055
0000c0 bd 2a 8b be 82 7b e4 bc 46 5e 09 3e 11 58 03 be
       -0.27181044 -0.027890924 0.13414869 -0.12826563
0000d0 6e 0e 82 be 59 96 dc bd 20 28 8e be e9 e5 38 be
       -0.25401634 -0.10770864 -0.27764988 -0.18056454
0000e0 40 f9 0f 3e 4a 67 11 be 59 0f 1a 3d c1 54 9e be
       0.14059925 -0.14199558 0.037612293 -0.30924037
0000f0 44 ed 5f 3e 52 19 5b be 0f e7 e5 3d b5 c6 03 3e
       0.21867853 -0.21396378 0.112257116 0.1286877
000100 99 1e b0 be 82 0f a2 3d 02 10 a1 be 96 e0 d2 be
       -0.34398344 0.07913114 -0.31457525 -0.4118697
000110 d2 6a 89 3e ff dd 6d be 23 d4 ab 3d 4b bb f5 3b
       0.2683931 -0.23229216 0.08390071 0.0074991337
000120 f2 f2 9e 3e 7e 23 32 3e 71 93 98 be 82 83 ab 3e
       0.31044728 0.17396352 -0.2979999 0.3349877
000130 df fd c1 3c a7 79 30 be 26 f0 4e 3b 2a 2f a9 bd
       0.023680625 -0.17233907 0.0031576245 -0.08260949
000140 6e 2a 7b 3e 27 a4 9d be 86 ba 82 3e c2 71 5e bd
       0.24527904 -0.307893 0.2553293 -0.054307707
000150 5d 73 db bd 81 72 7b bc 88 c8 db 3d 6a 06 ac be
       -0.10715363 -0.015347124 0.10731608 -0.33598644
000160 28 33 4c 3e 7d 2a 6a be 67 69 96 3e ee 8f 57 3e
       0.1994139 -0.2286777 0.2937729 0.21050999
000170 c2 0a 53 be 71 7c 74 3e 92 ed 8c be a1 51 f2 bd
       -0.20609573 0.23875596 -0.27525002 -0.11831976
000180 ea 11 23 3d fe 3d 6f 3e e2 a8 32 be 63 51 5a 3d
       0.039812006 0.23363492 -0.17447236 0.053300273

g.4.weight f4 [1, 100]
000000 8d fd fb 3d 82 45 6a 3e 93 ba 96 3c 13 b7 aa bc
       0.1230422 0.22878078 0.018399512 -0.02083925
000010 0f 95 c5 be 82 fa 92 bb 84 c0 99 3a a5 ba ea bd
       -0.38590285 -0.0044854293 0.0011730348 -0.11461381
000020 e6 17 fe bd b7 fb 1b 3e 47 27 2f 3e af c9 7b 3e
       -0.12406902 0.1523274 0.17104827 0.24588655
000030 2c 41 76 bd e7 b4 22 be 90 30 a7 bc db a9 15 bd
       -0.060120746 -0.15889321 -0.020408899 -0.03653894
000040 0c 1c 5b 3e bc a4 9e bb e9 d1 f2 3c d1 f2 9b 3b
       0.21397418 -0.004841415 0.029641109 0.0047591706
000050 c9 cf 35 3e 23 b0 45 3e d7 a2 de 3d 84 a3 00 3d
       0.17755045 0.19305472 0.10870903 0.03140594
000060 0a 51 25 3e 86 03 4c 3a 8f ef 85 3b 88 05 1b 3e
       0.16144195 0.00077825075 0.0040873955 0.15138829
000070 b5 d8 48 3e 53 aa 73 3e 57 99 91 be 5a bf b4 3c
       0.19613917 0.23795442 -0.28437302 0.0220639
000080 97 c1 a7 bb 2d d4 14 be fc 43 2b 3d ab 70 b2 3e
       -0.0051195133 -0.14534064 0.04181288 0.34851584
000090 94 46 0d bd b9 ee fe bd f5 e0 33 3e 7e 45 02 3e
       -0.034491137 -0.124478765 0.17566283 0.12721822
0000a0 3a 9e 98 3e 1c 6e 47 be 3d 9c 4d be 38 df 63 3e
       0.29808217 -0.19475597 -0.20079131 0.2225312
0000b0 12 47 91 bd 65 9d 24 3d 4c a9 2b be cc c9 2a 3b
       -0.07093634 0.040189166 -0.167638 0.0026060222
0000c0 68 fd 0a be 84 9a 6c be 3f df 77 be b7 6e 0b be
       -0.1357323 -0.23105818 -0.24206255 -0.13616453
0000d0 d3 ae 27 3e 2b b5 2a 3e c2 41 18 bd 94 5a 4a bb
       0.16375284 0.16670673 -0.037172087 -0.0030876743
0000e0 85 8d 84 3c 24 6e 75 3e 32 02 ce bb ed 2a 36 be
       0.016180763 0.23967797 -0.006286883 -0.17789812
0000f0 51 8e 11 3e 46 0a 28 be ad 22 07 3c 55 e2 da 3d
       0.14214446 -0.16410169 0.008248013 0.10687701
000100 ca 91 18 be 5c 37 18 be 18 41 3d be 87 4f 7a be
       -0.14899364 -0.14864868 -0.18481863 -0.244444
000110 ab 2f 19 3e 9b ee 01 be fc e1 dc bd 03 10 9a 3c
       0.1495959 -0.12688677 -0.107852906 0.018806463
000120 da 76 02 3e 71 b6 9b 3d 5f 25 c3 3e 8a cf 50 3e
       0.12740651 0.07603157 0.3811445 0.2039167
000130 e0 c8 d9 3d 25 9c a8 bb 91 d5 49 be ce 01 2b 3e
       0.10634017 -0.005145567 -0.19710375 0.16699907
000140 75 da 9e be 6e 3a 87 be c3 4b 72 3d e9 16 bd be
       -0.31026044 -0.26411766 0.059154283 -0.36931542
000150 90 11 3f be 92 c1 cb bb e2 65 85 3c 5f b7 dd bd
       -0.18659043 -0.0062181437 0.016283933 -0.10825991
000160 82 f8 09 3e 8c cc 02 be 56 28 cb 3e c8 34 18 3e
       0.13473704 -0.12773341 0.3967921 0.14863884
000170 f6 26 fb bb 20 46 8a 3d 23 b1 de bd 48 ca 28 bd
       -0.0076645566 0.067516565 -0.1087363 -0.041208535
000180 28 cd a6 3b 8f ee 9e 3d a5 9e 3b bd c8 7d 46 3c
       0.0050903745 0.07760345 -0.045805592 0.0121149495
