models/loan_ALLR_mlp_l0.010_s0.pth (torch, 46309 bytes, 5 tensors)

g.0.weight f4 [100, 7]
000000 e3 30 dc 3d 26 db 38 3e 22 22 a7 be 22 c6 fa bd
       0.10751512 0.18052348 -0.3264323 -0.12244822
000010 7a 15 7b 3d 83 f8 46 3d 57 91 53 be 02 6e 9e 3e
       0.06129978 0.048576843 -0.20660912 0.30943304
000020 75 24 90 ba e0 bd fb 3c ae 88 a1 bb 85 7f 05 3c
       -0.0010997193 0.030730188 -0.0049296236 0.008148079
000030 59 a7 15 bf 20 02 11 bf 9a bb 12 be b0 2b 05 3e
       -0.5845848 -0.5664387 -0.14329377 0.13004947
000040 79 a9 d3 3d eb ff 7a 3e c2 24 63 be 10 87 ac be
       0.10335059 0.24511687 -0.2218199 -0.33696795
000050 82 40 02 3e b4 2b 69 3e a3 4b 0e be a1 db 4a 3e
       0.1271992 0.22770578 -0.1389604 0.19810344
000060 16 1b 92 be 2e a6 65 bd 37 9c 0f 3f 41 76 d5 bd
       -0.2853629 -0.056066684 0.5609774 -0.10422946
000070 ad 0e 85 be ff 6f c3 bd 16 9c 00 bd b2 e3 9d 3e
       -0.2598776 -0.09542846 -0.031398855 0.3083778
000080 9e c9 6e be d9 a0 af be 7a 7c c1 be 75 a4 ca be
       -0.23319098 -0.34302405 -0.3779028 -0.39578596
000090 cf fb 5d be af 08 ab 3e 48 f1 bf 3d b4 f1 2d 3e
       -0.21678089 0.33405063 0.093721926 0.16986734
0000a0 53 4c 40 3d b9 18 05 be 9b bd 08 bc 83 9a 89 be
       0.04694779 -0.12997712 -0.008345987 -0.26875696
0000b0 bb eb 4f be 74 8d 93 be ff da 25 3e d7 0a 83 3e
       -0.20304768 -0.28818858 0.16196822 0.25594208
0000c0 21 8f 63 be 39 22 a2 bd 4c d8 8e 3e 91 0a 82 3e
       -0.22222568 -0.07916684 0.27899396 0.25398687
0000d0 ed 71 30 3e ee d4 0b 3e d8 e5 22 3f 66 6c 4a be
       0.17230959 0.13655445 0.63631964 -0.19767913
0000e0 af 14 91 3d 41 8a 4e be bb 17 70 be 45 5b 3b be
       0.07084023 -0.20169927 -0.23446552 -0.18296535
0000f0 15 61 6f 3e 04 4c 96 3e b6 ea 9d be f3 d3 88 bc
       0.23376878 0.2935487 -0.30843133 -0.016702628
000100 ea df c2 3d 4e 62 ee bc c1 be 22 3d 2e de 03 3e
       0.095153645 -0.02909961 0.0397327 0.12877724
000110 0b ac cf 3d 5b 3d 29 3f 93 2a 46 be fb 43 9d bc
       0.101402365 0.66109246 -0.19352178 -0.019197455
000120 12 5f 1e 3e 25 2c 92 3e 2b 9d 70 3e 77 1f 04 3f
       0.15465954 0.28549305 0.23497455 0.5161051
000130 4e db a8 bd ea c4 96 be 87 fc f2 bd d6 7b 92 be
       -0.08244954 -0.29447109 -0.11864572 -0.28610104
000140 6d 73 80 be ec ce 8c 3e 5f a8 00 3f 03 77 fe be
       -0.25088063 0.2750162 0.50256914 -0.49700174
000150 e3 a2 4d 3e fc 07 84 3d af ef ef bc 90 a1 c0 bd
       0.20081668 0.064468354 -0.029289095 -0.094058156
000160 30 e3 b6 3e 15 29 af be 41 c6 c9 3d 47 8b 7f 3e
       0.35720205 -0.3421103 0.09852267 0.24955474
000170 1d 95 44 3d 4b df 81 3e 51 17 55 be d3 1f 2d be
       0.047993768 0.25365672 -0.20809676 -0.16906671
000180 7d d6 41 3e 40 ff c9 3d 22 9f 65 be 45 f3 15 be
       0.18929477 0.09863138 -0.22423986 -0.14643581
000190 5f f5 8e 3e 4c 7b 80 3e fc 5a 36 be 01 45 1d be
       0.27921578 0.25094068 -0.17808145 -0.15358354
0001a0 13 b9 ea be 21 eb 2b 3d c6 0e a2 be 65 6a 7c be
       -0.45844325 0.041972283 -0.31651896 -0.24649961
0001b0 22 a6 ea 3c d9 97 92 3d 76 4d a4 be fc 1e a8 3e
       0.028643671 0.07157869 -0.32090348 0.3283614
0001c0 73 62 1e be e9 38 97 3e 08 50 8f 3e 21 e4 72 be
       -0.15467243 0.29535607 0.27990746 -0.23719837
0001d0 4b 40 dd bd a9 6a dc ba 3d ea ed bd cd d8 b9 3d
       -0.108032785 -0.0016816455 -0.11616943 0.090745546
0001e0 af 8d 96 3e 87 2d 93 3b fa 08 3e be 96 a6 51 3e
       0.2940497 0.0044915113 -0.18558112 0.20473704
0001f0 14 42 05 bf 5b 80 6d be b8 90 5d be 85 87 4b be
       -0.5205395 -0.23193495 -0.21637237 -0.19875915
000200 99 55 c3 bd 27 6f 13 be f1 01 17 3d 2c bf 85 3d
       -0.09537811 -0.1439787 0.036867086 0.06530604
000210 a1 0c 57 be 77 c2 f8 bd 74 9b 3f 3e 6e aa 53 bd
       -0.21000911 -0.12146466 0.18711644 -0.051676206
000220 b9 94 26 bd 66 df 39 be 35 3f 5f bd db 32 67 3e
       -0.040669177 -0.18151626 -0.05450364 0.22577994
000230 3a db b9 3e 79 b6 a3 3d f4 f1 b8 3e ae 38 4a 3e
       0.3630007 0.07993788 0.36122096 0.19748184
000240 04 dd a0 be 4b 21 a2 be 8b 0e 5c 3e 8a 81 42 3d
       -0.31418622 -0.31666026 0.21489923 0.04748682
000250 f6 2a 1f be bf ea 99 be 54 41 bd be 40 f8 b9 be
       -0.15543732 -0.3006191 -0.36963904 -0.36322212
000260 b1 4e b4 be 2c 2e 7a bd 5f 69 2a 3e 41 fe a0 be
       -0.35216287 -0.06107919 0.16641758 -0.3144398
000270 52 e5 c5 3e e1 b8 85 be 21 f9 a1 bc 45 f0 6c be
       0.3865152 -0.26117614 -0.019772114 -0.2313853
000280 5a 9f 72 3c dd 8b 3f 3d 7f 25 85 be 20 8b 86 be
       0.0148085 0.046764243 -0.2600517 -0.2627802
000290 12 40 a6 bc ce c6 65 3d 90 fc d4 be ec 80 13 3e
       -0.020294223 0.056097798 -0.4159894 0.14404649
0002a0 61 e0 d0 be c5 ce 64 3d 84 6e ef 3e 9d 23 6e be
       -0.40796188 0.055861253 0.46764004 -0.23255773
0002b0 77 f7 83 3e 90 9a 9e 3e 8e 48 d0 be a9 eb 99 3d
       0.25774738 0.30977297 -0.40680355 0.07515652
0002c0 d4 ab 14 3d 08 27 b5 bd 45 0f 9c 3e d0 6a c8 be
       0.03629668 -0.08845335 0.304804 -0.3914399
0002d0 9e e2 f3 3d a9 e6 8e bd fc fa 07 3e 3f 13 f8 3c
       0.11908458 -0.06977589 0.13279337 0.030282615
0002e0 aa 39 16 3c 45 15 36 3e 9c 02 e6 bd b7 9c 7c be
       0.009169022 0.17781551 -0.112309664 -0.24669157
0002f0 c6 71 2f bf 7c 75 51 3e ff 04 5e 3e ca 99 64 3e
       -0.6853298 0.20454973 0.21681593 0.22324291
000300 3b 22 a7 bd 6f de cf 3d 10 14 ac be e2 2a db be
       -0.08160826 0.10149848 -0.33609056 -0.42806154
000310 27 32 8a be 00 4f 86 3d 46 47 91 be 5a 43 97 3d
       -0.26991388 0.06558037 -0.2837469 0.07385893
000320 bb 48 27 bd 7a 22 68 3e 58 de c1 be e9 36 8a be
       -0.040840846 0.22669402 -0.37864947 -0.26995018
000330 97 cc 95 be 1d c7 81 3e 55 aa 75 be b8 a5 53 3e
       -0.29257652 0.25347224 -0.23990758 0.20668685
000340 67 d9 08 3e cf d7 aa bd 79 f4 26 3d 48 45 ad bd
       0.13364182 -0.083419435 0.04076049 -0.0846048
000350 75 70 84 3c b3 be cc bc a3 e2 4d bc 42 66 1e 3e
       0.016166905 -0.024993276 -0.012566241 0.15468696
000360 22 85 e7 be 0b e8 20 be 51 74 a4 3e 43 b7 9c be
       -0.4521876 -0.15713517 0.32119992 -0.30608568
000370 75 09 06 be 94 4e 83 3e 35 b2 3d 3e b5 e4 70 3e
       -0.13089545 0.25645888 0.18525012 0.23524745
000380 89 a3 ce be 94 de 8a 3e a5 01 1b be 19 30 5d be
       -0.40359142 0.2712294 -0.15137346 -0.21600379
000390 13 67 75 be da e3 7b be dd 44 16 be 68 dc 5e 3e
       -0.23965101 -0.24598637 -0.14674707 0.21763766
0003a0 a7 ff 03 be bd 1b 20 3e 38 cb 4e 3e 13 05 76 be
       -0.12890492 0.15635581 0.2019471 -0.24025373
0003b0 7d a3 3b 3e 9b bc c9 be a4 46 b2 bd 7d 3b 3a 3e
       0.18324085 -0.39401707 -0.0870488 0.18186755
0003c0 39 d4 34 3e a4 92 f8 3d 4b e9 14 be 3d 85 4f 3e
       0.17659082 0.121373445 -0.14542119 0.2026567
0003d0 fc fd 87 3e c5 25 d0 be 7d cc bd 3e a6 af aa be
       0.26560962 -0.40653816 0.37070075 -0.33337134
0003e0 86 4e 04 bc 98 41 0a 3e 8c 1e 41 be b3 f5 11 3e
       -0.008075362 0.13501585 -0.18859309 0.14253883
0003f0 4e 9d c0 3e f4 f9 24 be 0d da 3d be 2f fb 87 bd
       0.37620014 -0.16110975 -0.18540211 -0.06639706

g.0.bias f4 [100]
000000 65 e4 4f be d9 88 da 3e fb 66 e7 be a2 b7 3b 3e
       -0.2030197 0.4268253 -0.45195755 0.18331769
000010 07 44 cb be ed 1e 1f be 0e 1c f1 3c c5 a4 8b 3e
       -0.39700338 -0.15539141 0.029432323 0.27274147
000020 ae e7 82 be eb d6 74 3e 16 53 11 3e 72 f0 c3 be
       -0.25567383 0.2391011 0.14191851 -0.38269383
000030 52 2c ea be cb e0 f4 be 97 ef 12 3f 3e 7b 97 3d
       -0.4573694 -0.47827753 0.57396835 0.073965535
000040 8c 10 5c be 34 7f 8d 3e 22 bf f6 3e 8d 0f d3 3e
       -0.21490687 0.2763611 0.48192698 0.41222802
000050 85 6c 01 3f 7a 46 ba be 6f ce 83 be b0 c2 7f be
       0.5055621 -0.36381894 -0.25743434 -0.24976611
000060 5d 8e b5 be 28 da 5d 3e 5a b0 d1 3e 28 94 f4 be
       -0.35460177 0.21665251 0.40954858 -0.47769284
000070 a8 a0 86 3e 4c df e2 be 7c ed 2d be 02 d4 e2 3e
       0.26294446 -0.44310987 -0.16985124 0.44302374
000080 36 7d 72 be 03 aa fb bd 53 71 b6 be 0a 83 0f 3f
       -0.23680577 -0.122882865 -0.35633335 0.56059325
000090 90 33 a0 bd e9 79 e3 be 5d 82 6f 3e 60 b3 c5 be
       -0.07822335 -0.44428948 0.23389573 -0.38613415
0000a0 5f f1 f5 be cb d0 33 3e 6a aa bd 3e a4 ac 91 bd
       -0.48035714 0.17560117 0.37044078 -0.07113007
0000b0 56 28 ad 3e 31 38 2e 3f bf 55 d7 3e 8f 84 af be
       0.33819836 0.6805449 0.42057607 -0.34280822
0000c0 9b a0 2a be db f1 2d be fa 66 f9 be d7 ae 58 3d
       -0.16662829 -0.16986792 -0.48711377 0.052901115
0000d0 38 5f c9 3e fa d8 02 3f cc 99 c9 3e 8c 6a 49 bd
       0.3933046 0.5111233 0.3937515 -0.049173877
0000e0 36 64 64 be 8b 8f 93 3e 75 a7 a0 be 44 78 61 be
       -0.22303852 0.28820452 -0.3137776 -0.22018534
0000f0 bb b9 de bc 07 4e 94 3e 1b 35 3a bf a2 cc 16 3f
       -0.027188173 0.2896578 -0.7273728 0.58905995
000100 fd c8 9d 3e 7a 1a f4 be 0e 02 e3 3b fb 7d 9c 3e
       0.30817404 -0.4767645 0.006927735 0.30564865
000110 d6 23 df be e2 f6 68 be c5 32 ef 3d 9b 24 15 bf
       -0.43582028 -0.22750428 0.116796054 -0.5825898
000120 66 3c 6a 3e d4 e3 d6 3e ba 47 f1 3e b1 2e fb be
       0.22874603 0.41970694 0.47125036 -0.4905906
000130 3e a7 2e 3f 76 a6 77 be ae df fd 3e 84 4d 42 bf
       0.6822394 -0.24184594 0.49584717 -0.7589953
000140 be c9 07 bf 89 d3 8e 3e 3f 9a 0c bd d2 55 ea 3d
       -0.5304221 0.27895764 -0.034326788 0.1144215
000150 75 01 78 be d4 bd 77 be c4 ab 42 be 58 6a 14 bf
       -0.24219306 -0.24193507 -0.19010836 -0.5797477
000160 b8 5c 09 be 84 fe fa 3b cb f7 1a be 07 80 55 3e
       -0.13414276 0.007659735 -0.15133588 0.2084962
000170 92 ad 08 3f 55 c6 35 3e 7c 7d 6a be 31 5a b7 be
       0.5338985 0.17751439 -0.22899431 -0.35810998
000180 25 89 bf be 01 3c fd be b9 3d 4f bc 08 f6 20 be
       -0.3740932 -0.49459842 -0.012648993 -0.15718853

g.2.weight f4 [100, 100]
000000 ec 79 b2 39 66 e3 06 be ff 46 3b 3e ee 83 84 be
       0.00034041645 -0.13172683 0.18288802 -0.25881904
000010 27 6e 83 3d 83 5e 30 3d 23 24 85 bd 19 a1 55 be
       0.06417494 0.043058883 -0.06501033 -0.20862235
000020 10 b4 36 be 13 29 4b 3d 09 97 36 be 53 19 79 be
       -0.17842126 0.04959972 -0.17831053 -0.24326067
000030 1b 22 ff 3d 74 75 c0 bd 0c 8d 5b bd 66 11 14 3e
       0.12457677 -0.093974024 -0.05360131 0.14459762
000040 b6 41 83 bc 0a 6e 11 3e 7f d8 74 bd eb b1 13 3e
       -0.016022544 0.14202133 -0.05977678 0.14423339
000050 a5 a7 54 3e 28 ca 91 3c ea d9 54 3d 32 3b 1a 3d
       0.20767076 0.01779659 0.05196563 0.03765411
000060 54 bf 28 be d9 d5 38 bd f3 69 ac bd 5b f4 90 3c
       -0.16479236 -0.045125816 -0.08418646 0.017694643
000070 11 7e db bd 08 3f c2 bd 24 86 c4 bd 7c e9 3f bd
       -0.10717405 -0.094846785 -0.09595898 -0.046853527
000080 5d 87 96 3d a1 cf 0c be 1c d1 08 bd eb 57 1e 3e
       0.07350037 -0.13751079 -0.033402547 0.15463226
000090 49 10 5e bd 4a 38 1a be 39 ee b0 bd f3 48 0f 3d
       -0.05421475 -0.15060535 -0.08639187 0.03498168
0000a0 e8 08 24 be c1 a0 6c bd e8 b4 d6 ba d2 6d 42 3d
       -0.16019022 -0.057770494 -0.0016380819 0.047468014
0000b0 b4 fc 85 3e 0d be f9 bc d9 d6 02 3d 26 91 04 3e
       0.2616936 -0.030486131 0.031943176 0.12945995
0000c0 91 f3 eb 3d c5 ca c6 3d 25 55 25 be 03 b6 69 3e
       0.11521066 0.09706644 -0.16145761 0.22823338
0000d0 0a 26 8c bd c1 38 98 bd 04 c0 f2 bd 81 3c 2c be
       -0.06843193 -0.074327 -0.1185303 -0.16819955
0000e0 73 e6 5c bd 4a 2d 3f be 35 76 50 3e 4c e6 e0 3a
       -0.05393071 -0.1866962 0.20357592 0.0017158478
0000f0 19 0b 35 3e aa 84 cb bd 6c 5c 5b 3e 4f f9 52 3e
       0.17680015 -0.09937413 0.21421975 0.20602916
000100 e4 fd a7 bc 04 9f 11 3e 17 2d 85 bd 22 d2 ff bd
       -0.020506807 0.14220816 -0.06502741 -0.124912515
000110 90 b1 84 bb 77 cf 89 bd 19 c2 59 bd d2 0a 50 bc
       -0.0040494874 -0.06729024 -0.05316362 -0.012697892
000120 af 50 5f be 8b c1 c0 3d 4d 0d 48 bd bb 8e 43 3e
       -0.21808122 0.094119154 -0.04884081 0.19097416
000130 12 f8 08 3d fe 2a 52 3e 80 09 3f 3e 61 3b c9 bd
       0.033439703 0.20524213 0.18655968 -0.09825779
000140 f2 be 66 be cf 06 b1 bd ec 74 a0 be 09 07 02 3e
       -0.22533777 -0.08643877 -0.31339204 0.12697996
000150 a0 64 9e 3d 15 23 af 3d 98 14 09 3e 6a 3a f8 3c
       0.077340364 0.08551613 0.13386762 0.030301291
000160 05 65 aa bd bd d4 89 3e 78 71 b8 bd ef db 3a bd
       -0.08320049 0.2692012 -0.090060174 -0.0456199
000170 1d 66 11 3e 1a 3a 2a 3e f1 0c 1a 3e 39 8b 30 3e
       0.1419911 0.16623726 0.15043999 0.17240609
000180 2e 1b 28 bd 81 59 e9 3d 9b e2 18 3e 48 1b 9c 3c
       -0.041041546 0.11394025 0.14930193 0.019055977
000190 a8 1e 02 3d 78 62 22 3e 61 b1 0a 3e 27 58 31 3e
       0.031767517 0.15857875 0.13544227 0.17318784
0001a0 29 53 60 3d 9a ee bd 3d 7c 12 66 bd 8c 61 91 3d
       0.054766808 0.09274025 -0.05616997 0.07098684
0001b0 97 de 9a 3d b9 ae ca bd f8 f4 31 3e c9 17 29 3e
       0.07561987 -0.09896607 0.17378604 0.1651298
0001c0 94 e7 d9 bc 25 75 29 3e 00 6b 02 3e 46 34 10 be
       -0.026599683 0.16548593 0.1273613 -0.1408244
0001d0 b6 c6 0c bc 2b e3 4f be c0 94 a1 bc fe aa e4 bd
       -0.008592298 -0.20301501 -0.01972425 -0.11165427
0001e0 61 03 7d bd 71 4c 0c be ca f2 45 bd ac 26 db bc
       -0.0617708 -0.13701035 -0.048327245 -0.026751839
0001f0 8d e0 8d 3e 86 51 3f bd 9f a9 d7 3d 0f 18 2c bd
       0.2771038 -0.046708606 0.105303995 -0.04201513
000200 61 23 85 3d df 15 0b 3e a5 fb 89 3e a4 ea 75 be
       0.065008886 0.13582562 0.26949802 -0.2401529
000210 89 4e 28 be 3a 62 8a 3e a7 20 27 3e 51 56 5e be
       -0.16436209 0.27028066 0.1632105 -0.21712615
000220 2f 56 03 3e 83 77 a7 3d fc 5a 24 3e 0f 4e 81 bd
       0.12825845 0.08177092 0.16050333 -0.063137166
000230 ed 72 46 3e 64 cd e8 bd 42 fe f2 bd 8e 5e 0e 3e
       0.19379778 -0.113673 -0.11864902 0.13903257
000240 6e 91 c8 be e7 af 9a bd 5a a6 a6 bd 78 08 f6 bd
       -0.39173454 -0.07553082 -0.08137198 -0.12013334
000250 e8 95 79 3d da 2a 8a 3c 20 c4 49 3e c1 89 22 be
       0.060933977 0.016866136 0.19703722 -0.15872861
000260 0c a7 a6 bd 92 7b 3b be eb 5a 1d 3e cb ac 93 3d
       -0.081373304 -0.18308857 0.15366714 0.07210692
000270 dc 79 01 3d 64 00 b5 bc e6 62 1f 3d d6 31 8e bd
       0.031610355 -0.022094913 0.038912676 -0.06943099
000280 8c ce 37 be 57 a4 37 3d c7 90 89 bd 73 30 e9 be
       -0.17949885 0.04483446 -0.06717067 -0.45544776
000290 ff c6 cd bb 03 73 f3 bd 52 68 c3 3d 1b 9c dc 3c
       -0.0062798257 -0.11887171 0.09541382 0.026929906
0002a0 03 e2 13 3d 49 25 7c 3e 9c bf 85 3d 1a 6a 83 3c
       0.036104213 0.24623598 0.06530687 0.016041804
0002b0 e8 19 2a 3e ad eb d5 bd 2f ff 90 bd 8f ea 64 bd
       0.16611445 -0.10445342 -0.070799224 -0.055887755
0002c0 93 77 d6 3a 94 6f 2c 3d 5e 19 b9 be 10 c8 71 3e
       0.001636254 0.042098597 -0.36152166 0.23611474
0002d0 cf 76 5d 3e 61 25 da bd c0 37 22 3e e1 43 59 bd
       0.21627353 -0.10651661 0.1584158 -0.05304325
0002e0 2f 99 de 3d bc 22 29 3d da 05 3a be c9 8d 55 bd
       0.10869061 0.04129289 -0.18166295 -0.05213717
0002f0 1f 3f 06 3e 1d c3 69 bd 00 54 64 3d fb 99 8f 3d
       0.13110016 -0.05707084 0.05574417 0.07011791
000300 d2 80 02 be ae d7 1f be 0a 14 1b bd 57 d4 30 bd
       -0.12744454 -0.15609619 -0.037860908 -0.043171253
000310 3b b4 8a 3d 92 ee 50 bd 53 8c 8e bd 4b 7f 99 3c
       0.067726575 -0.05100877 -0.069603585 0.018737456
000320 8f ad 9b bc 80 dc 7c bd 60 c8 82 bd 50 28 09 bd
       -0.019003658 -0.061733723 -0.06385875 -0.03348571
000330 76 cd f6 bc 74 64 26 3d c5 6a e5 bc 47 b4 57 bd
       -0.030127268 0.040623143 -0.028005013 -0.05266216
000340 9d 68 b1 bc 30 ec 5b 3c 1d c5 93 3c 3c da 10 3d
       -0.021656329 0.013423011 0.018038327 0.035364375
000350 98 bf 74 bd aa 96 b3 bd fa f1 45 3c ef 42 16 3d
       -0.05975303 -0.08768971 0.0120816175 0.036684927
000360 35 79 4b 3d 96 3e 58 3d 60 c8 80 bd 30 2d a7 3d
       0.04967614 0.05279406 -0.062882185 0.08162916
000370 e4 ef 31 3d 10 52 9e bd 17 35 f5 bd 5a 21 f3 3b
       0.04344167 -0.07730496 -0.11973017 0.0074197473
000380 5c c4 f0 bb a4 34 be bc ba 61 d6 bc 70 86 95 bd
       -0.0073476266 -0.02321846 -0.026169647 -0.073010325
000390 e0 2c 1c 3d 98 94 16 3d d4 81 84 3d f7 32 0d 3e
       0.038128734 0.036762804 0.06470075 0.13788973
0003a0 9c 6b 5c bc a6 ea cd bc 00 8e 45 bd 8a 09 bf 3c
       -0.01345339 -0.025136303 -0.048231125 0.023319978
0003b0 7d a1 72 bd 9b 6d 10 bd 93 a1 da bd 93 5c 2f 3d
       -0.05923604 -0.035260778 -0.10675349 0.042812895
0003c0 0e ec 2b bd c4 c2 15 3e 60 68 ed bc f4 ef 71 bd
       -0.041973166 0.14625078 -0.028980434 -0.059066728
0003d0 a2 fb a3 3d c7 c9 b1 3c e1 e3 a1 3d dd cf 99 3c
       0.080069795 0.02170266 0.079047926 0.018775875
0003e0 b8 fe 10 be 91 86 1e 3d 32 4b 53 bc bd 89 85 bd
       -0.14159667 0.03870255 -0.012896346 -0.06520412
0003f0 88 a7 53 3d 1f e0 ad 3d 79 c5 86 bd a7 ab 37 bb
       0.051673442 0.08490013 -0.06580634 -0.0028025897

g.2.bias f4 [100]
000000 d1 2c a0 3d 44 cb ee bd cc b3 29 3d 0b f3 57 3e
       0.07821048 -0.116598636 0.041431233 0.21088807
000010 62 ff 0a be dc ee 52 3e b4 61 22 be c7 32 43 3c
       -0.13573983 0.2059893 -0.15857583 0.011913962
000020 d6 4c 18 bc c6 af c5 3c b3 f8 07 be d3 f5 60 3e
       -0.009295663 0.024131667 -0.13278465 0.21968774
000030 e0 01 e9 3d 69 9f 58 3e 83 ae ea 3d f2 c4 2d be
       0.11377311 0.2115456 0.11459067 -0.1696966
000040 23 b0 04 3e df 34 d1 bd 9d bb 60 bc bb 7d f4 bd
       0.12957816 -0.102151625 -0.0137166055 -0.11938044
000050 2e b0 1e be 74 21 2a be e1 ec 7d 3d 0b 33 b2 3e
       -0.15496895 -0.16614324 0.061993483 0.34804568
000060 17 f0 99 be e0 03 9d be 21 0c 66 bd c5 3f 0a 3e
       -0.30065987 -0.3066702 -0.05616391 0.13500889
000070 63 7e bb bc 33 62 3d 3e 8b 36 38 be 32 d0 4d be
       -0.022887414 0.18494491 -0.17989556 -0.20098951
000080 25 47 fe 3d 3a dc 9a 3e 82 3a 38 3d 95 f5 37 3e
       0.124159135 0.30246145 0.044977672 0.17964776
000090 02 4b 09 be 71 59 dd bc 1d ed 2f bd 02 f7 b7 be
       -0.1340752 -0.027020188 -0.04295074 -0.3593064
0000a0 51 e3 32 3e 89 e5 f0 bd 75 89 c9 bd 06 ae 07 3e
       0.17469527 -0.1176253 -0.09840671 0.13249978
0000b0 41 be 26 bd 0f 39 94 3e fd 68 64 3e 6d a3 62 be
       -0.040708784 0.28949782 0.22305675 -0.22132654
0000c0 a8 3e e1 bd 2a bb e9 3d 8e 6e c5 bd 36 c4 73 3d
       -0.10998279 0.11412652 -0.09640227 0.059513293
0000d0 87 a3 5c be 9e a1 06 3e f4 ba 88 bd c3 63 ca 3d
       -0.21546756 0.1314759 -0.066762835 0.09882309
0000e0 38 50 bc bd 72 13 9b be 64 53 88 be be 26 65 be
       -0.09194988 -0.30288273 -0.26626122 -0.2237806
0000f0 6b 7b 70 bd d7 53 8f bd 7e 0d 8c bd dc c4 01 bb
       -0.05871145 -0.06998413 -0.06838511 -0.0019801175
000100 62 4c 67 3e 4f d1 2c be eb 2b 0e be 14 f5 68 bd
       0.22587731 -0.1687672 -0.13883941 -0.05687435
000110 b8 8b 73 3e a9 89 43 be e2 27 19 be 82 09 30 be
       0.23783767 -0.19095482 -0.1495662 -0.17191127
000120 d5 37 51 3d a1 3c 58 3e 95 fd 8a 3e 40 40 1b be
       0.051078636 0.21116878 0.27146593 -0.15161228
000130 60 e1 75 be 03 22 9c 3d 5a bb 86 3d fb 6e 38 3e
       -0.24011755 0.07623675 0.06578703 0.18011086
000140 48 c2 87 bd 5c a2 97 be 07 87 f2 3c 3b de 37 3e
       -0.06628853 -0.29616058 0.029605402 0.17955868
000150 8f 42 5c be b0 05 f7 3d 55 02 fe bd 8a 90 87 3b
       -0.21509765 0.12061632 -0.124027885 0.0041371034
000160 a1 ab 80 3e 6f 1b aa 3e 0b aa 57 3d 85 f5 6a 3d
       0.25130942 0.33224055 0.0526524 0.057363052
000170 55 4c 84 3e 71 da 01 3e 50 98 83 bd d4 bc 24 3e
       0.25839487 0.12680985 -0.06425536 0.16087657
000180 02 fa b8 bd db c0 65 3e 81 5a 83 bc f3 cc a5 3c
       -0.0903206 0.2243685 -0.016034367 0.020239329

g.4.weight f4 [1, 100]
000000 79 30 10 3e 1b 75 d4 bd 90 d8 f1 39 17 00 93 be
       0.14080991 -0.103738986 0.00046128454 -0.28711006
000010 d7 e0 34 bd c8 de 45 3e ce 01 5c bd c5 66 d0 3d
       -0.044159736 0.19323266 -0.05371266 0.10175852
000020 1f 82 b1 bb 76 6b e1 3c b7 e0 b5 bd ae 4f 0f 3e
       -0.005417123 0.027517062 -0.088807516 0.13995239
000030 6d 84 8f 3d bb 83 84 be 54 a9 e6 3c 33 2d 4b 3e
       0.0700768 -0.25881752 0.028156914 0.19841461
000040 5e 29 4d 3c 51 3e 47 bd 8c 08 43 bc 50 fa 0f bd
       0.01252207 -0.048643414 -0.011903893 -0.035150826
000050 2e 1f 47 bd cc e5 83 bd f5 b3 8f 3b a9 dc 2d 3e
       -0.04861372 -0.06440315 0.004385466 0.16978706
000060 09 24 6e be 72 79 5c be 90 41 da bd bd e0 a6 be
       -0.23255934 -0.21530703 -0.10657036 -0.32593337
000070 f3 a9 a0 3d 6c a1 ad 3d c2 2c 95 bd df e3 df bd
       0.07844915 0.084780544 -0.072839275 -0.10932135
000080 71 61 8e 3c 61 73 74 3e c0 1e 82 3d 90 23 31 3e
       0.017380448 0.23872139 0.06353521 0.17298722
000090 2a d9 83 3e 5b 81 b9 bb 48 31 83 bc 31 ff 04 be
       0.2575162 -0.0056611723 -0.01601471 -0.12987973
0000a0 df 81 8e be d9 db 4e 3e 9c ef 8c bb bd 94 0e 3d
       -0.2783346 0.20201053 -0.0043010246 0.034809817
0000b0 09 e4 27 3e bc 23 6f 3e 7a 59 17 3e f6 b8 8c 3e
       0.16395582 0.23353475 0.14780226 0.27484864
0000c0 1a fc db bd 3f 6f a1 be 1d 17 28 be 2b 0d 0e 3c
       -0.10741444 -0.31530187 -0.16415067 0.008670132
0000d0 13 97 46 be 62 39 1a 3b 37 27 3a 3e fd cd a7 3d
       -0.19393568 0.0023532738 0.18179022 0.08193586
0000e0 a0 9c 28 bd 78 da 66 be 52 05 25 be c2 3a ee bd
       -0.041164994 -0.22544277 -0.16115311 -0.11632301
0000f0 70 29 38 be be 31 0a 3e 0f 54 ed bb 68 21 bf 39
       -0.17984557 0.13495538 -0.0072426866 0.00036455248
000100 60 64 8d 3e fe 03 af bc 6d ec 47 3d 38 c8 a8 bc
       0.27615643 -0.021364208 0.048809458 -0.020603284
000110 a8 2f 09 3e 5c ee 85 3e ca 93 3d bd 99 4e ac bc
       0.13397086 0.26158416 -0.04628352 -0.021033572
000120 21 bc 3c be 8e 58 ba 3d 57 cb ae be 28 93 42 be
       -0.1843114 0.09098922 -0.3413951 -0.19001448
000130 6b a8 28 be 35 40 c9 3a 33 05 ab 3d be 61 8b be
       -0.16470496 0.0015354218 0.08350601 -0.2722301
000140 95 68 86 3e df b3 73 be 40 a8 cb b8 55 a4 ce 3d
       0.26251665 -0.23799084 -9.711133e-05 0.100899376
000150 d1 f8 49 3e 23 33 a9 3d 52 be 62 bc d4 7b 5c 3d
       0.19723822 0.08261707 -0.013839321 0.05382903
000160 b9 c1 67 3e 59 07 58 3e 08 8c 4d 3b 7d 21 fa 3b
       0.22632493 0.21096553 0.0031363983 0.0076333866
000170 2b 4f 08 3e 0a b3 78 3e 90 67 2e 39 cd fd 7a 3c
       0.1331145 0.24287048 0.00016632513 0.0153193
000180 b3 b4 e4 3d 38 82 32 be 86 46 51 bd e1 07 50 3e
       0.11167278 -0.17432487 -0.051092647 0.20315506
