models/loan_ALLR0_mlp_l0.010_s4.pth (torch, 46309 bytes, 5 tensors)

g.0.weight f4 [100, 7]
0.16650376 0.07088885 -0.20918447 -0.38368395 -0.42198935 -0.61435145 0.40401193 0.27904826
0.031126674 0.15214217 -0.26597857 -0.35457608 0.7899415 0.16496755 0.03192384 0.08521137
0.03816257 -0.16012086 -0.08136742 -0.7439099 0.033301905 -0.15867464 -0.17815638 -0.119652994
0.23858985 -0.110443324 0.20027477 -0.05230438 0.1954544 -0.118764825 0.18713006 0.20411767
-0.34644112 0.34172237 0.26005805 -0.51094234 -0.28491387 0.17073902 0.06066123 -0.124954075
0.044653818 0.3260398 0.43178052 -0.08497069 0.041170374 0.17954461 0.3042381 -0.110875495
0.045278993 0.22220372 -0.1341756 0.04504775 0.29399598 -0.36683112 -0.8118847 0.05774399
0.08416306 0.34047684 -0.022469565 0.15030015 -0.29362357 0.22204426 -0.33512083 0.2396338
0.060201976 0.26933518 0.09840093 -0.35488024 -0.011022971 0.025261458 0.11169186 -0.122408405
-0.07750944 -0.14379108 -0.16073483 0.47844416 0.335158 0.09853189 0.0038253712 -0.32700574
0.009032138 0.3142031 0.24045712 -0.44915524 -0.0040316517 0.021468643 0.2637616 0.1496719
-0.21321961 -0.5872254 0.19099313 0.2585859 0.3408775 0.29266414 0.30038208 -0.22647886
-0.4035866 0.23109819 0.26487234 -0.19521287 -0.17002527 0.18253073 0.22732136 -0.042754143
-0.2997176 0.14111456 -0.40390408 -0.27584755 0.15255767 -0.0037413593 0.18835951 0.09766953
-0.21136437 -0.052961215 0.1572863 0.18179996 0.07865086 -0.20136929 0.16746953 0.13554421
0.01746567 -0.14599344 0.03900883 -0.036568437 0.29643613 -0.13209043 -0.06972857 0.081661485
-0.121307835 0.17078201 -0.1892331 0.49623138 0.07169587 -0.05996725 0.04954374 0.012950109
0.23204471 -0.15586926 0.3360536 -0.3355988 0.020951403 0.082325734 -0.49743435 -0.02181596
0.17562614 0.24438946 -0.1229992 -0.053504456 0.1564699 0.032527402 -0.14561874 0.18740852
-0.39385024 0.20596667 -0.07776246 -0.37465933 -0.4632239 0.38025478 -0.011526269 -0.20291668
0.08334643 -0.1547072 -0.27600288 0.13897222 -0.32344946 -0.15469678 0.18745059 0.57015836
-0.16918476 -0.34079272 0.44850647 0.18444502 0.2793599 -0.12183831 -0.09999117 0.16157372
0.20796032 0.04456908 -0.23962414 0.50294465 0.45757505 0.1329904 -0.2704202 -0.15999644
-0.077640355 0.049099565 0.1434718 -0.08725279 0.23437877 -0.21236885 -0.05350141 0.14435937
0.36716717 -0.33472136 0.18953586 0.26184204 -0.08866817 0.06976939 0.081920415 -0.25316572
0.25241843 -0.44895822 0.1880683 0.19100957 -0.23117109 -0.0014866085 -0.48999408 -0.0696266
0.21571507 0.085582025 0.0898129 0.038324468 -0.038909595 0.2304188 0.08296684 0.3535027
0.402803 -0.07137772 -0.030139815 0.59051204 0.31043825 -0.2842965 -0.41631797 -0.042283118
0.1640662 -0.279011 0.23418303 -0.2093815 -0.10707272 0.29572612 -0.2565817 -0.10607863
0.09450715 0.3078004 0.02558397 -0.04222493 0.054974325 -0.5039094 -0.13191018 0.38126108
-0.30886373 0.22254537 -0.17389691 0.337539 0.10710058 0.29773742 -0.11812729 -0.08478521
-0.28479823 0.104558684 -0.28312808 0.19787708 -0.16849223 -0.07029387 -0.1418606 -0.29955268
00000000: f67f 2a3e 2c2e 913d 7434 56be 3972 c4be
00000010: fd0e d8be 2346 1dbf a7da ce3e 6adf 8e3e
00000020: 5efd fe3c 28cb 1b3e 582e 88be ff8a b5be
00000030: 9b39 4a3f 41ed 283e 93c2 023d 4c83 ae3d
00000040: 5b50 1c3d b9f6 23be f6a3 a6bd e170 3ebf
00000050: 9467 083d 9b7b 22be a06e 36be a10c f5bd
00000060: e650 743e 1c30 e2bd d414 4d3e 1e3d 56bd
00000070: 3325 483e f93a f3bd 069f 3f3e 3904 513e
00000080: bb60 b1be 3cf6 ae3e 5426 853e 1ecd 02bf
00000090: 3be0 91be 36d6 2e3e e977 783d ece7 ffbd
000000a0: ece6 363d b0ee a63e 5612 dd3e 1d05 aebd
000000b0: 44a2 283d 8bda 373e 19c5 9b3e b112 e3bd
000000c0: 7776 393d 5f89 633e 5465 09be fd83 383d
000000d0: a486 963e 4ad1 bbbe add7 4fbf f684 6c3d
000000e0: af5d ac3d fb52 ae3e 1812 b8bc 48e8 193e
000000f0: d455 96be 925f 633e f594 abbe 9062 753e
00000100: 5996 763d 4de6 893e 6d86 c93d ddb2 b5be
00000110: b199 34bc 1ef1 ce3c b4be e43d 42b1 fabd
00000120: 45bd 9ebd f83d 13be ac97 24be a2f6 f43e
00000130: d499 ab3e 16cb c93d 14b3 7a3b 4c6d a7be
00000140: 88fb 133c 3bdf a03e 643a 763e adf7 e5be
00000150: f21b 84bb 02df af3c c30b 873e 9743 193e
00000160: 3e56 5abe 6754 16bf b493 433e 5f65 843e
00000170: 7f87 ae3e 13d8 953e aecb 993e 13ea 67be
00000180: e7a2 cebe 01a5 6c3e 599d 873e e2e5 47be
00000190: 1b1b 2ebe 56e9 3a3e eec6 683e f81e 2fbd
000001a0: 9674 99be 5680 103e 84cc cebe e43b 8dbe
000001b0: 1438 1c3e 9831 75bb 51e1 403e f606 c83d
000001c0: e76f 58be dced 58bd a90f 213e c529 3a3e
000001d0: b413 a13d c033 4ebe 227d 2b3e 1acc 0a3e
000001e0: 2a14 8f3c 4e7f 15be b9c7 1f3d c9c8 15bd
000001f0: 7ac6 973e b742 07be dacd 8ebd 233e a73d
00000200: 3e70 f8bd 7be1 2e3e 52c6 41be 0a12 fe3e
00000210: 49d5 923d 38a0 75bd 60ee 4a3d b22c 543c
00000220: 219d 6d3e 319c 1fbe 380f ac3e 9bd3 abbe
00000230: 47a2 ab3c 659a a83d b7af febe 62b7 b2bc
00000240: 57d7 333e 3b41 7a3e 01e7 fbbd 7d27 5bbd
00000250: a539 203e 743b 053d 141d 15be 05e8 3f3e
00000260: bda6 c9be ede8 523e ed41 9fbd 59d3 bfbe
00000270: af2b edbe c1b0 c23e add8 3cbc 64c9 4fbe
00000280: 88b1 aa3d 906b 1ebe 4050 8dbe bc4e 0e3e
00000290: 2b9b a5be d568 1ebe 0cf3 3f3e e6f5 113f
000002a0: c53e 2dbe 627c aebe a4a2 e53e 28df 3c3e
000002b0: 4308 8f3e 5d86 f9bd 2cc8 ccbd 9573 253e
000002c0: 8df3 543e 118e 363d 0860 75be fbc0 003f
000002d0: 4747 ea3e a32e 083e 8474 8abe 1bd6 23be
000002e0: e801 9fbd a01c 493d 46ea 123e 97b1 b2bd
000002f0: fd00 703e 3877 59be 4b24 5bbd f1d2 133e
00000300: 56fd bb3e 9960 abbe b015 423e 2910 863e
00000310: a897 b5bd 41e3 8e3d e4c5 a73d f09e 81be
00000320: fd3c 813e dadd e5be fa94 403e 0398 433e
00000330: 1db8 6cbe 4eda c2ba 81e0 fabe 6498 8ebd
00000340: 69e4 5c3e a145 af3d d3ef b73d 1efa 1c3d
00000350: ab5f 1fbd e8f2 6b3e 85ea a93d 4efe b43e
00000360: 323c ce3e 7b2e 92bd c6e7 f6bc cc2b 173f
00000370: c3f1 9e3e 508f 91be a127 d5be 1031 2dbd
00000380: f800 283e 88da 8ebe adcd 6f3e 1b68 56be
00000390: f148 dbbd 6a69 973e ad5e 83be c13f d9bd
000003a0: f78c c13d 0498 9d3e 7995 d13c 0cf4 2cbd
000003b0: c22c 613d 3500 01bf 7613 07be a734 c33e
000003c0: 6323 9ebe efe2 633e 0812 32be e9d1 ac3e
000003d0: 8d57 db3d 0a71 983e b8ec f1bd dea3 adbd
000003e0: 13d1 91be dd22 d63d 2af6 90be 4aa0 4a3e
000003f0: 3a89 2cbe 3cf6 8fbd e843 11be f85e 99be

g.0.bias f4 [100]
-0.20852783 -0.04652937 -0.3699188 -0.5448716 -0.25790316 0.3288964 0.68739367 -0.35827312
0.24354576 0.27697742 -0.2278831 -0.31550246 0.089099675 -0.13245904 -0.25628862 0.40048727
-0.3437891 -0.15132006 0.20322181 -0.5201415 -0.5585807 0.35386863 0.14193068 0.060065903
-0.2334951 0.28715524 0.22895783 -0.3356327 0.33417687 0.31620604 0.47258097 0.40955845
-0.3453592 -0.14450075 0.1443311 -0.017248314 -0.03758913 0.25427532 0.019145506 -0.39955288
0.36571926 0.11812202 0.3144176 0.37322286 0.5474058 0.5863241 0.29826516 -0.11312888
-0.049949877 -0.29934657 0.5638883 -0.22139518 0.5086644 0.1061557 -0.05847079 0.45408043
-0.29735267 -0.46386698 -0.35560006 0.3420301 -0.10824537 0.3600949 -0.3860264 0.04115393
-0.19041173 0.20391731 -0.301262 -0.3853375 0.30439067 -0.2931565 0.5999796 -0.06392589
0.28198949 0.72563857 -0.13911028 0.102624014 0.5026084 -0.4370855 -0.16757026 0.49712843
-0.40358663 -0.5361716 0.5876057 0.1648032 -0.48085573 0.43016684 -0.09162096 -0.010822296
0.12781578 0.6164673 -0.09920706 0.54023963 -0.48021942 -0.15679982 -0.22937255 0.31747034
0.84027153 0.341417 -0.5559036 -0.20655176
00000000: 5288 55be 9595 3ebd ff65 bdbe b57c 0bbf
00000010: e20b 84be 1c65 a83e 08f9 2f3f 936f b7be
00000020: 0f64 793e fccf 8d3e 305a 69be 8a89 a1be
00000030: e479 b63d 58a3 07be 4338 83be ab0c cd3e
00000040: 2005 b0be a5f3 1abe 6119 503e fe27 05bf
00000050: 25ff 0ebf 452e b53e 4756 113e aa07 763d
00000060: 5719 6fbe 0306 933e ec73 6a3e 0dd8 abbe
00000070: 3b19 ab3e c2e5 a13e 22f6 f13e a5b1 d13e
00000080: ecd2 b0be 01f8 13be 88cb 133e 564c 8dbc
00000090: 0ff7 19bd 6030 823e 09d7 9c3c 3292 ccbe
000000a0: 8e3f bb3e f5e9 f13d 58fb a03e 1117 bf3e
000000b0: c922 0c3f 5619 163f 36b6 983e 1db0 e7bd
000000c0: 3e98 4cbd f443 99be fc5a 103f 6bb5 62be
000000d0: d537 023f 2968 d93d 117f 6fbd 3b7d e83e
000000e0: 9c3e 98be f97f edbe 3611 b6be 921e af3e
000000f0: c0af ddbd 5c5e b83e 41a5 c5be 0691 283d
00000100: 4bfb 42be b3cf 503e 033f 9abe f54a c5be
00000110: 18d9 9b3e 9c18 96be 4398 193f 94eb 82bd
00000120: ed60 903e 73c3 393f ed72 0ebe 8a2c d23d
00000130: f2aa 003f acc9 dfbe 8a97 2bbe 9e87 fe3e
00000140: e8a2 cebe 8b42 09bf 546d 163f 2cc2 283e
00000150: b932 f6be d43e dc3e c5a3 bbbd 0050 31bc
00000160: 24e2 023e cdd0 1d3f 122d cbbd 254d 0a3f
00000170: 52df f5be 2290 20be a3e0 6abe 798b a23e
00000180: 091c 573f 36ce ae3e b34f 0ebf 4e82 53be

g.2.weight f4 [100, 100]
-0.027223893 0.0011756186 -0.033713594 -0.04460801 -0.012321697 0.029164063 0.016742138 0.022334307
-0.0152050145 0.1258574 -0.061320726 -0.17767523 0.13554311 0.16364813 0.01903173 0.20436634
0.021638978 -0.040479816 -0.032184854 -0.18362986 -0.17817272 0.122035235 0.08107577 0.17483842
-0.05322104 -0.1763083 0.0036305082 -0.01433634 0.040673714 0.11283465 0.056786828 0.1404251
-0.14353935 -0.04214418 -0.057613958 -0.020492014 -0.013888539 -0.18894404 0.16770445 0.07165716
-0.019149603 0.09776687 0.13655362 0.16423507 0.06297279 0.038416572 0.16127592 -0.0038523644
-0.15074168 -0.120203175 0.24023 -0.07854364 0.18034339 -0.05881525 0.017358601 -0.09644675
-0.13439065 0.005381884 0.06225182 0.03390389 -0.064752154 0.014840316 -0.011559584 0.1068634
0.06467429 0.10898229 0.021661997 -0.04409737 0.052138947 0.03403486 -0.0064988052 0.036084056
-0.077110484 -0.0056825313 0.04737506 -0.0013544644 -0.108462535 -0.055216845 -0.047332603 0.22259516
-0.060480516 0.22621495 0.22088638 -0.07047959 -0.13850696 0.15916987 0.047948144 0.003742473
0.046982348 0.10290659 -0.089483574 0.12140312 -0.07905635 0.050059877 0.15055704 0.21650757
-0.065851025 0.04548456 0.116754465 -0.028252415 0.30302465 0.1430425 0.15601772 0.099689275
-0.09355451 0.11302508 -0.18103081 0.17482042 0.15287584 -0.044584118 -0.03157534 -0.030914204
0.19326445 0.05493438 -0.030843372 -0.14319865 -0.054756682 -0.10727921 0.16620894 0.05831225
-0.15233013 -0.07447951 -0.09550887 -0.15081035 -0.1367113 -0.34782735 -0.0064164773 0.16185907
-0.007048716 -0.25022194 -0.16991141 0.18030296 0.22582628 0.2718324 0.05253791 -0.16704427
-0.1532308 -0.28968734 -0.08700508 -0.27674836 -0.033846606 -0.12427137 -0.22978787 -0.055642113
0.0076018726 -0.10253759 0.06950794 -0.21296881 0.19908927 0.08943761 -0.06371683 0.36866593
-0.067824 0.001979705 0.08338377 -0.33006194 0.085078314 0.10720892 0.04373875 0.17927685
-0.12191669 0.11564341 -0.078834355 -0.24066354 0.041099407 -0.29762182 -0.06292155 0.3350372
0.107343435 -0.05243744 -0.190785 -0.22789338 -0.3686977 -0.13655883 0.3778701 -0.16094834
-0.09633392 -0.118251406 -0.10471712 -0.015806625 0.028991176 0.15417433 -0.021489965 0.38359252
0.044267956 -0.025966609 0.006396693 0.029013917 -0.21005714 0.07407731 0.07761684 0.12793604
0.13715543 -0.072757944 0.1515369 -0.09012509 -0.15910468 -0.10145283 0.044367075 -0.016517408
-0.11999773 -0.013246204 0.020819318 0.08380288 0.013464296 -0.011015721 0.024987198 0.021216128
-0.07995066 -0.09649044 -0.12610157 0.023405792 -0.0032899077 -0.04748305 0.08427624 -0.032512315
0.02734028 -0.060465727 0.018859714 0.04953484 0.007991496 -0.08868732 0.04903178 -0.10422313
0.14561254 0.067804135 -0.049829308 -0.13493219 -0.08518459 -0.01181348 0.06863102 0.07953011
0.014782985 0.016364686 -0.13580182 0.035587177 -0.047887437 -0.013465757 -0.10553085 0.04514412
0.002023418 0.0727161 0.025336295 -0.037312225 0.07217163 -0.07504723 0.04880107 0.08234593
0.052939054 -0.00977454 -0.11310288 -0.067589246 -0.0018916137 -0.01428404 0.009133895 0.12929337
00000000: a404 dfbc 3717 9a3a 4417 0abd e4b6 36bd
00000010: f1e0 49bc 79e9 ee3c cf26 893c 70f6 b63c
00000020: 741e 79bc c3e0 003e 712b 7bbd 7ff0 35be
00000030: d0cb 0a3e 6093 273e 6ee8 9b3c 6945 513e
00000040: 3a44 b13c 2ace 25bd 44d4 03bd 7709 3cbe
00000050: e972 36be 9ced f93d 0e0b a63d d808 333e
00000060: 4efe 59bd 2a8a 34be d2ed 6d3b f8e2 6abc
00000070: 7b99 263d da15 e73d 4e99 683d 99cb 0f3e
00000080: fbfb 12be 609f 2cbd 9dfc 6bbd dede a7bc
00000090: c18c 63bc 8c7a 41be b7ba 2b3e fdc0 923d
000000a0: a1df 9cbc ff39 c83d b6d4 0b3e 3d2d 283e
000000b0: e1f7 803d b25a 1d3d 8425 253e f377 7cbb
000000c0: 075c 1abe 152d f6bd dafe 753e 7ddb a0bd
000000d0: f0ab 383e 42e8 70bd a033 8e3c e085 c5bd
000000e0: b49d 09be 845a b03b c4fb 7e3d cede 0a3d
000000f0: c79c 84bd cc24 733c 6964 3dbc 33db da3d
00000100: f473 843d 1b32 df3d 8074 b13c 729f 34bd
00000110: a68f 553d 2368 0b3d eef3 d4bb e0cc 133d
00000120: 1aec 9dbd 8734 babb 5a0c 423d 4988 b1ba
00000130: 9b21 debd 0f2b 62bd d5df 41bd fcef 633e
00000140: 6bba 77bd e4a4 673e 0a30 623e 9a57 90bd
00000150: c5d4 0dbe 6dfd 223e 4665 443d 4744 753b
00000160: 9070 403d b1c0 d23d 2a43 b7bd 33a2 f83d
00000170: 4ce8 a1bd 960b 4d3d a02b 1a3e 29b4 5d3e
00000180: e7dc 86bd 054e 3a3d f71c ef3d 9c71 e7bc
00000190: 0c26 9b3e bc79 123e 1cc3 1f3e e429 cc3d
000001a0: 8299 bfbd b179 e73d 2460 39be 2004 333e
000001b0: 7c8b 1c3e d69d 36bd 2555 01bd c93f fdbc
000001c0: 1ee7 453e df02 613d 3dab fcbc aba2 12be
000001d0: 8b48 60bd 34b5 dbbd ad32 2a3e d3d8 6e3d
000001e0: 6efc 1bbe b788 98bd 289a c3bd 076e 1abe
000001f0: 0cfe 0bbe 6d16 b2be 5041 d2bb 62be 253e
00000200: eaf8 e6bb 171d 80be 42fd 2dbe 57a1 383e
00000210: 013f 673e 9e2d 8b3e fe31 573d a70d 2bbe
00000220: 89e8 1cbe e651 94be b82f b2bd f6b1 8dbe
00000230: bda2 0abd fd81 febd 834d 6bbe fce8 63bd
00000240: 2119 f93b 3aff d1bd 2e5a 8e3d 7f14 5abe
00000250: 0fde 4b3e 112b b73d f87d 82bd c8c1 bc3e
00000260: 4fe7 8abd f0bd 013b 1cc5 aa3d e1fd a8be
00000270: 8a3d ae3d 5a90 db3d 6727 333d 5a94 373e
00000280: 75af f9bd 74d6 ec3d e873 a1bd 8170 76be
00000290: da57 283d e361 98be 03dd 80bd ff89 ab3e
000002a0: e0d6 db3d a4c8 56bd 255d 43be e25c 69be
000002b0: f2c5 bcbe 14d6 0bbe 3178 c13e a4cf 24be
000002c0: b84a c5bd cb2d f2bd ee75 d6bd e57c 81bc
000002d0: e77e ed3c e0df 1d3e b90b b0bc 3d66 c43e
000002e0: 5152 353d edb7 d4bc 5a9b d13b 98ae ed3c
000002f0: 3819 57be d8b5 973d 94f5 9e3d aa01 033e
00000300: 7972 0c3e 1e02 95bd 7d2c 1b3e 8193 b8bd
00000310: 56ec 22be 80c6 cfbd 40ba 353d 844f 87bc
00000320: 5fc1 f5bd 9b06 59bc 468d aa3c d8a0 ab3d
00000330: 5a99 5c3c 487b 34bc f4b1 cc3c 72cd ad3c
00000340: 2cbd a3bd c89c c5bd c520 01be 81bd bf3c
00000350: 7e9b 57bb 967d 42bd 0599 ac3d a22b 05bd
00000360: b9f8 df3c e9aa 77bd b07f 9a3c 0be5 4a3d
00000370: c3ee 023c b3a1 b5bd 8cd5 483d f072 d5bd
00000380: 741b 153e e5dc 8a3d d119 4cbd aa2b 0abe
00000390: 4275 aebd 548d 41bc 6c8e 8c3d afe0 a23d
000003a0: 5534 723c 3c0f 863c a20f 0bbe dcc3 113d
000003b0: 9e25 44bd 7a9f 5cbc 8f20 d8bd 0ae9 383d
000003c0: 529b 043b 2eec 943d 108e cf3c b4d4 18bd
000003d0: b8ce 933d 5db2 99bd a1e3 473d fca4 a83d
000003e0: 9fd6 583d 6425 20bc 7ca2 e7bd 3b6c 8abd
000003f0: 06f0 f7ba 9b07 6abc 55a6 153c 7b65 043e

g.2.bias f4 [100]
0.16270688 -0.014344676 0.044342652 -0.097196415 -0.012822089 0.2799485 0.07371817 0.11896311
-0.3228056 -0.27937424 0.17737663 -0.075542435 -0.091696106 -0.048382994 -0.047199767 -0.039694596
-0.1877604 0.2458966 -0.2912199 -0.08948313 -0.09528607 -0.14674184 -0.15361278 0.24507125
0.017493594 0.09838591 0.30585366 -0.23171619 -0.25993186 -0.06561687 0.08478613 -0.2260589
-0.24548516 -0.16586678 -0.22751953 -0.14980076 -0.10106272 -0.18485783 -0.19090596 0.1768334
0.26822472 0.1641017 -0.2778122 -0.22828153 -0.13299999 -0.3200301 -0.21328047 -0.051686242
-0.18684244 -0.17604576 -0.33042544 -0.18816186 -0.005338371 0.2099527 0.12296136 0.00663636
0.10337912 0.061178915 -0.0076222196 0.094528124 0.053786207 0.33786604 -0.19806904 0.17761815
-0.16254178 -0.23527093 -0.012067727 -0.10140161 0.13168085 -0.06252971 -0.20270482 -0.15715194
0.0049272403 -0.12843744 -0.019180294 -0.20833968 -0.04896652 0.020944577 0.12091762 -0.14368762
-0.19998899 -0.24754746 -0.077796705 -0.3118677 0.2857445 0.15351264 0.031251997 0.12730157
0.24561535 -0.26144654 0.117644645 -0.12951808 -0.09871884 0.053804345 0.21332197 0.21935193
-0.18822719 0.016182974 0.2430287 0.32313654
00000000: a29c 263e ef05 6bbc a4a0 353d ea0e c7bd
00000010: bd13 52bc 6955 8f3e 8df9 963d eea2 f33d
00000020: c746 a5be 240a 8fbe 38a2 353e feb5 9abd
00000030: 2bcb bbbd 3f2d 46bd 8b54 41bd cd96 22bd
00000040: 4344 40be 51cc 7b3e c61a 95be ee42 b7bd
00000050: 5825 c3bd 7e43 16be ab4c 1dbe f5f3 7a3e
00000060: ba4e 8f3c 8d7e c93d da98 9c3e 0247 6dbe
00000070: ca15 85be 2362 86bd 5aa4 ad3d fc7b 67be
00000080: 7660 7bbe fbd8 29be e1fa 68be 5f65 19be
00000090: f9f9 cebd 5f4b 3dbe da7c 43be d113 353e
000000a0: c054 893e 470a 283e 673d 8ebe a2c2 69be
000000b0: 2631 08be fcda a3be 3266 5abe f4b4 53bd
000000c0: a053 3fbe 5745 34be 862d a9be 81ad 40be
000000d0: 80ed aebb d7fd 563e 2ad3 fb3d d375 d93b
000000e0: 6fb8 d33d be96 7a3d d0c3 f9bb f697 c13d
000000f0: ed4e 5c3d c7fc ac3e 9cd2 4abe 88e1 353e
00000100: 5a71 26be ddea 70be b7b7 45bc a6ab cfbd
00000110: 58d7 063e 940f 80bd da91 4fbe 70ec 20be
00000120: b074 a13b 1b85 03be fe1f 9dbc ff56 55be
00000130: 1e91 48bd f693 ab3c a8a3 f73d d922 13be
00000140: eac9 4cbe 157d 7dbe e153 9fbd 20ad 9fbe
00000150: 1a4d 923e 6b32 1d3e 1802 003d 585b 023e
00000160: 9782 7b3e 52dc 85be adef f03d 63a0 04be
00000170: 1a2d cabd f261 5c3d 1371 5a3e cb9d 603e
00000180: a1be 40be 2892 843c 84dc 783e 2772 a53e

g.4.weight f4 [1, 100]
0.07992959 0.21416606 -0.002115741 -0.056273486 -0.00050477235 0.13195753 -0.12927717 -0.0024482103
-0.24241908 -0.24443573 -0.11823534 -0.034956735 0.0012911942 -0.022248782 0.09642911 -0.002564656
0.23742448 0.15192029 0.36273932 -0.0050719646 -0.043167744 -0.17475 0.24238239 0.24731757
-0.15366581 0.06577512 -0.45604724 -0.114845656 -0.14985697 -0.0070920237 0.0030960194 -0.07126637
0.25289285 -0.13383803 -0.14081626 -0.098956175 -0.03623837 0.20934728 -0.08606362 -0.08800998
-0.38097215 0.07617354 -0.110294275 -0.039197233 -0.10447634 -0.1595873 -0.2994885 0.21040244
0.26047486 -0.06903704 0.3487777 -0.16347143 0.003908713 0.10476662 0.0032564513 0.1445202
-0.0030729251 0.07630228 -0.00072021456 -0.14386418 0.0059071705 0.18518104 -0.08594998 -0.13533689
0.050056204 -0.08044686 0.11288076 0.16083232 0.11987545 -0.05728647 -0.28197145 -0.08816018
0.033159245 -0.08962023 -0.0031967082 -0.044287205 0.0029842942 -0.08688234 0.009789962 0.28072923
-0.09762153 -0.10661822 -0.25492206 -0.19984807 -0.16283326 -0.104287505 0.0011450512 -0.0024858755
0.090531416 0.1399158 0.084909365 0.0029717698 -0.022504043 0.05998746 0.12800731 0.11422472
-0.17356743 -0.17712545 0.14389579 -0.3064572
00000000: 20b2 a33d 594e 5b3e 3ea8 0abb 077f 66bd
00000010: b352 04ba e01f 073e 3c61 04be 2772 20bb
00000020: b53c 78be 5c4d 7abe 5f25 f2bd cb2e 0fbd
00000030: 4a3d a93a 1443 b6bc a07c c53d ca13 28bb
00000040: 671f 733e fe90 1b3e f8b8 b93e b932 a6bb
00000050: a9d0 30bd aaf1 32be 1733 783e d140 7d3e
00000060: 925a 1dbe 1bb5 863d 067f e9be 3334 ebbd
00000070: 1b74 19be 3564 e8bb 96e6 4a3b 1af4 91bd
00000080: 2c7b 813e d60c 09be 2332 10be 89a9 cabd
00000090: af6e 14bd 225f 563e 2042 b0bd 943e b4bd
000000a0: c80e c3be df00 9c3d f7e1 e1bd 478d 20bd
000000b0: b1f7 d5bd da6a 23be 8f56 99be bd73 573e
000000c0: f65c 853e 4b63 8dbd fe92 b23e 0e65 27be
000000d0: a914 803b e28f d63d 306a 553b 1afd 133e
000000e0: 2163 49bb 5f44 9c3d c8cc 3cba 2251 13be
000000f0: f090 c13b 19a0 3d3e 8b06 b0bd c195 0abe
00000100: bc07 4d3d 53c1 a4bd 072e e73d 3ab1 243e
00000110: 4381 f53d 38a5 6abd 905e 90be 538d b4bd
00000120: fdd1 073d d08a b7bd dd7f 51bb 8066 35bd
00000130: 2694 433b 5eef b1bd 1466 203c bebb 8f3e
00000140: cced c7bd a75a dabd 2585 82be f9a4 4cbe
00000150: c3bd 26be b094 d5bd 8b15 963a 12ea 22bb
00000160: 8968 b93d 1646 0f3e f6e4 ad3d 06c2 423b
00000170: 665a b8bc 69b5 753d 5914 033e a6ee e93d
00000180: a9bb 31be 6060 35be 6b59 133e f5e7 9cbe
