models/loan_ALLR0_mlp_l0.010_s3.pth (torch, 46309 bytes, 5 tensors)

g.0.weight f4 [100, 7]
-0.24408202 -0.2130519 -0.05985215 -0.23753843 0.07362717 -0.6627994 0.21441925 0.20377098
0.0134154735 0.28816152 -0.05422091 0.25834924 -0.25425088 -0.024808807 -0.16098017 -0.026298858
-0.07344945 0.43162316 0.17141545 0.5570517 0.2785655 -0.10536242 0.33125004 -0.11524851
-0.27504486 -0.2956592 -0.3724889 -0.29535797 -0.35645145 -0.11133797 -0.008651157 0.16639136
-0.22939776 -0.48990822 -0.48481578 -0.04030743 0.10849993 -0.41668102 -0.15446766 0.11003159
0.0985924 -0.11650445 -0.014119146 -0.15383135 0.4297842 0.033405256 -0.15948868 -0.10154249
0.03578452 0.36407444 0.17715105 -0.04665215 -0.11627409 0.32146335 0.5514087 0.37956205
-0.17686757 0.39302528 0.2602757 -0.1955603 0.2540856 0.19734539 -0.35112706 -0.14352211
-0.34349248 -0.28897953 0.056670688 -0.3140439 0.1303256 0.32676628 0.05060732 0.23830295
-0.02935664 -0.029357819 0.26611638 0.44741455 0.32534873 0.20528945 0.04579926 0.06472963
-0.40476304 -0.1878467 -0.66468394 -0.15324849 0.20110953 -0.33883923 0.16625752 -0.30090106
-0.16924752 -0.1261276 -0.016623002 0.17601345 -0.2618605 0.41952497 0.03720994 0.11374578
-0.31054497 0.2948271 -0.19002347 -0.19488594 0.079293594 0.09643584 0.066579446 -0.15923066
0.13869682 -0.102494605 -0.034590412 0.008884098 0.1659575 -0.22957215 0.40063122 0.50497586
-0.22406782 -0.19385655 -0.033814337 -0.40507913 0.23937541 0.49868846 -0.008525387 0.28705817
0.097203255 -0.12337418 -0.33584592 -0.086803034 -0.65069705 -0.1559194 -0.01369745 -0.07805862
-0.030080672 -0.007560692 0.3380637 0.022319358 0.6002841 -0.09844373 -0.19271873 0.01736177
0.18232149 0.22849506 -0.55930436 -0.03791984 -0.24979308 0.073505536 0.07449162 0.14628129
-0.0041227583 -0.1417429 0.15279998 -0.46748364 0.019057158 0.1213522 -0.33016616 0.3565498
-0.017587282 0.64871794 0.3739039 -0.51240164 0.3396266 -0.18169253 -0.058192927 -0.45790336
-0.73150665 0.1923406 0.084339686 0.22374697 -0.18192333 -0.3082918 0.22479914 -0.07925036
0.14255077 -0.013197873 0.047494344 0.14626583 -0.35985056 0.099118024 -0.057753768 0.28869602
-0.20227295 0.41590816 0.42654374 -0.0444379 0.8170262 0.029013861 0.310745 0.26465893
0.11063437 -0.15536144 0.09627334 0.4310564 -0.42276567 -0.073248066 0.3680293 -0.37613103
-0.31524226 0.018330617 0.033616733 0.11756825 -0.0006399561 0.021573078 -0.16556805 0.36776242
-0.27851808 0.09219223 0.32104436 0.17558469 0.2768489 -0.11430659 0.19366102 -0.3263724
0.40254366 -0.33869198 -0.18447818 -0.26738104 0.2858684 0.18790618 -0.13232525 -0.66438574
-0.015743155 0.104043305 0.020416321 0.23180011 -0.1302091 -0.3167623 0.12165564 0.4476383
0.07344636 0.021383107 -0.18351623 0.117109954 0.19791843 -0.5648259 -0.35529172 0.21254775
0.21975978 0.09024086 0.118562505 0.35980338 -0.5290932 0.12477827 0.09460675 0.29684705
0.15184344 0.2510497 -0.37068206 -0.12638368 0.19347489 0.09516895 -0.0038668648 0.26519936
-0.12613524 -0.10959469 0.5583564 0.0950451 0.33593833 -0.46871948 0.062015958 -0.2841872
00000000: a3f0 79be 472a 5abe 8727 75bd 463d 73be
00000010: d7c9 963d 39ad 29bf b890 5b3e 57a9 503e
00000020: 93cc 5b3c e889 933e bf16 5ebd 5a46 843e
00000030: 2c2d 82be d73b cbbc fcd7 24be b470 d7bc
00000040: aa6c 96bd b6fd dc3e 8887 2f3e f19a 0e3f
00000050: 23a0 8e3e 41c8 d7bd 9b99 a93e 6907 ecbd
00000060: aed2 8cbe a560 97be ddb6 bebe 2939 97be
00000070: ce80 b6be 2905 e4bd 95bd 0dbc 7f62 2a3e
00000080: 3fe7 6abe 40d5 fabe c639 f8be 6719 25bd
00000090: 3635 de3d 3757 d5be c52c 1ebe 3e58 e13d
000000a0: d0ea c93d e399 eebd fe53 67bc f785 1dbe
000000b0: ad0c dc3e f3d3 083d 0051 23be 82f5 cfbd
000000c0: ca92 123d f767 ba3e 1667 353e 5316 3fbd
000000d0: 1c21 eebd d896 a43e 1f29 0d3f f555 c23e
000000e0: c61c 35be 9c3a c93e db42 853e f640 48be
000000f0: 8217 823e e914 4a3e edc6 b3be 76f7 12be
00000100: 3fde afbe 20f5 93be 861f 683d 5dca a0be
00000110: 1374 053e e94d a73e 9f49 4f3d b005 743e
00000120: 567d f0bc cf7f f0bc 6840 883e 8513 e53e
00000130: 1c94 a63e 6637 523e 0198 3b3d f890 843d
00000140: 1a3d cfbe e35a 40be ba28 2abf 2ced 1cbe
00000150: a8ef 4d3e 567c adbe 693f 2a3e b40f 9abe
00000160: 394f 2dbe 9827 01be f62c 88bc df3c 343e
00000170: 9412 86be facb d63e 7369 183d 8cf3 e83d
00000180: c0ff 9ebe 94f3 963e 8395 42be 2e90 47be
00000190: ae64 a23d 2780 c53d ce5a 883d 5d0d 23be
000001a0: 8a06 0e3e b1e8 d1bd adae 0dbd 9c8e 113c
000001b0: c3f0 293e f614 6bbe 891f cd3e 1946 013f
000001c0: 0972 65be 5582 46be e780 0abd 8866 cfbe
000001d0: d41e 753e 1854 ff3e 11ae 0bbc 4af9 923e
000001e0: 8012 c73d 9aab fcbd fff3 abbe cac5 b1bd
000001f0: 1594 26bf 56a9 1fbe 456b 60bc 33dd 9fbd
00000200: be6b f6bc aebf f7bb af16 ad3e 16d7 b63c
00000210: 38ac 193f de9c c9bd 0f58 45be 453a 8e3c
00000220: 7cb2 3a3e 9cfa 693e 922e 0fbf d651 1bbd
00000230: c2c9 7fbe 128a 963d 108f 983d c3ca 153e
00000240: 3418 87bb 0d25 11be 9977 1c3e 045a efbe
00000250: c21d 9c3c 8187 f83d 8a0b a9be b28d b63e
00000260: 3413 90bc 6112 263f 5570 bf3e c12c 03bf
00000270: 8ae3 ad3e 9b0d 3abe b55b 6ebd 4f72 eabe
00000280: 0544 3bbf eff4 443e 49ba ac3d ed1d 653e
00000290: 1c4a 3abe 6cd8 9dbe bf31 663e 034e a2bd
000002a0: d4f8 113e e43b 58bc 6e89 423d b6c6 153e
000002b0: 553e b8be 64fe ca3d 378f 6cbd f7cf 933e
000002c0: a420 4fbe eaf1 d43e f163 da3e 8404 36bd
000002d0: a128 513f 7aae ed3c f819 9f3e 6081 873e
000002e0: 4694 e23d 1217 1fbe f52a c53d 6db3 dc3e
000002f0: be74 d8be 1503 96bd 566e bc3e 3f94 c0be
00000300: 6f67 a1be 172a 963c b3b1 093d 9fc7 f03d
00000310: bac2 27ba 06ba b03c ac8a 29be 5b4b bc3e
00000320: ec99 8ebe 48cf bc3d ed5f a43e 79cc 333e
00000330: 24bf 8d3e 9319 eabd 134f 463e 491a a7be
00000340: 341a ce3e 0969 adbe d9e7 3cbe 2be6 88be
00000350: 585d 923e 7a6a 403e 4580 07be 2f15 2abf
00000360: caf7 80bc a814 d53d 2140 a73c 025d 6d3e
00000370: 8955 05be ab2e a2be 9826 f93d d930 e53e
00000380: 0c6b 963d a02b af3c aeeb 3bbe 58d7 ef3d
00000390: 21ab 4a3e 6e98 10bf cce8 b5be 1ea6 593e
000003a0: b508 613e 33d0 b83d e6d0 f23d 2638 b83e
000003b0: a772 07bf c08b ff3d 2fc1 c13d 56fc 973e
000003c0: d97c 1b3e 9689 803e 0aca bdbe b96a 01be
000003d0: 481e 463e f0e7 c23d 3a6b 7dbb 36c8 873e
000003e0: 9929 01be 2e73 e0bd 72f0 0e3f 01a7 c23d
000003f0: 1c00 ac3e 00fc efbe 7204 7e3d fc80 91be

g.0.bias f4 [100]
0.067841604 -0.5911524 0.49195838 -0.4805392 -0.50158256 -0.39359546 0.548939 0.41481048
-0.34899297 -0.041748744 0.45355308 -0.5397696 0.51178926 0.27324322 0.19027376 -0.40562284
0.04541736 -0.5662049 0.25260678 -0.09374122 0.6550493 -0.15877877 0.32060888 -0.31198856
-0.22419602 -0.019946733 0.053313427 0.5067437 -0.059213206 -0.39825115 0.05940685 -0.26584366
0.43998152 -0.475212 0.5692499 -0.09775307 -0.3143522 0.172755 -0.5022906 -0.28603742
0.21395947 0.048274845 -0.49634334 0.12175496 -0.03433867 0.17658618 -0.09910406 0.29079974
0.046581853 0.43239522 0.20148106 -0.31729713 0.2231076 -0.5999828 0.28497705 -0.16213469
-0.119135976 0.2290498 -0.10018033 0.16325875 -0.57550883 -0.30315414 0.48515248 0.25745437
-0.14143053 -0.58591723 0.5581844 0.052787032 0.37034932 0.62728226 0.24230705 0.32646877
-0.03715741 -0.17616051 0.39431876 0.17646457 -0.5757546 0.6070598 0.04649879 -0.2996641
0.41964793 0.5045253 -0.34606278 -0.52854884 -0.5286882 -0.3453589 -0.09030341 -0.30618644
-0.5800873 -0.22279252 0.31417325 -0.3242792 -0.09414725 0.17793117 0.52925557 -0.01284196
0.05436065 -0.3222949 0.009788116 -0.33291164
00000000: 8af0 8a3d c455 17bf f8e1 fb3e 3c09 f6be
00000010: b767 00bf 5885 c9be 4487 0c3f 0a62 d43e
00000020: 35af b2be bb00 2bbd 1c38 e83e 572e 0abf
00000030: 9f04 033f 89e6 8b3e 20d7 423e ccad cfbe
00000040: 8e07 3a3d cef2 10bf ad55 813e 66fb bfbd
00000050: 50b1 273f e796 22be d926 a43e f7bc 9fbe
00000060: a493 65be 5567 a3bc 2e5f 5a3d f5b9 013f
00000070: 8c89 72bd 93e7 cbbe 9954 733d a91c 88be
00000080: 4245 e13e fd4e f3be 5dba 113f c332 c8bd
00000090: c6f2 a0be b0e6 303e 1e96 00bf 7f73 92be
000000a0: 3118 5b3e d8bb 453d b720 febe aa5a f93d
000000b0: b5a6 0cbd 02d3 343e 12f7 cabd b4e3 943e
000000c0: 9dcc 3e3d e862 dd3e 0d51 4e3e c574 a2be
000000d0: 5276 643e 7998 19bf 83e8 913e a306 26be
000000e0: 90fd f3bd 088c 6a3e 582b cdbd 4d2d 273e
000000f0: 8c54 13bf 0537 9bbe e865 f83e 0fd1 833e
00000100: 2ad3 10be acfe 15bf 2ce5 0e3f 3737 583d
00000110: 6d9e bd3e 9295 203f 571f 783e ea26 a73e
00000120: 5e32 18bd 6c63 34be 26e4 c93e 21b3 343e
00000130: a764 13bf 4568 1b3f 8475 3e3d 936d 99be
00000140: 18dc d63e 9228 013f 242f b1be fa4e 07bf
00000150: 1c58 07bf e2d2 b0be fff0 b8bd 78c4 9cbe
00000160: 9a80 14bf b923 64be 51db a03e ec07 a6be
00000170: 46d0 c0bd 9733 363e 4b7d 073f 1667 52bc
00000180: 46a9 5e3d d603 a5be 565e 203c 6573 aabe

g.2.weight f4 [100, 100]
-0.08564091 0.09942245 -0.08826642 0.17954472 -0.032919046 0.09050754 0.011962239 0.13163659
0.2567146 -0.10592762 0.1357833 -0.01687335 0.017884212 -0.061092284 -0.12032893 0.013224185
0.15476921 0.1468989 0.054111775 -0.1814901 0.0753162 0.32899773 0.026306095 0.06460906
-0.122029334 -0.15648854 0.06478738 0.2084131 -0.157204 -0.031896442 -0.09617001 0.15801077
-0.07379385 0.19642311 0.013564516 0.057463124 0.12219508 0.03835121 0.012062945 -0.20513725
-0.062512964 0.10232129 -0.03263823 -0.24510792 -0.14680782 0.1233152 -0.023423422 0.03303979
-0.13555157 -0.03218965 -0.03176406 -0.006160106 -0.02118418 0.17985001 -0.023095673 -0.0022278805
-0.019816844 -0.06156917 0.09215842 -0.19064794 -0.06951965 0.050616086 0.09548915 -0.17266095
-0.15569177 0.038601976 -0.060015306 -0.14694133 -0.19236498 -0.042200193 0.074221455 0.05118681
0.11164351 0.008707749 -0.055056386 -0.06749502 -0.0939297 0.15711409 -0.15350455 -0.03221965
0.00038628327 -0.09903561 -0.06688996 0.08234672 0.27219117 0.24238183 -0.09665631 -0.084686786
0.35329002 0.24062562 0.024902467 0.20978625 0.20351346 0.1212337 -0.09675655 -0.11887159
-0.1666181 0.057532683 0.20179339 0.020247156 0.0016239024 0.14727668 0.121178195 0.013146065
-0.13904619 0.08877931 -0.06822507 0.23048581 0.21885484 -0.006934593 0.13766964 -0.21775408
0.045369625 -0.04598666 0.0101104565 -0.11665491 0.0033889944 -0.10023639 0.00020623137 0.103053235
-0.07774952 0.04129977 0.101328745 -0.02655542 -0.07205857 0.048794914 0.107679844 -0.18244106
0.015728986 0.10883475 -0.14264965 -0.17615001 0.08803334 -0.032027856 -0.09709258 -0.062192164
-0.1444912 0.24483661 0.15650268 -0.15248846 -0.11345944 0.014833765 0.20671189 0.03440594
0.14595695 0.020562977 0.054517675 -0.02297833 0.044503104 -0.0062110475 0.11529137 -0.13248648
0.03308196 0.08299228 0.030769534 0.06723073 -0.022980709 -0.01877579 0.111107044 -0.04009149
0.1618551 0.0014556302 0.28811562 0.05636055 -0.16571374 -0.3290401 -0.096265614 -0.012050829
0.0010246495 -0.14633404 0.04539723 0.058641534 0.0042278133 -0.015852239 -0.29030585 -0.06385081
0.17306691 0.16218427 0.068024725 0.11893595 -0.22009215 -0.18838046 -0.06883186 -0.00032385834
0.032240868 -0.029696802 0.09096064 -0.043070264 -0.019209065 0.015644489 0.114084296 -0.12820481
-0.0540719 -0.062684834 -0.20926493 0.09990373 0.041841015 -0.22930095 0.116935775 -0.15262635
-0.072465 -0.040406812 0.12586516 -0.095844604 -0.25699243 0.02733765 -0.033909522 0.18261865
0.03329999 0.09459293 0.019052472 -0.26250935 0.04601295 0.09675969 0.13664906 -0.13818906
-0.057763092 -0.123640925 0.25908008 0.054163728 0.042891268 -0.021501623 0.1786653 -0.19620486
-0.072155945 -0.024826547 -0.0719245 -0.00438357 -0.0075423485 -0.066240594 -0.0043761195 0.00213784
0.23057038 -0.0034902159 0.013866529 -0.074312545 -0.19249023 0.11419983 0.07637951 -0.16830975
-0.13680403 0.022009276 0.06620914 -0.026317317 -0.080156706 0.038921736 -0.104870915 0.011468757
-0.07772406 -0.028405758 0.1088854 0.088481545 -0.21513866 0.0014329478 -0.05217299 -0.13039432
00000000: 8064 afbd ff9d cb3d 06c5 b4bd 92da 373e
00000010: 1fd6 06bd 045c b93d 44fd 433c becb 063e
00000020: 1970 833e 94f0 d8bd c70a 0b3e fb39 8abc
00000030: e981 923c e73b 7abd 046f f6bd 41aa 583c
00000040: d27b 1e3e aa6c 163e 4fa4 5d3d 8ad8 39be
00000050: 613f 9a3d 6472 a83e e17f d73c c151 843d
00000060: 84ea f9bd 883e 20be 3faf 843d 3e6a 553e
00000070: 16fa 20be d8a5 02bd c8f4 c4bd 93cd 213e
00000080: 3b21 97bd 2423 493e b43d 5e3c 745e 6b3d
00000090: 6a41 fa3d 2916 1d3d a9a3 453c 800f 52be
000000a0: cc06 80bd d38d d13d aaaf 05bd 92fd 7abe
000000b0: ca54 16be ae8c fc3d 7ae2 bfbc bb54 073d
000000c0: 08ce 0abe 4bd9 03bd 081b 02bd b7da c9bb
000000d0: 728a adbc 9a2a 383e 2333 bdbc a201 12bb
000000e0: ef56 a2bc f42f 7cbd 8ebd bc3d 3739 43be
000000f0: 5160 8ebd d052 4f3d d18f c33d 08ce 30be
00000100: aa6d 1fbe 1b1d 1e3d 9cd2 75bd ca77 16be
00000110: 53fb 44be 1cda 2cbd 6b01 983d 43a9 513d
00000120: 5aa5 e43d f2aa 0e3c ce82 61bd d43a 8abd
00000130: 375e c0bd 84e2 203e 4c30 1dbe c0f8 03bd
00000140: 1086 ca39 2fd3 cabd 9afd 88bd 66a5 a83d
00000150: a45c 8b3e f132 783e bef3 c5bd 4470 adbd
00000160: 6ee2 b43e 9066 763e 4200 cc3c 35d2 563e
00000170: d565 503e 6049 f83d 4c28 c6bd f372 f3bd
00000180: ef9d 2abe 64a7 6b3d eda2 4e3e 5ddd a53c
00000190: 1fd9 d43a b3cf 163e 462c f83d 9862 573c
000001a0: 2062 0ebe edd1 b53d 96b9 8bbd 7904 6c3e
000001b0: 7c1b 603e 953b e3bb 45f9 0c3e edfa 5ebe
000001c0: 80d5 393d 825c 3cbd 54a6 253c c5e8 eebd
000001d0: e419 5e3b bd48 cdbd d03f 5839 930d d33d
000001e0: 243b 9fbd f329 293d 7285 cf3d c18a d9bc
000001f0: 7293 93bd 2ddd 473d 4087 dc3d d4d1 3abe
00000200: 13da 803c c1e4 de3d c012 12be ab60 34be
00000210: d34a b43d a42f 03bd 79d8 c6bd 36bd 7ebd
00000220: 80f5 13be 73b6 7a3e 3d42 203e ef25 1cbe
00000230: 6c5d e8bd 5209 733c 48ac 533e 3eed 0c3d
00000240: bd75 153e b073 a83c ed4d 5f3d 0d3d bcbc
00000250: e348 363d 0b86 cbbb e21d ec3d 89aa 07be
00000260: f380 073d dbf7 a93d 6410 fc3c 44b0 893d
00000270: 0a42 bcbc b0cf 99bc 178c e33d f936 24bd
00000280: 58bd 253e d8ca be3a e483 933e 52da 663d
00000290: ddb0 29be f277 a8be e826 c5bd d770 45bc
000002a0: 884d 863a 97d8 15be 72f2 393d 1b32 703d
000002b0: 7889 8a3b 8edc 81bc f8a2 94be 37c4 82bd
000002c0: 7438 313e a213 263e 8c50 8b3d b194 f33d
000002d0: d65f 61be cfe6 40be b8f7 8cbd 88cb a9b9
000002e0: 000f 043d b546 f3bc 9249 ba3d 726a 30bd
000002f0: 545c 9dbc df28 803c 07a5 e93d 1f48 03be
00000300: 7f7a 5dbd e860 80bd 8c49 56be 549a cc3d
00000310: 7c61 2b3d decd 6abe 067c ef3d 154a 1cbe
00000320: 8868 94bd 9d81 25bd cce2 003e 2d4a c4bd
00000330: 8394 83be 35f3 df3c b6e4 0abd 6200 3b3e
00000340: 9265 083d f0b9 c13d ee13 9c3c a067 86be
00000350: 1378 3c3d f229 c63d bbed 0b3e 6f81 0dbe
00000360: fe98 6cbd 7437 fdbd 25a6 843e c9da 5d3d
00000370: c1ae 2f3d 2c24 b0bc 09f4 363e ede9 48be
00000380: 7fc6 93bd 0b61 cbbc 274d 93bd 0da4 8fbb
00000390: ce25 f7bb 26a9 87bd 8d65 8fbb 011b 0c3b
000003a0: a41a 6c3e 1bbc 64bb 7030 633c 2d31 98bd
000003b0: 291c 45be 9ae1 e93d dc6c 9c3d 6459 2cbe
000003c0: 5b16 0cbe cc4c b43c a898 873d 6a97 d7bc
000003d0: 3329 a4bd 666c 1f3d 90c6 d6bd 74e7 3b3c
000003e0: cb2d 9fbd 31b3 e8bc 4fff de3d d035 b53d
000003f0: 4f4d 5cbe c0d1 bb3a 58b3 55bd 1786 05be

g.2.bias f4 [100]
-0.023638655 -0.15024625 -0.084966645 -0.27325204 0.073020466 -0.0447785 -0.062117457 0.2766604
0.15009747 0.22974047 -0.08603876 -0.14391302 -0.20790088 0.26467344 -0.13748105 -0.0721465
-0.019376585 0.056515995 -0.22550409 -0.151578 0.090086386 0.14529043 0.29382527 -0.36949858
-0.18407911 -0.25454828 -0.24899824 0.15707086 0.20205423 0.015087032 0.11106458 -0.23674236
-0.14454103 0.19851764 -0.09923544 0.0014339336 0.23284264 -0.28154492 0.06477842 -0.18918425
-0.058661237 -0.13371947 0.13574861 0.0059493454 -0.0941453 0.1353226 0.24000157 0.0119699035
-0.000119091244 0.09747973 -0.25089675 0.012521399 0.022997966 -0.05398178 -0.0068831258 0.35054064
-0.1963447 0.019185511 -0.035451468 0.023179289 0.029689759 -0.24429612 0.057374954 0.025364446
-0.25137576 0.029621966 -0.19943953 -0.17941667 0.19212414 0.34500226 0.08060302 -0.24194902
-0.248637 -0.121132836 0.27653804 0.10672482 0.19556189 0.2718441 -0.23590644 0.10475553
0.13534896 -0.35248736 -0.059384994 0.0075342376 -0.0075794333 -0.042075668 -0.10632252 -0.16984224
-0.13473909 -0.10201535 0.15458003 0.12040442 -0.3444582 0.22452469 -0.07580087 0.2859158
0.2857021 -0.062204465 0.00867233 -0.19329932
00000000: daa5 c1bc 27da 19be fe02 aebd b1e7 8bbe
00000010: c18b 953d a969 37bd e06e 7ebd 6fa6 8d3e
00000020: 27b3 193e 1641 6b3e 1735 b0bd ef5d 13be
00000030: f8e3 54be 4783 873e d5c7 0cbe 8bc1 93bd
00000040: a5bb 9ebc 517d 673d 8bea 66be 4337 1bbe
00000050: 367f b83d 04c7 143e 4470 963e eb2e bdbe
00000060: 3c7f 3cbe 2754 82be 65f9 7ebe 2fd7 203e
00000070: 4ee7 4e3e 992f 773c d475 e33d 976c 72be
00000080: 9002 14be 3548 4b3e f33b cbbd d4f2 bb3a
00000090: 4d6e 6e3e a826 90be 8caa 843d 84b9 41be
000000a0: c446 70bd c2ed 08be af01 0b3e baf2 c23b
000000b0: 40cf c0bd 0292 0a3e f9c2 753e 6a1d 443c
000000c0: a0c0 f9b8 74a3 c73d 8a75 80be 8e26 4d3c
000000d0: 3b66 bc3c 001c 5dbd d88b e1bb 107a b33e
000000e0: 960e 49be ef2a 9d3c 8f35 11bd 7ee2 bd3c
000000f0: f037 f33c c328 7abe 0002 6b3d 19c9 cf3c
00000100: 53b4 80be c4a9 f23c e039 4cbe 01b9 37be
00000110: 31bc 443e 23a4 b03e 3213 a53d 7cc1 77be
00000120: b39a 7ebe 7e14 f8bd 6596 8d3e 8b92 da3d
00000130: 6041 483e 262f 8b3e 7591 71be 118a d63d
00000140: eb98 0a3e 3979 b4be ae3d 73bd c4e1 f63b
00000150: e55c f8bb 8957 2cbd 9fbf d9bd 20eb 2dbe
00000160: 0bf9 09be 6ced d0bd 3a4a 1e3e 9896 f63d
00000170: d35c b0be cde9 653e 7d3d 9bbd 8e63 923e
00000180: 8c47 923e 1cca 7ebd 6316 0e3c 42f0 45be

g.4.weight f4 [1, 100]
-0.058552053 -0.080105916 -0.122092545 0.3670808 0.04712147 -0.064403616 -0.06445971 0.16094282
-0.28074807 -0.27168986 -0.041544423 -0.091615185 -0.13909347 0.044088405 -0.2052342 -0.06764026
-0.047825493 -0.2017904 0.3590244 -0.2160486 -0.17588371 0.07053554 0.18024305 -0.20949116
-0.21029642 -0.14095591 -0.10709092 -0.34810877 0.105402954 -0.022895541 0.13156316 -0.1495341
-0.07882897 0.12156616 -0.011638482 -0.08282234 0.22553435 -0.2362723 -0.0013084457 0.15884647
0.044006106 -0.010556189 0.030075002 -0.0017491863 -0.09226515 -0.1849672 0.14365105 0.012757097
-0.009830314 0.08779708 -0.14241734 0.14408807 -0.0053441934 -0.059486236 0.121189035 -0.29493982
-0.072877765 0.14906807 -0.009915411 0.011360893 0.060149852 -0.08860275 0.06421274 -0.022258848
-0.1712434 -0.20499648 -0.119098075 -0.18653181 -0.24891642 0.2905985 0.06534112 0.35260385
-0.11383986 -0.014164837 0.18445039 0.05108946 -0.26625696 0.1175481 -0.16007312 0.115726404
-0.17846131 -0.2930352 -0.03897299 -0.047312636 -0.08578188 -0.09014657 -0.11804924 0.18255872
-0.031741433 -0.16963089 0.09324715 0.17886391 0.24370041 -0.24696104 0.004170289 -0.35813326
0.18322998 0.00086842687 0.00014651821 -0.06339065
00000000: 47d4 6fbd 920e a4bd a80b fabd 04f2 bb3e
00000010: 7102 413d 0be6 83bd 7403 84bd 32ce 243e
00000020: 36be 8fbe ef1a 8bbe 7c2a 2abd bea0 bbbd
00000030: 856e 0ebe 0b96 343d ea28 52be fa86 8abd
00000040: aae4 43bd 25a2 4ebe 0cd2 b73e d83b 5dbe
00000050: dc1a 34be f074 903d a291 383e da84 56be
00000060: f257 57be bf56 10be 7c52 dbbd 503b b2be
00000070: 81dd d73d 6e8f bbbc 7eb8 063e 781f 19be
00000080: 1571 a1bd aef7 f83d 55af 3ebc c29e a9bd
00000090: 7af2 663e 5ef1 71be 2780 abba a6a8 223e
000000a0: bf3f 343d def3 2cbc da5f f63c f444 e5ba
000000b0: 83f5 bcbd 0b68 3dbe 4319 133e 2503 513c
000000c0: 530f 21bc f5ce b33d dad5 11be d38b 133e
000000d0: 581e afbb d7a7 73bd f531 f83d 5a02 97be
000000e0: f040 95bd 4da5 183e 3f74 22bc 0a23 3a3c
000000f0: b15f 763d 5c75 b5bd f881 833d 3058 b6bc
00000100: 6e5a 2fbe 99ea 51be b1e9 f3bd 3202 3fbe
00000110: f2e3 7ebe 54c9 943e 91d1 853d 7e88 b43e
00000120: df24 e9bd a213 68bc 90e0 3c3e 2e43 513d
00000130: d552 88be 0fbd f03d 35ea 23be f701 ed3d
00000140: 90be 36be b608 96be 24a2 1fbd e5ca 41bd
00000150: 69ae afbd c49e b8bd cdc3 f1bd acf0 3a3e
00000160: 4e03 02bd b8b3 2dbe 5df8 be3d 1a28 373e
00000170: 9a8c 793e 5be3 7cbe eba6 883b 3e5d b7be
00000180: a4a0 3b3e 24a7 633a afa2 1939 f5d2 81bd
