models/loan_AF_mlp_s1.pth (torch, 44709 bytes, 5 tensors)

g.0.weight f4 [100, 3]
000000 bb 87 0e 3c 34 1d 9e bf 14 46 4a bd b1 f0 90 bc
       0.008699353 -1.2352662 -0.049383238 -0.017692896
000010 20 48 aa bf 19 94 37 3e 33 c2 eb 3c 37 4d 84 3f
       -1.3303261 0.17927589 0.028779125 1.0336064
000020 4e 96 d5 3d 55 44 84 bd 49 3c 0a 3f 16 af 4b be
       0.10429059 -0.06458346 0.5399824 -0.19891009
000030 64 6e a1 3e f0 8d 3e 3d ef 02 42 bf b0 25 9a bd
       0.31529534 0.04652208 -0.75785726 -0.075267196
000040 48 48 f9 3e f8 36 0c be fe 73 03 3f c9 67 31 3e
       0.4868796 -0.13692844 0.51348865 0.17324747
000050 3e 1e 46 bf 34 c1 ae be 06 c0 ac be 68 a9 16 bf
       -0.77389896 -0.34131777 -0.33740252 -0.58852243
000060 f3 13 d3 be 05 65 88 bd a6 2d 7d 3f 38 da 85 3e
       -0.41226158 -0.06659893 0.9889778 0.2614305
000070 30 99 3a bf 06 49 3d 3f 99 fa b2 3c 92 36 2d 3f
       -0.72889996 0.7393955 0.02184801 0.6766139
000080 f4 01 1a 3f df 55 ea be b9 83 6e bf fc 00 bf bd
       0.6015923 -0.4576864 -0.9316974 -0.0932636
000090 0c fa a2 3f c3 21 99 be 21 80 52 be 5f d1 45 be
       1.2732558 -0.2990857 -0.2055669 -0.1931815
0000a0 7a 3a 3c 3f 5d c6 0d bf 12 67 82 3f de 7b 3d bd
       0.7352673 -0.55380803 1.0187705 -0.046260707
0000b0 fa a8 ee be fe 82 87 3e 3f 68 1d bf f9 1d ac 3e
       -0.46613294 0.26467127 -0.6148719 0.33616617
0000c0 e8 3a 24 bc ff f7 e5 3d fe 23 91 bf 12 d8 64 be
       -0.01002381 0.11228942 -1.1339109 -0.2234805
0000d0 58 8d 1d 3f 4f 00 2f be 88 84 01 3f d6 b8 61 3f
       0.615438 -0.17089961 0.5059285 0.8817266
0000e0 92 fd 1b 3d 44 84 ec be a5 cf 14 3f c3 4e ad 3e
       0.03808362 -0.4619466 0.5812934 0.33849153
0000f0 2c 47 ce be 11 ab a2 3e 4b 66 6b 3f 37 17 3f 3f
       -0.40288675 0.31771138 0.9195296 0.746448
000100 9a 6c 97 be 2c 6a 07 bf c8 d0 37 3c 5c 71 41 3e
       -0.29575044 -0.5289638 0.011219211 0.188909
000110 c9 19 84 bf 8e dc a9 be f5 b4 01 3f cd 1d e9 be
       -1.0320369 -0.33176082 0.50666744 -0.4553055
000120 23 63 10 3f f6 cb e6 bd ae 9a db 3e ab e4 af 3c
       0.5640127 -0.11269371 0.4289145 0.021471342
000130 6b a3 e0 3e eb 7d 0b 3f 53 13 92 bf d7 ce db 3e
       0.43874678 0.5448901 -1.1412147 0.42931244
000140 10 3f fb be 75 3b 99 be c0 f0 7f b9 8b 4f 65 be
       -0.4907155 -0.29928175 -0.00024408381 -0.22393624
000150 28 fa ba 3e 48 1f cb be 68 88 54 bf ce 02 92 3e
       0.3651898 -0.39672303 -0.8302064 0.28517765
000160 ce a2 6a be d3 58 87 3f cd 03 1c 3e 84 c8 18 bf
       -0.22913668 1.0573982 0.15235825 -0.5968096
000170 5c 8a f6 3e e0 84 97 3d 10 b7 41 bf 3e 3c e8 be
       0.48152435 0.07398391 -0.75669956 -0.4535846
000180 89 0e 55 3f 73 b8 90 3d 48 69 b2 be ca 14 77 be
       0.83225304 0.07066431 -0.34845948 -0.24129024
000190 74 df 26 3f eb 2d 19 bf 0e 0b db 3e ff ca e3 3e
       0.6518471 -0.5983569 0.42781872 0.4449081
0001a0 8a c9 5c bf b2 0d 48 bf 58 83 fc 3e 6b 92 ab be
       -0.86245024 -0.781459 0.49318957 -0.33510146
0001b0 60 e8 a0 3e f7 f4 b5 3e 77 e4 fc 3e 2c aa 5b 3e
       0.31427288 0.35538456 0.49393055 0.21451634
0001c0 80 c8 53 3f 86 9a 35 bf 4e 31 90 bd 60 d2 dd 3e
       0.82727814 -0.7093891 -0.07040654 0.43324566
0001d0 61 5c 1c 3f ed 08 dc 3e 6f ee e1 be cd f2 70 bf
       0.6107846 0.4297556 -0.44127223 -0.94120485
0001e0 eb 45 80 be 91 37 06 be f1 4c a7 3f 9b 08 c5 be
       -0.25053343 -0.13107134 1.3070356 -0.38483128
0001f0 e5 81 0f 3f 70 87 1e bf 20 72 86 bf d1 eb e0 bd
       0.5605758 -0.6192541 -1.0503578 -0.109824784
000200 92 c7 f5 3e bd d1 7d 3f f7 0c db be 42 e1 bb 3e
       0.48003823 0.9914816 -0.4278333 0.36695296
000210 6e 96 a7 3e 28 d6 30 3f 7b 2a ef 3e 24 ad 35 3d
       0.32731956 0.69076777 0.46712098 0.044354573
000220 27 c7 9f 3f aa 46 4b bb 92 84 98 be b5 2f 3c bf
       1.2482651 -0.003101746 -0.29788643 -0.73510295
000230 d6 e3 7b be 7c 6a f6 bd 07 dd 49 bf 37 53 39 bc
       -0.24598631 -0.12032029 -0.78852886 -0.011311344
000240 97 b8 0f 3e 4c b6 c8 be 2a 40 72 3d bd 13 43 bc
       0.14035259 -0.3920158 0.059143223 -0.011906561
000250 3d 0d e8 3e b1 ac 77 3f 39 45 ef 3c 0e 12 95 3f
       0.453226 0.9674788 0.029207813 1.1646135
000260 de 13 ac 3c 50 89 81 bc bc a8 63 bf 30 21 ec be
       0.021005567 -0.015812546 -0.88929343 -0.4611907
000270 cb 3a c4 be 9d 5d 14 bf 1c cc 6a 3f 06 2e 7f be
       -0.38326105 -0.5795534 0.91717696 -0.249199
000280 f9 fc 9e bf 92 2b cb 3d 9b 45 a2 3e a7 25 63 3f
       -1.2420951 0.0992042 0.3169373 0.8872933
000290 2c 5c b8 bd 91 09 bf 3d 72 18 3b bf 74 57 ab be
       -0.090019554 0.093279965 -0.73084176 -0.3346516
0002a0 a5 c2 35 bf e0 0e d0 be a7 6e bc be 80 73 6b 3e
       -0.7100013 -0.4063635 -0.3680317 0.22993279
0002b0 17 6f c3 3e a8 c1 59 3e 6c 08 e7 3e 61 0d 25 3f
       0.38170692 0.2126528 0.45123613 0.6447354
0002c0 6b 99 c5 3e c7 f9 25 bd 4a a6 4e bf d3 7f 17 3f
       0.3859361 -0.04052141 -0.80722487 0.5917942
0002d0 fc 8f 35 be a7 81 10 be fa ba 45 bf 7c 2c 58 3e
       -0.17730707 -0.14111958 -0.7723843 0.2111072
0002e0 94 c7 ea be ed 9f 6c 3f 04 86 30 be 65 00 4a bf
       -0.4585539 0.9243153 -0.17238623 -0.7890685
0002f0 df ad 25 3e bb e8 fe be ca b8 9c 3e f7 2c 17 bf
       0.16179608 -0.49786934 0.30609733 -0.59052986
000300 44 90 37 bf db 8e 68 bd 4b ff 77 3f 15 5b 40 bf
       -0.71704507 -0.056776863 0.9687392 -0.7513898
000310 44 06 78 3c 0d 0d 9e 3f 6b 7b 8b 3f 33 06 13 bf
       0.015138213 1.2347733 1.0897039 -0.57431334
000320 de 69 61 be ff 96 a5 be bd d5 20 3f 6c 70 29 bf
       -0.22013041 -0.32341763 0.6282614 -0.6618717
000330 ed 8e 1b 3f 5b 98 43 3c a1 ee 0e 3e fb 04 34 bd
       0.6076496 0.01193818 0.13958217 -0.043950062
000340 e9 ec a1 3e f4 f1 03 3f 04 e6 20 3e 88 a6 05 3f
       0.3162606 0.51541066 0.15712744 0.5220723
000350 64 36 4e bf 2b a6 30 3e b6 b9 f3 3e db a1 1a 3f
       -0.80551744 0.17250888 0.47602624 0.6040322
000360 a7 6d 99 3d 2e 11 98 bf 30 c2 18 be 7b 33 21 3f
       0.07491618 -1.1880243 -0.14917827 0.6296918
000370 2c 07 82 be 80 a5 bb 3f f6 c0 ae be 71 f3 19 bf
       -0.25396097 1.4659882 -0.34131593 -0.6013709
000380 d1 6d 1b 3f a1 a1 74 bf 4b 50 14 be 2d e4 8a 3f
       0.6071444 -0.95559126 -0.14483754 1.0850884
000390 4f f3 0a 3e 6e 24 86 3f 2f 2d b9 be 4a cd 42 be
       0.13569377 1.0479867 -0.36167285 -0.19023624
0003a0 1b f2 90 3f 14 d4 b3 3d b3 27 e9 bd 7b 1f 59 3e
       1.1323885 0.08780685 -0.11384525 0.21203415
0003b0 80 c5 a2 bf 2b 35 04 3f 0a ab 1a 3f 18 ae 30 bf
       -1.2716522 0.5164363 0.60417235 -0.69015646
0003c0 8d 42 51 bf 37 e0 ab be 34 cc 6b 3f e7 0c b6 bd
       -0.81742173 -0.335695 0.92108464 -0.0888918
0003d0 09 66 18 bf 17 13 92 be 57 d2 52 bf 3a ae 26 bf
       -0.59530693 -0.2853019 -0.82352203 -0.651096
0003e0 85 cb 29 bf 09 80 2a 3e fb d3 8d 3f 55 c1 ba be
       -0.6632617 0.16650404 1.1080316 -0.36475626
0003f0 cf ba 33 be 9e 70 cc 3e c0 e2 e4 bd d2 3b ec be
       -0.1755173 0.3992967 -0.11176062 -0.4613939

g.0.bias f4 [100]
000000 75 2d 2c 3e 57 24 20 be ef c5 d9 3d e4 8b e4 be
       0.16814215 -0.15638863 0.10633456 -0.44637978
000010 db 38 42 ba 13 11 09 bf f3 2f 3e bf 34 83 37 3f
       -0.0007408985 -0.5354168 -0.74291915 0.71684575
000020 1b fb b3 3e c6 2e 3c 3f 74 e5 ff be 81 b2 0f bf
       0.35152516 0.7350887 -0.49979746 -0.5613175
000030 e5 fa 75 bf 96 b3 e6 be 36 83 6c 3f 0e de 6d bf
       -0.9608596 -0.45058888 0.9238771 -0.92916954
000040 b4 9c 77 be 7d 59 3e 3f f7 f0 1c 3f 02 70 26 3f
       -0.24180871 0.743553 0.61305183 0.6501466
000050 b0 19 88 be 8f 94 b4 be 86 cf 44 be a0 73 fa be
       -0.26582098 -0.3526959 -0.19219789 -0.4891634
000060 c7 f0 0a 3f 9a ad 0c bf 92 8d 73 bf ea 8a 87 3d
       0.5427365 -0.54952395 -0.95137894 0.06618293
000070 88 b3 41 bf 5d 73 82 be 63 ce 0a 3f a4 79 1a 3f
       -0.7566457 -0.2547864 0.5422117 0.6034186
000080 4b 82 7f 3f a6 f0 20 bf 65 63 fb bc 65 43 00 bf
       0.99808186 -0.628672 -0.030687043 -0.50102836
000090 96 cc 0e bf 2d 3b c8 be 26 30 a9 3e 21 48 62 3e
       -0.55780923 -0.39107648 0.33044547 0.22097827
0000a0 9a 54 f8 be 7d 86 2f bf 5c 2d 84 bf bf bd 69 3f
       -0.48502046 -0.6856459 -1.0326343 0.91305155
0000b0 66 0d c9 be d6 9c bc be 7f df 18 bf 35 d5 05 bf
       -0.39268035 -0.36838406 -0.5971603 -0.52278453
0000c0 6d 63 7e bf 4b 08 30 bf c0 b5 f9 3e 86 a0 19 3f
       -0.9937046 -0.68762654 0.48771477 0.60010564
0000d0 c7 6e 00 bf 09 e0 8d be 6c d0 0b 3f 40 0f 2a 3f
       -0.5016903 -0.27709988 0.546149 0.6642952
0000e0 51 5c 42 3f 42 be 94 3e f9 8e 2c 3f 63 b4 fa bc
       0.75922114 0.29051405 0.6740566 -0.030603593
0000f0 25 bb 1a bf d0 5b 7b bf 51 d3 ff 3e e6 b8 a0 be
       -0.6044181 -0.9818697 0.4996591 -0.31391066
000100 06 6c db 3e 6b d2 e7 3d f0 c6 89 bf 94 cd 04 bf
       0.42855853 0.11319431 -1.0763836 -0.5187619
000110 b9 7e e3 3e 38 c1 bc be 03 c4 2c bf 55 b0 17 3f
       0.4443262 -0.36866164 -0.6748659 0.59253436
000120 37 67 83 3e 7b 86 f7 be fb 1a a5 3e b9 94 1c 3e
       0.25664684 -0.48344788 0.32247147 0.15291108
000130 3c 42 43 be cd e6 35 3f 13 06 15 3f c9 12 e0 3d
       -0.19068235 0.710553 0.58212394 0.10941083
000140 24 a5 c0 be 3d 8c 2e bf be 20 47 3f 13 65 0f be
       -0.37625992 -0.68182737 0.77784336 -0.140034
000150 1e e8 40 bf 35 c0 45 3f 78 ff ae 3e d6 60 d3 3e
       -0.7535418 0.7724641 0.34179282 0.41284817
000160 10 a3 08 be fb 62 21 bf 2f 2f 71 3e 78 4e 62 3f
       -0.13343453 -0.6304166 0.23553155 0.88400984
000170 29 e7 ee 3d 54 77 fc be e5 63 95 3f 5a be 79 3d
       0.11665184 -0.4930979 1.167111 0.06097255
000180 78 52 58 3f 90 d2 ae 3e 67 1c 53 3f 9c 21 24 3f
       0.8450084 0.3414502 0.82465214 0.64113784

g.2.weight f4 [100, 100]
000000 28 5b ff 3c 27 bc ae 3e 56 9a 89 be 10 c7 80 3d
       0.031171396 0.34127924 -0.2687556 0.06287968
000010 68 ef 65 3d 3f 32 ae 3d 13 77 8c 3e a4 38 87 be
       0.05613652 0.085056774 0.27434596 -0.264104
000020 d6 d4 8a be 88 28 42 be ed 6d d4 3d 9e e8 fe 3e
       -0.27115506 -0.18960774 0.10372529 0.49786848
000030 05 d5 bd 3e a1 54 1c 3c a4 c3 6c be 73 9a e8 3e
       0.37076584 0.0095416615 -0.23121506 0.45430335
000040 b3 38 31 3e d7 4f cd be 31 81 05 bf b7 44 2b bf
       0.17306785 -0.40099975 -0.52150255 -0.66901726
000050 59 41 4d bc 4a 9d c8 3e b4 f4 58 3e f9 b6 7f 3e
       -0.012527787 0.39182502 0.21187097 0.24972142
000060 39 00 ad be 9e 8a 2a 3e 47 72 5a 3e fd d6 d8 bd
       -0.33789232 0.16654441 0.21332656 -0.10587881
000070 43 a8 43 3f 5f 8a fc 3a ec 76 2b be 9b 1f 3e be
       0.7642862 0.0019267312 -0.16744584 -0.18566744
000080 13 7e 9f be 53 73 4e 3e 48 87 4a 3d a0 d4 e3 bc
       -0.31150874 0.2016118 0.04944542 -0.027811348
000090 7e dc 48 3e 8e 3c bc 3d c8 25 81 be da 15 e5 3b
       0.19615361 0.091912374 -0.25224137 0.0069911303
0000a0 e6 3d be ba a5 b9 a0 3e e1 0d 61 3e 90 fc 48 be
       -0.0014514297 0.31391636 0.2197795 -0.19627595
0000b0 84 d1 f6 3d a4 97 53 3d 5c 4a f2 3e f6 77 4f 3f
       0.12051681 0.051658288 0.47322357 0.8104242
0000c0 e2 1a 8e 3e 4d 78 eb 3d 12 71 11 bf a8 6c 97 bd
       0.27754885 0.11497555 -0.56813157 -0.073937714
0000d0 04 5f b7 3e 3b 86 bf 3e db 7f f9 be af 63 e0 bd
       0.3581468 0.37407097 -0.48730358 -0.10956513
0000e0 82 a8 8a be 7d 47 c6 be 16 f5 af be a0 cb a2 3c
       -0.27081686 -0.38726416 -0.34366673 0.019872487
0000f0 88 53 06 3f c7 f6 01 3e b0 2a 3a bd 18 2d 31 3e
       0.5247121 0.12691794 -0.045450866 0.17302358
000100 e1 58 cb be 4d 71 f8 bd bc f9 d2 3e 1e 11 d3 3d
       -0.39716247 -0.121309854 0.41206157 0.10305999
000110 5b a3 39 be 09 24 35 bd a6 95 6c 3e 72 06 da be
       -0.18128721 -0.04422382 0.23103961 -0.42583042
000120 fd d8 d3 3d c4 2e 40 3e 67 71 a6 3b aa 59 3d be
       0.103441216 0.1876784 0.0050794366 -0.18491235
000130 b7 5e 02 be 79 98 41 bf 25 2f 1c bc e1 75 22 be
       -0.12731443 -0.7562328 -0.0095327245 -0.1586528
000140 a3 09 c6 3d b7 ec 84 3f 8e 83 61 be a1 e9 e4 bc
       0.09669807 1.038474 -0.2202284 -0.027943434
000150 f6 d2 9a 3e 9e 42 61 bf 45 07 98 be 00 5e c7 38
       0.30239075 -0.87992275 -0.29693046 9.506568e-05
000160 a8 83 31 3e 4d b8 1a 3e 2d 43 97 be 03 a9 8b be
       0.17335379 0.15109368 -0.2954344 -0.27277383
000170 95 ef 05 3d 64 ba f2 3d 46 10 c5 be 84 30 1b 3e
       0.032699186 0.118519574 -0.38488978 0.15155226
000180 ab ad 93 be 7a 92 d3 be 30 90 98 be 84 ba 13 be
       -0.28843436 -0.4132269 -0.29797506 -0.14426619
000190 8e d3 f6 3c c5 ec b3 3d a7 a7 79 be 35 2c 96 bd
       0.030130174 0.087853946 -0.2438036 -0.073326506
0001a0 75 fa 0a be 75 e5 99 bd 47 47 ff bd 41 c1 4a bd
       -0.13572104 -0.075144686 -0.12464767 -0.049500708
0001b0 28 79 53 3e db f0 45 bd aa 11 06 be 77 e2 21 3e
       0.20651686 -0.0483254 -0.13092676 0.15809046
0001c0 e7 23 4c be 4c 41 7e 3d 89 79 b1 bd 6c 8b 68 bd
       -0.1993557 0.06207399 -0.08665759 -0.056773588
0001d0 11 5f 03 be f9 cf 0e be 3d df 6e be 9f aa d3 3d
       -0.12829234 -0.13946523 -0.23327346 0.10335278
0001e0 5e b0 37 bd 32 29 85 be 66 43 c7 ba 91 16 b5 bc
       -0.04484593 -0.26007992 -0.0015202581 -0.022105487
0001f0 7e 0a 06 be ee c6 c8 bd 7c 38 98 3d 1c d5 b7 3d
       -0.1308994 -0.09803568 0.074326485 0.08976194
000200 ff 7b 0b be a8 e7 d3 bc b6 5e 7c 3c 65 f5 4f 3d
       -0.1362152 -0.025867298 0.01540344 0.050771136
000210 51 3e 82 bd ac 23 34 3d 32 80 55 be 08 21 52 bc
       -0.06359542 0.04397933 -0.20849684 -0.012825258
000220 50 ab 87 3b 14 d2 c6 bd ae 7c 69 bd 93 c9 2f 3d
       0.004140295 -0.09708038 -0.05700367 0.042916846
000230 94 2a 09 3e db 18 7a bd a3 f9 98 3d df f3 9b bd
       0.13395149 -0.06105886 0.074694894 -0.07614874
000240 ef d2 26 be e0 ac c2 bd ba 86 dc 3b 0e 75 8e 3e
       -0.16291402 -0.095056295 0.006729928 0.2782368
000250 6d 1c 76 3b 7a 6a 5f 3c 46 c4 13 be 22 98 d3 3c
       0.0037553564 0.013636226 -0.14430341 0.025829379
000260 3a 9f 8b 3e d7 02 fd 3d 3a 30 86 be 31 d2 22 3d
       0.27269918 0.12354057 -0.2620867 0.039751235
000270 60 eb 4e 3e 72 67 34 be e0 a6 01 be 58 0d 88 3d
       0.20206976 -0.17617586 -0.12661314 0.0664317
000280 d0 95 59 bd 1a 0a 68 3d ba 6e d5 3d 03 87 c6 3c
       -0.053121388 0.05665026 0.1042151 0.0242343
000290 d2 66 48 3e 4e 10 38 3e 5c 4a 22 be 06 57 13 bd
       0.19570473 0.1797497 -0.15848678 -0.035971664
0002a0 ee e3 40 be 17 e2 c2 3c f5 29 49 3d 73 37 b0 bc
       -0.18836948 0.023789449 0.04911228 -0.021510815
0002b0 7c f5 ae bc 0f 1f 80 bd 66 7a e9 3d e7 70 41 3e
       -0.02135729 -0.06255924 0.11400299 0.18890725
0002c0 39 02 f8 bd fd 99 e0 bd f2 01 41 bd e1 e7 88 be
       -0.12109799 -0.10966871 -0.047120996 -0.2673941
0002d0 a6 84 b7 3e 0b 7a d1 3d b9 55 f0 3d 25 1d 37 bd
       0.3584339 0.10228356 0.117351 -0.04470553
0002e0 67 a4 d4 3c b0 d2 0e 3d fd 6c 68 3a 5a 7a 4b 3d
       0.0259573 0.034868896 0.0008866338 0.04967723
0002f0 58 69 6d 3e c2 bc ed 3d 0b 1c b3 bd 82 45 19 3d
       0.23184717 0.11608268 -0.08745583 0.037419803
000300 13 60 4c 3e d1 73 00 3e 90 8d bf bd 21 42 66 3e
       0.19958524 0.1254418 -0.09353173 0.22486164
000310 e2 9d e7 3c be bb 1f 3e 1b d0 0f 3d c1 2a f6 3d
       0.028273527 0.15598962 0.035110574 0.120198734
000320 9d b0 e0 3d 08 a6 78 bb 09 bc 99 3d 81 89 8e 3d
       0.10971186 -0.003794076 0.07506568 0.069598205
000330 b8 6f 89 be 3d b8 24 bd c2 c2 60 3c 1f f4 31 3e
       -0.26843047 -0.040214766 0.013718309 0.17378281
000340 10 d6 af 3d 3f ad 0f bd a7 b3 cb bd 05 52 d2 bb
       0.08585751 -0.03507733 -0.09946375 -0.006418469
000350 f6 64 23 be 53 ad a5 3d 19 a0 03 be af f0 d6 3d
       -0.15956482 0.080896996 -0.12854041 0.104951255
000360 33 a7 37 bd 01 8a 2f 3d c3 12 64 3d f9 3b 19 3e
       -0.044837188 0.04285622 0.055681955 0.14964284
000370 52 c2 6e 3d 46 48 92 be 88 73 ad 3c 61 33 99 3d
       0.058290787 -0.28570765 0.021173254 0.07480503
000380 87 34 e6 bc b1 6b 52 3c 0a cb 94 3d 09 ec 39 3e
       -0.028101219 0.012843058 0.07265289 0.18156447
000390 70 1c 2f be 39 5b ec 3d 56 be f4 3c 43 06 5c 3d
       -0.17100692 0.11540837 0.029875915 0.05371691
0003a0 e5 c9 01 be cf ad f9 3b e0 a2 27 be 4f 03 bd 3d
       -0.12674673 0.0076195966 -0.16370726 0.09229147
0003b0 d8 63 aa bd 37 3c 27 bd 8f 93 a4 bb f9 12 b7 bd
       -0.08319825 -0.04082891 -0.005022473 -0.089391656
0003c0 f7 fd 13 3d df 55 14 3d 4b 3d 68 3e 9e b0 bb bb
       0.03613087 0.036214706 0.22679631 -0.0057278415
0003d0 20 60 93 bd 61 fd 29 3c 7a b6 cf bd 1f cf fc 3d
       -0.07196069 0.010375352 -0.101422265 0.12344193
0003e0 b6 f8 6e bd d9 d9 27 be f8 8c 06 bd ec 0b 19 3e
       -0.058342658 -0.16391696 -0.032849282 0.14945954
0003f0 e3 1f 68 3d 76 6a ca bc b1 48 0f be 0b 5f a1 bd
       0.056671035 -0.024708968 -0.13992573 -0.07879456

g.2.bias f4 [100]
000000 92 86 af be 91 6e 1c 3d 41 bb d8 bc 8d d5 11 be
       -0.34282357 0.03819138 -0.026456477 -0.1424162
000010 ee 36 da 3e b3 e9 45 3e 5b b5 ed bd c7 f7 85 3d
       0.42620033 0.1932743 -0.116068564 0.065414004
000020 04 76 f5 bc d2 81 b0 bd c5 3d a3 3e 5e 33 93 be
       -0.0299635 -0.08618511 0.31883064 -0.28750128
000030 05 ac 22 be 3c 0f 6a be fc 16 b7 be 96 d2 57 3e
       -0.15885933 -0.22857374 -0.35759723 0.21076426
000040 a0 05 ab 3e af 6d 41 be 54 d8 99 3e 66 c3 07 3e
       0.3340273 -0.18889497 0.30047858 0.13258132
000050 ab 13 0e be 35 39 d5 be e1 68 df bc e6 aa cd bd
       -0.1387469 -0.41645208 -0.02727169 -0.10042362
000060 ed a2 8b be 9b f0 d6 3d d4 cf cd bd cb 47 30 be
       -0.2727274 0.104951106 -0.10049406 -0.17214887
000070 0c 61 d3 bc 20 c7 b5 bc 70 ed 3a be a5 3a 97 3b
       -0.025803111 -0.022189677 -0.18254638 0.0046151453
000080 15 74 d5 bb a5 2d 82 3d b0 c3 0f be 21 83 d8 3e
       -0.006514082 0.06356362 -0.14039493 0.42287543
000090 7e bc 20 be 61 47 a5 3e f8 71 5e be 08 f6 c7 3e
       -0.15696904 0.3228102 -0.21723163 0.39054894
0000a0 f9 5a 83 be 20 9a ee bd 8b 9a 86 be c0 8b 15 be
       -0.25655344 -0.11650491 -0.26289782 -0.14604092
0000b0 8c a0 2d 3e 93 a9 33 3d 8e c7 a8 3e 92 44 b3 3d
       0.16955775 0.04386289 0.32964748 0.08753313
0000c0 17 17 80 3e 8f fd 81 bc 18 71 d8 be c8 02 0e bd
       0.25017616 -0.015867976 -0.42273784 -0.03467062
0000d0 0c c6 a6 3e 8f 87 d3 3d 5c 54 05 3d ce fb a7 3e
       0.32572973 0.1032859 0.032551154 0.328093
0000e0 23 65 f8 3e ce 88 50 3e f9 da c4 3e 05 76 b8 3e
       0.4851466 0.20364687 0.38448313 0.36027542
0000f0 03 2e 1e be 22 bb ca bd 0f 15 81 be 0a cd a0 3e
       -0.1544724 -0.09898974 -0.2521138 0.31406432
000100 70 10 96 3e 5b 73 88 bd 33 e2 bd be a3 fd fc 3e
       0.29309416 -0.06662627 -0.3708664 0.4941226
000110 80 11 3d 3e a6 e5 2c 3e 9a 53 88 be 2d e0 5f be
       0.18463707 0.16884479 -0.26626283 -0.2186286
000120 60 c3 ad bd a7 cd ef bd 84 65 89 3e f2 d4 f1 bd
       -0.084845304 -0.11709147 0.26835263 -0.11808194
000130 bf 8e 8f 3e 18 04 49 bc cd ab 4d be e0 c8 3f 3e
       0.28038594 -0.012269042 -0.20085068 0.18728971
000140 3f 50 b1 be 4d 6d 6d bd 53 9f b2 3d 9e 93 a1 3e
       -0.34631535 -0.057965565 0.08721795 0.31557935
000150 70 e1 a6 be 65 ff 64 bd 65 04 32 be f2 c8 8b 3e
       -0.3259387 -0.055907626 -0.17384489 0.27301747
000160 ea 29 91 3e 5c 1b 0e 3d 85 5a 5b 3e 20 41 65 3c
       0.2835229 0.03469406 0.21421249 0.013992578
000170 ff 2a 94 be 8d 3d 07 3e 85 63 88 3e 49 35 14 be
       -0.28939053 0.13207074 0.26638427 -0.14473452
000180 51 ce 94 3e 3c 29 d1 bc 50 69 19 bd 55 8c 8e be
       0.29063657 -0.025532357 -0.03745395 -0.2784144

g.4.weight f4 [1, 100]
000000 00 e5 8d 3e 4e eb 0f 3a b6 1b 0f bb 5c 8c 39 3c
       0.27713776 0.000549008 -0.0021836585 0.011324968
000010 83 95 38 3e ca 5e 81 bd f9 ef 5f 3e 88 ba 4d 3d
       0.18025784 -0.06316908 0.21868886 0.05022672
000020 1f 1c ad 3d 6f 88 4b be f1 a2 be bd 33 02 d0 be
       0.08452629 -0.19876264 -0.09308422 -0.40626678
000030 56 a6 a2 bd ba bb 3b be 79 ce ba 3e 9e 23 49 bd
       -0.07941882 -0.18333331 0.3648565 -0.049106233
000040 73 79 c2 be b5 77 90 be 8f 00 8c 3e e0 18 ad 3e
       -0.37983283 -0.2821633 0.27344176 0.3380804
000050 9c 8f d8 3e 98 89 df be 77 69 51 be 1d c8 01 bf
       0.42297065 -0.43659663 -0.20450388 -0.50695974
000060 d9 bf b5 bd a6 61 88 3e 38 b5 ae be f7 f9 8a bb
       -0.08874483 0.26637 -0.34122634 -0.004241224
000070 92 3d 74 3d 21 54 1b be a7 1c ee 3d ed 5a e4 3d
       0.05962903 -0.15168811 0.11626559 0.11150155
000080 51 b8 a0 3e 59 84 ee bd dc 62 08 be 74 2d 23 3f
       0.31390622 -0.11646337 -0.13318962 0.6374123
000090 e0 7f 41 be de 04 68 3e 72 da ce 3e 0a 5c 8b 3e
       -0.18896437 0.22658107 0.40401036 0.27218658
0000a0 3e 2d d7 3e 88 0f 8f bd df 6a 75 3e a8 2e 9e be
       0.42026705 -0.06985384 0.2396655 -0.3089497
0000b0 f6 07 83 be 2d ce 66 bb 2b 67 0e 3e 05 01 4f 3d
       -0.2559201 -0.0035218105 0.13906543 0.05053808
0000c0 44 6b 25 3e 46 f8 b1 bd 74 71 a0 be cf 60 4a 3e
       0.161542 -0.086899325 -0.31336558 0.19763492
0000d0 a7 75 2c 3e b4 d8 e8 3c e8 4e 42 be db cc af 3e
       0.16841756 0.028423645 -0.18975413 0.3433598
0000e0 96 53 df 3e 18 5c 14 3e d0 4c 8e be 6b 6f ad 3e
       0.43618459 0.14488256 -0.27792978 0.33874068
0000f0 67 16 49 3e 32 8c 61 3e 86 5d ca 3e 53 74 a0 be
       0.19637452 0.22026137 0.39524478 -0.31338748
000100 3c 85 a4 3e 17 5e f9 3b 94 16 b1 be 4e 11 ef 3e
       0.321329 0.0076100933 -0.34587538 0.4669289
000110 e5 d3 a2 be 42 13 e2 be 43 a6 fd bd 3c 21 4e 3c
       -0.31802288 -0.44155318 -0.123852275 0.012581166
000120 34 4f ed 3d d7 df 61 be 77 27 7d be 5a 00 b4 3e
       0.115873724 -0.22058044 -0.24722086 0.35156518
000130 2e 6b 96 be b0 e8 d5 bd 9f 48 c0 3e 56 b5 02 bf
       -0.29378647 -0.10444772 0.37555405 -0.51057947
000140 90 99 0a bf 60 c9 4a 3d 45 d6 4f 3d 40 2a c1 be
       -0.5414057 0.049508452 0.050741453 -0.37727547
000150 01 d0 b2 3e 13 b5 82 3c bd 42 d5 3d bc 1f a8 3e
       0.3492432 0.015955484 0.1041312 0.3283671
000160 8a ca 7d be df 22 ba 3e 2c a2 ce 3d 8c 5e a6 be
       -0.24784294 0.3635473 0.100895256 -0.3249401
000170 23 bc 58 3e 63 94 cc 3e ae 67 5a 3e f0 21 9f 3e
       0.21165518 0.3995696 0.21328613 0.3108058
000180 c3 d0 56 bf 17 2e fc be 51 54 d2 3e ea d5 84 be
       -0.83912295 -0.49253914 0.41079953 -0.25944453
