models/loan_ALLR_mlp_l0.010_s2.pth (torch, 46309 bytes, 5 tensors)

g.0.weight f4 [100, 7]
0	0x3d865e7f	0.065609924
1	0xbeaae7a0	-0.3337984
2	0xbe0df098	-0.1386131
3	0x3dc936c1	0.098248966
4	0x3deee452	0.116646424
5	0x3e8afb15	0.27144685
6	0xbd6a2d7e	-0.05717229
7	0xbe8562c7	-0.26051924
8	0x3e3885cd	0.18019791
9	0xbe1e08d9	-0.15433063
10	0x3e131193	0.14362173
11	0x3d947fd5	0.072509445
12	0xbd9bd408	-0.07608801
13	0x3f30a4e2	0.6900159
14	0x3d8b49f3	0.06801214
15	0x3e2fd286	0.17170152
16	0x3df70d97	0.12063139
17	0xbe0c864b	-0.13723104
18	0xbd5fdb86	-0.054652713
19	0x3f279143	0.65456027
20	0xbf19db1e	-0.6009997
21	0xbd2bf3f3	-0.041980695
22	0xbe10fee0	-0.14159727
23	0x3e060f5e	0.130918
24	0xbd0b24da	-0.03397069
25	0x3d0fbe9f	0.0350939
26	0xbb887f34	-0.0041655544
27	0xbf145a43	-0.5795023
28	0xbe6ba1c3	-0.23010926
29	0xbe0f1332	-0.13972166
30	0xbe8f1833	-0.2794815
31	0xbe58c139	-0.21167459
32	0x3e85e065	0.26147762
33	0x3e5d3cfa	0.21605292
34	0xbd36945b	-0.044575077
35	0xbd7c6269	-0.06161729
36	0x3ca89520	0.02057892
37	0xbddb1ff9	-0.10699458
38	0xbe2567c6	-0.16152868
39	0xbe686b75	-0.22697242
40	0xbe1ea764	-0.15493542
41	0xbec4680f	-0.3836064
42	0x3e68b680	0.22725868
43	0x3d26b0a2	0.040695794
44	0xbd68e071	-0.05685467
45	0x3e060b10	0.13090158
46	0x3da3fb86	0.08006959
47	0x3d93e4ad	0.07221351
48	0xbd81c345	-0.06336073
49	0xbbed88e8	-0.0072489865
50	0x3c448d92	0.011996644
51	0x3e1096cf	0.14120029
52	0x3e4fe77e	0.20303151
53	0x3e165680	0.14681435
54	0xbdfb2c24	-0.122642785
55	0x3dbdb252	0.092625275
56	0xbe453719	-0.192593
57	0x3dae7bb1	0.08519686
58	0xbc9463f0	-0.01811406
59	0x3ee91ee2	0.45531374
60	0x3dedf715	0.11619393
61	0xbf54112f	-0.8283872
62	0xbc4e27ce	-0.012582732
63	0x3eb8d551	0.36100248
64	0x3eb1cb07	0.3472521
65	0x3d6aca41	0.05732179
66	0x3df90a57	0.12160175
67	0xbe9b78d7	-0.3036563
68	0xbe4a1b15	-0.19736893
69	0x3eaf2930	0.3421111
70	0xbea208bc	-0.3164729
71	0x3e744630	0.238549
72	0xbebe36d3	-0.37151203
73	0x3d761644	0.060079828
74	0xbd90db5e	-0.07073091
75	0x3e1ab1b6	0.15106854
76	0xbd2bb67d	-0.04192208
77	0xbecd9ea2	-0.4016009
78	0x3cd73243	0.026269084
79	0xbdd66205	-0.104679145
80	0x3e9f9c32	0.31173855
81	0x3d8b5d85	0.06804947
82	0xbf45cff8	-0.7727046
83	0xbd035cfe	-0.032071106
84	0x3e1d97e4	0.15389973
85	0xbe01c34a	-0.12672153
86	0x3cb80932	0.022465322
87	0x3e4b36e1	0.19845153
88	0xbe1cbfe6	-0.15307578
89	0xbe900afe	-0.28133386
90	0x3c620208	0.01379443
91	0xbdf8c2e1	-0.12146545
92	0x3e440228	0.19141448
93	0xbd15129a	-0.036394693
94	0x3ec74525	0.3891994
95	0x3e9953d1	0.2994676
96	0xbe1ecb06	-0.15507135
97	0xbe906d19	-0.28208235
98	0xbe7bfc3f	-0.24607943
99	0xbda15473	-0.078774355
100	0xbd4e461d	-0.050359834
101	0xbe28c613	-0.1648181
102	0xbedd3d2a	-0.43210727
103	0x3d899dd4	0.067195565
104	0x3e71c31b	0.23609583
105	0x3e1e163a	0.15438166
106	0x3da4403e	0.08020066
107	0x3dd5975b	0.104292594
108	0xbef05af5	-0.46944395
109	0xbdb15afe	-0.086599335
110	0x3ef9e0c4	0.48804295
111	0xbe4dec6e	-0.20109722
112	0xbe928620	-0.28617954
113	0xbdba9d4a	-0.09112032
114	0xbe9baf91	-0.30407384
115	0xbd9a0d9f	-0.07522129
116	0xbd9e4f1b	-0.07729932
117	0x3e86d14a	0.2633155
118	0xbe0e6248	-0.13904679
119	0x3e09420b	0.134041
120	0x3e3c1f5f	0.18371342
121	0x3e13f73e	0.14449784
122	0xbe2c0a18	-0.16800725
123	0x3e5c8453	0.21534853
124	0x3f2c0817	0.67199844
125	0xbe4da969	-0.20084156
126	0x3cc5d603	0.0241499
127	0x3daced33	0.0844368
128	0xbe9d5eb0	-0.30736303
129	0xbe8bf77a	-0.27337247
130	0xbed80a5c	-0.42195404
131	0xbd149478	-0.036274403
132	0xbe874c7e	-0.26425546
133	0xbebc4bc0	-0.36776543
134	0x3deb5171	0.11490143
135	0x3de8e33a	0.11371465
136	0x3e2045db	0.15651648
137	0xbe91e268	-0.28493047
138	0x3eb8603c	0.3601092
139	0xbe5dcb0e	-0.2165949
140	0xbec55867	-0.38544008
141	0xbdab3204	-0.08359149
142	0x3e3c764d	0.18404503
143	0x3e67dc44	0.22642618
144	0x3da6162c	0.08109698
145	0x3f04e0d2	0.5190555
146	0xbeecba1e	-0.46235746
147	0x3e79c585	0.24391754
148	0x3efd550c	0.49478948
149	0xbe0c9750	-0.13729596
150	0x3dcf89d6	0.10133712
151	0x3d8440d9	0.06457681
152	0xbe929b4f	-0.28634116
153	0x3e249ccd	0.1607544
154	0xbdd830b6	-0.10556166
155	0xbe383c58	-0.1799177
156	0xbe6f1fd6	-0.23351988
157	0xbdf2f1ae	-0.11862503
158	0x3e934fbf	0.2877178
159	0x3e6fdb5c	0.23423523
160	0xbea6d0ca	-0.32581168
161	0x3e7350c8	0.23761284
162	0xbd8e1c26	-0.06938963
163	0xbeb96612	-0.36210686
164	0xbd17597f	-0.036950585
165	0x3d4203eb	0.047367018
166	0xbe8e9283	-0.27846155
167	0xbd72a197	-0.059236135
168	0xbd947e96	-0.07250707
169	0xbdc057d2	-0.093917504
170	0xbe2fbfc0	-0.1716299
171	0x3ce35253	0.027749216
172	0x3e8d2e11	0.27574208
173	0xbda8e53e	-0.082468495
174	0xbf3f135c	-0.74638915
175	0x3cab711f	0.020927964
176	0xbe8b1eef	-0.27172038
177	0x3c7725e1	0.015084715
178	0x3e16e543	0.14735894
179	0x3dae92b6	0.08524077
180	0xbe8eaf2b	-0.27868018
181	0xbddd69a1	-0.10811163
182	0x3c869f07	0.016433252
183	0x3def3e2e	0.11681782
184	0xbe24e7ba	-0.16104022
185	0xbdc49667	-0.095989995
186	0xbc853e28	-0.01626499
187	0x3eb63631	0.3558822
188	0x3f280c56	0.65643823
189	0x3e76b4b1	0.24092366
190	0x3e70c67b	0.23513214
191	0xbeb37e96	-0.35057515
192	0x3e5fc4d9	0.21852435
193	0x3e1de1da	0.15418187
194	0xbc58259a	-0.013192559
195	0xbe3c9d19	-0.18419303
196	0x3d93335b	0.0718753
197	0xbe19cd3c	-0.15019697
198	0x3d7ff1c7	0.062486436
199	0x3e106710	0.14101815
200	0xbe3d0dd5	-0.18462308
201	0xbf3bbdc2	-0.7333642
202	0xbc5a4677	-0.013322464
203	0xbeace2e4	-0.33766854
204	0xbe72239e	-0.236464
205	0x3e486073	0.19568042
206	0x3de84b03	0.11342432
207	0xbe3e0765	-0.18557508
208	0x3d98d02d	0.074615814
209	0xbe057d5b	-0.130361
210	0xbe6610b3	-0.22467308
211	0xbd7b100d	-0.061294604
212	0x3daba27f	0.08380603
213	0xbe3a316d	-0.18182917
214	0xbe57fe16	-0.2109302
215	0x3e2806d5	0.16408856
216	0x3e219857	0.1578077
217	0xbe53d6e8	-0.20687449
218	0x3d81ec8a	0.06343944
219	0x3e4edcb8	0.20201385
220	0x3de81dc9	0.11333806
221	0xbe1e7a45	-0.1547633
222	0x3f17e3ee	0.5933217
223	0x3f1ba705	0.60801727
224	0xbd5ed66b	-0.054403704
225	0xbe19d6da	-0.15023366
226	0xbe164b38	-0.14677131
227	0x3ec62858	0.38702655
228	0x3de35acb	0.11101302
229	0xbd0d11dd	-0.034440864
230	0xbbb78fba	-0.0056018503
231	0xbd64d9b3	-0.055871677
232	0x3d67c775	0.0565867
233	0x3dcc633b	0.09979864
234	0xbde4ebae	-0.11177765
235	0x3dbef56e	0.09324156
236	0xbbe029e9	-0.0068409336
237	0xbe3fe343	-0.18739037
238	0xbdde925a	-0.10867758
239	0xbdacdd87	-0.084406905
240	0xbdda508c	-0.10659894
241	0x3db972e1	0.090551145
242	0xbe532c84	-0.2062245
243	0xbf41eb2a	-0.75749457
244	0x3e0fa129	0.14026321
245	0x3d34613b	0.04403804
246	0x3db3bb2e	0.08775936
247	0x3d466a7d	0.0484414
248	0xbe375466	-0.17903289
249	0xbe4a3075	-0.19745047
250	0xbf16b994	-0.5887692
251	0x3d94d46f	0.07267081
252	0xbd9fc9cd	-0.07802162
253	0xbebaaf10	-0.36461687
254	0xbeb9d5fb	-0.36296067
255	0x3e74fd55	0.23924764

g.0.bias f4 [100]
0	0x3f16f44c	0.5896652
1	0x3db567a6	0.0885766
2	0xbebb132d	-0.36538067
3	0x3e827713	0.2548147
4	0xbf3eba61	-0.7450314
5	0xbdc9a9a0	-0.098468065
6	0xbecfb159	-0.40564993
7	0xbd038534	-0.032109454
8	0xbe6a4803	-0.22879033
9	0xbe0f9d86	-0.14024934
10	0xbec89cfc	-0.3918227
11	0xbd19996c	-0.03749983
12	0x3e15455d	0.14577241
13	0xbe9e9258	-0.30971026
14	0x3ee3a3a6	0.4446079
15	0x3e8913f9	0.2677305
16	0xbf31a43f	-0.69391245
17	0x3ea83247	0.3285086
18	0xbd790f77	-0.060805764
19	0xbecc7d5f	-0.399394
20	0x3cd4e023	0.025985783
21	0x3e7b32f4	0.24531156
22	0xbe0b9815	-0.13632233
23	0x3e92c8ab	0.28668723
24	0x3ecb7d2d	0.3974394
25	0x3ea65e82	0.3249398
26	0xbefa9bdf	-0.48947045
27	0xbed77784	-0.4208337
28	0xbe3262dc	-0.17420524
29	0xbf132615	-0.57479984
30	0x3d613973	0.05498643
31	0xbf32c6d0	-0.69834614
32	0xbe6960c7	-0.22790824
33	0x3e81fe7c	0.2538947
34	0xbe958f3e	-0.29210848
35	0xbe69741b	-0.22798197
36	0x3deac9f8	0.11464304
37	0xbec9784b	-0.3934959
38	0xbf0b9e59	-0.54538494
39	0xbe4e7091	-0.20160128
40	0x3e540f9e	0.20709082
41	0x3e0b96a6	0.13631687
42	0xbeeb9312	-0.46010643
43	0xbe370090	-0.17871308
44	0xbe91d9f1	-0.2848659
45	0xbedf6ccf	-0.43637702
46	0x3c859fa0	0.016311467
47	0xbd4e8a47	-0.05042484
48	0xbee8a5d5	-0.4543902
49	0xbe055948	-0.1302234
50	0x3ef5b694	0.4799086
51	0x3de899ca	0.11357458
52	0xbf0c97a8	-0.5491891
53	0x3e9ca080	0.30591202
54	0xbf2d1188	-0.67604876
55	0xbe71fe67	-0.23632203
56	0x3d92262d	0.07136188
57	0x3e1f542c	0.15559453
58	0xbefd9cc3	-0.49533662
59	0x3e2ed1c7	0.17072211
60	0x3e427921	0.1899152
61	0x3ec80a8d	0.3907055
62	0xbea8ec14	-0.32992613
63	0x3f51ff1b	0.82029885
64	0x3e8f17b2	0.27947766
65	0xbe63ea74	-0.22257406
66	0x3eb7eb9b	0.3592194
67	0xbef9ae2b	-0.48765692
68	0x3e10f4cb	0.14155881
69	0x3e8e7256	0.27821606
70	0xbe9a1fc8	-0.30102372
71	0x3e862fd3	0.26208362
72	0x3d4105c6	0.047124647
73	0xbf1266eb	-0.5718829
74	0x3f01a0e2	0.5063611
75	0x3ea16046	0.31518763
76	0xbeaf6619	-0.34257582
77	0x3ecee21d	0.40406886
78	0x3e18f58c	0.14937419
79	0xbeca2cfe	-0.3948745
80	0x3ef746bc	0.48296154
81	0x3e21cd8f	0.1580107
82	0x3f14e2b6	0.58158433
83	0xbe01e03d	-0.12683196
84	0x3c2bb1a3	0.010479364
85	0x3e8350db	0.25647625
86	0x3f043b66	0.51653135
87	0x3efca531	0.4934478
88	0x3e8b9d19	0.27268293
89	0xbdee39bf	-0.11632108
90	0xbee8154d	-0.4532875
91	0x3ec3ab3d	0.38216582
92	0xbeb5dc53	-0.35519657
93	0x3e1e707e	0.154726
94	0x3e9125dc	0.28349197
95	0xbead4ee0	-0.3384924
96	0x3cbd1f46	0.023086201
97	0xbf0c71cb	-0.54861134
98	0xbe09b6e9	-0.13448681
99	0xbed47d4f	-0.41501853

g.2.weight f4 [100, 100]
0	0xbc96b570	-0.018397063
1	0x3e179dcd	0.1480629
2	0x3dc0f9bd	0.09422634
3	0xbd9a04d2	-0.07520451
4	0xbd7ca919	-0.0616847
5	0xbd245ee4	-0.040129557
6	0x3da51f0b	0.080625616
7	0x3d85d88d	0.065354444
8	0x3e4a0df6	0.19731888
9	0xbcfa5ade	-0.030560907
10	0x3dce8487	0.10083871
11	0x3c8b6fba	0.017021049
12	0xbcb5364f	-0.022120623
13	0xbd9f4858	-0.0777747
14	0xbde0c1dd	-0.109744765
15	0xbd8146ba	-0.06312318
16	0xbc2f2419	-0.010689759
17	0xbdcfaef7	-0.10140794
18	0xbbe82654	-0.007084647
19	0xbda5a655	-0.08088366
20	0x3e241dcc	0.16026992
21	0x3de46a1f	0.111530535
22	0x3dabc7fc	0.08387753
23	0x3d7ab10a	0.061203994
24	0x3dc3b598	0.09556121
25	0x3d4fefe1	0.050765876
26	0xbda6e367	-0.08148842
27	0x3ceaa932	0.028645132
28	0x3c013e11	0.007888333
29	0x3d630626	0.055425785
30	0xbd0a215f	-0.03372323
31	0xbe38efc0	-0.18060207
32	0x3d6066ea	0.054785646
33	0x3d64bd20	0.055844426
34	0x3d5030af	0.05082768
35	0xbe0d562e	-0.13802406
36	0xb9b4545a	-0.00034395122
37	0x3e006113	0.12537031
38	0xbbd187c9	-0.0063943607
39	0x3e26c216	0.16284975
40	0xbe244b85	-0.16044433
41	0x3d04fd49	0.032468114
42	0xbdc99403	-0.09842684
43	0x3e18aeb6	0.14910397
44	0x3b275826	0.0025534718
45	0x3e1099ed	0.14121218
46	0xbda4d075	-0.080475725
47	0x3af30fab	0.0018544098
48	0x3d0a0053	0.033691715
49	0xbd40e892	-0.047096796
50	0x3d3e83b9	0.04651234
51	0xbcd7e08f	-0.026352195
52	0xbe39cff5	-0.18145736
53	0x3dbb2a62	0.09138943
54	0xbd2ecca0	-0.042675614
55	0x3d239ac5	0.03994252
56	0xbdc0c31f	-0.094122164
57	0xbd1e62c0	-0.038668394
58	0xbe0a9ce0	-0.13536406
59	0x3e311784	0.17294127
60	0xbda64106	-0.08117871
61	0xbd887342	-0.06662609
62	0xbde6f307	-0.112768225
63	0xbd3bda6b	-0.045862596
64	0x3c6e39f2	0.014540182
65	0xbdd9127f	-0.10599231
66	0x3d9eef9e	0.07760547
67	0xbdd36798	-0.10322493
68	0xbc4d7730	-0.012540624
69	0xbceede56	-0.029158752
70	0xbddce35a	-0.10785551
71	0x3e30c03c	0.17260832
72	0xbd9872bf	-0.07443761
73	0xbe4703af	-0.19434999
74	0x3e45aeb8	0.19304931
75	0xbd442fc6	-0.047897123
76	0xbbb05e3d	-0.005382328
77	0xbd0961d3	-0.033540558
78	0xbd2c1e46	-0.04202106
79	0x3d0227ca	0.031776227
80	0x3cc97a29	0.024594383
81	0xbdc1867e	-0.094494805
82	0xbb7e867e	-0.0038837488
83	0x3cb12183	0.021622425
84	0xbd595ac8	-0.05306509
85	0x3dee26f2	0.11628522
86	0x3e0bfb35	0.13670047
87	0xbdd0490b	-0.10170182
88	0x3b9f5772	0.004862719
89	0x3dafa698	0.08576697
90	0xbc91e0d4	-0.017807402
91	0xbd738f9d	-0.059463132
92	0x3df3f4c8	0.11911923
93	0xbd2aca6f	-0.041696962
94	0x3d51b4d9	0.05119786
95	0x3d9e66eb	0.07734474
96	0xbd9f8730	-0.07789457
97	0xbdade1e6	-0.08490352
98	0x3d4fb7a2	0.050712235
99	0x3bd639db	0.0065376586
100	0x3e1b2e9b	0.15154497
101	0xbb91d410	-0.0044503286
102	0xbe8ddd44	-0.27707875
103	0xbc812b4a	-0.015767712
104	0xbe834f66	-0.25646514
105	0xbe113c34	-0.14183122
106	0xbe1dac70	-0.15397811
107	0xbc4e1679	-0.0125786
108	0x3dddf94d	0.10838566
109	0x3df3c41a	0.11902638
110	0xbe775bc7	-0.24156104
111	0x3dea9bfe	0.114555344
112	0x3e5ab556	0.21358237
113	0xbe5327c0	-0.20620632
114	0x3e14ee45	0.14544018
115	0x3d0efc32	0.03490848
116	0xbea6527c	-0.32484806
117	0xbd907958	-0.070543945
118	0x3c6f17b1	0.014593051
119	0xbe87cea3	-0.2652484
120	0x3d3c53c0	0.045978308
121	0x3e522be7	0.2052456
122	0xbda489a3	-0.080340646
123	0x3d14edfa	0.036359765
124	0xbdf6f339	-0.1205811
125	0x3e4c3118	0.19940603
126	0xbd73b574	-0.05949922
127	0xbe371c2e	-0.17881843
128	0x3dc6e4d7	0.097116165
129	0xbe328f19	-0.174374
130	0x3d1acb8b	0.03779177
131	0x3da43412	0.08017744
132	0xbc99f811	-0.018795045
133	0x3b9e31d5	0.004827718
134	0x3d88b2f6	0.06674759
135	0x3c3ea040	0.011634886
136	0x3e293474	0.16523916
137	0x3bc64b75	0.0060514756
138	0xbe98d09d	-0.2984666
139	0x3d9007c1	0.07032729
140	0x3e8c13e9	0.2735894
141	0x3d5f6c0a	0.054546393
142	0xbe9ee43d	-0.31033507
143	0xbe6abbbc	-0.22923177
144	0xbe1b5427	-0.1516882
145	0xbe4c8cda	-0.19975606
146	0x3d445ee1	0.047942046
147	0x3e3ab65b	0.18233626
148	0x3c0da9ae	0.008646412
149	0xbcdd0bf1	-0.026983233
150	0xbc92688e	-0.017872121
151	0xbd8f9ee8	-0.07012731
152	0xbe33b3da	-0.17549077
153	0x3db57c03	0.08861544
154	0xbe5fd715	-0.21859391
155	0x3d580de0	0.052747607
156	0xbde06d52	-0.10958351
157	0x3d60c7df	0.054878112
158	0x3e1937ce	0.14962694
159	0x3c8584d0	0.016298681
160	0x3e359c49	0.177354
161	0x3da809a9	0.082049675
162	0xbd8b3a62	-0.06798245
163	0x3d92a46e	0.07160269
164	0x3e5c4f90	0.21514726
165	0xbd7a7b3d	-0.061152685
166	0x3dc672b7	0.09689849
167	0xbe342e22	-0.17595723
168	0xbdc4d6cd	-0.096112825
169	0x3dd1b4d7	0.102395706
170	0x3be8ceec	0.007104745
171	0xbc8aeb39	-0.016957866
172	0x3cc48bc8	0.023992434
173	0x3d77f30f	0.060534533
174	0xbd891f61	-0.06695438
175	0x3e1e0cab	0.1543452
176	0xbe773844	-0.24142557
177	0x3e439dfb	0.19103234
178	0x3e0b7f7a	0.13622847
179	0xbe5e7eca	-0.21728054
180	0x3e05caa8	0.13065588
181	0xbd3749ed	-0.044748235
182	0x3e84f670	0.25969267
183	0xbda41ab3	-0.08012905
184	0x3dbfc396	0.09363477
185	0x3e0b2bd4	0.13590938
186	0xbd37deb4	-0.04489012
187	0x3e98de2a	0.29856998
188	0x3df09598	0.11747283
189	0x3d2eead8	0.042704433
190	0xbe35f4db	-0.17769186
191	0x3cb773bd	0.022394056
192	0xbe9d8c65	-0.30771175
193	0xbdfb8101	-0.12280465
194	0x3d6d7b16	0.057978712
195	0xbe303149	-0.17206301
196	0xbd73bf7e	-0.059508793
197	0xbe1fdcb4	-0.15611535
198	0x3b596b1a	0.003317541
199	0xbe3054f8	-0.17219913
200	0xbd28ab10	-0.041178763
201	0xbe353b92	-0.17698506
202	0xbe872546	-0.26395625
203	0x3d30bd6b	0.043149393
204	0x3c2ede06	0.010673052
205	0xbd2dd25d	-0.042436946
206	0xbb3535e8	-0.0027650539
207	0x3c2f6a4c	0.0107064955
208	0xbcd5c9b1	-0.02609715
209	0x3d762eda	0.060103275
210	0xbccbad79	-0.024862992
211	0xbd6e468b	-0.058172744
212	0xbd9d9f89	-0.076964445
213	0x3c9c2ac2	0.019063357
214	0x3d26a33a	0.04068301
215	0xbb9a46c2	-0.004708142
216	0xbe18723a	-0.14887324
217	0xb804cae0	-3.1660195e-05
218	0xbd3c4fd1	-0.045974556
219	0x3d46866e	0.048468046
220	0xbd2943b4	-0.041324332
221	0xbb7bf73e	-0.0038446928
222	0xbe012205	-0.12610634
223	0xbd8e7021	-0.06954981
224	0xbcdfa09a	-0.02729826
225	0x3d29e243	0.041475546
226	0x3d935f1c	0.07195875
227	0x3d3ae3b9	0.04562733
228	0x3d0203e2	0.031741984
229	0xbc8c274b	-0.01710858
230	0xbd5c1688	-0.053732425
231	0x3e9ec450	0.3100915
232	0xbc7468d9	-0.014917576
233	0x3dfea427	0.12433653
234	0xbd9ebb08	-0.07750517
235	0x3dacb434	0.084328085
236	0xbe05be60	-0.13060904
237	0xbda0a449	-0.07843835
238	0xbd3b8f64	-0.045791045
239	0xbd0e6f47	-0.03477409
240	0x3c940ffa	0.018074024
241	0xbcd7f2ea	-0.026360948
242	0x3e03cc5e	0.12870929
243	0xbd93c2c5	-0.07214884
244	0xbd79a32a	-0.06094662
245	0x3cb17840	0.021663785
246	0xbba39a96	-0.0049927933
247	0x3df3fbab	0.11913236
248	0x3db4479f	0.08802723
249	0xbdac4e25	-0.084133424
250	0xbe1ba7ff	-0.15200804
251	0xbd53523b	-0.051592093
252	0xbba1bd6c	-0.004935911
253	0x3cb411d0	0.02198115
254	0x3d54c70c	0.05194764
255	0xbbdd78f2	-0.0067588026

g.2.bias f4 [100]
0	0xbe08efdb	-0.13372748
1	0x3e91c497	0.284703
2	0x3e2b619c	0.16736454
3	0xbb97ace7	-0.004628766
4	0xbe07b85c	-0.13253921
5	0xbe84c296	-0.25929707
6	0x3d23c0a5	0.039978642
7	0x3e6b5059	0.22979869
8	0xbec2bb1b	-0.38033375
9	0x3db4c56c	0.08826718
10	0xbde1476f	-0.10999953
11	0x3da8be00	0.082393646
12	0xbd5519d4	-0.052026585
13	0x3e2d0cd2	0.16899422
14	0xbe8439f6	-0.2582547
15	0x3e14bf7c	0.1452617
16	0xbe7f7dc7	-0.24950324
17	0x3e3ec51c	0.18629879
18	0x3da540a4	0.0806897
19	0xbe5f17f5	-0.21786483
20	0xbe8180d0	-0.2529359
21	0xbe9f1a28	-0.31074643
22	0xbda593af	-0.08084809
23	0x3e435173	0.19074039
24	0xbb1cd909	-0.0023933074
25	0xbce7f3a5	-0.028314421
26	0xbe3f9f07	-0.18713008
27	0x3db901b5	0.09033529
28	0xbe492ede	-0.19646785
29	0x3dcc13f4	0.09964743
30	0x3dfde65b	0.123974524
31	0x3e08fe2e	0.13378212
32	0x3e4a75f0	0.19771552
33	0xbdf63fbd	-0.12023876
34	0x3dba9296	0.0910999
35	0x3db9768d	0.09055815
36	0x3d93baa6	0.07213335
37	0x3dff9f5d	0.12481568
38	0xbd008be6	-0.031383418
39	0xbde3ca84	-0.11122611
40	0x3e1c7d05	0.15282066
41	0x3e9441ea	0.28956538
42	0x3d19db02	0.037562378
43	0xbd7c6c02	-0.06162644
44	0x3ce3436c	0.02774211
45	0xbe1e5c57	-0.15464912
46	0x3dc70c50	0.09719145
47	0xbdec7273	-0.11545267
48	0xbdad808c	-0.08471784
49	0x3c1ca69f	0.00956121
50	0xbdc4a731	-0.09602202
51	0xbcadabad	-0.021200025
52	0xbe168d96	-0.14702448
53	0xbe44d7c1	-0.19222929
54	0x3d84b7d1	0.06480373
55	0x3d86099f	0.06544804
56	0xbe3a0003	-0.18164067
57	0xbf00afa3	-0.50268
58	0x3e156ab4	0.14591485
59	0xbe9f5272	-0.31117588
60	0x3d8a388c	0.06749067
61	0xbe337143	-0.17523675
62	0x3e8396f7	0.25701115
63	0x3d95d56a	0.07316096
64	0x3e001d05	0.1251107
65	0xbd8e1486	-0.06937508
66	0x3e58c4f9	0.21168889
67	0x3e6b47fc	0.22976679
68	0x3e891887	0.26776525
69	0xbda6d408	-0.081459105
70	0x3d319063	0.04335059
71	0xbe837a16	-0.25679082
72	0xbdd1542e	-0.10221134
73	0xbdc58b56	-0.09645717
74	0xbe739763	-0.23788218
75	0x3e598c1b	0.21244852
76	0xbd1b10b4	-0.037857726
77	0x3e41413d	0.18872543
78	0xbe3505d7	-0.17678009
79	0xbd81c415	-0.06336228
80	0x3d5c81fa	0.053834893
81	0x3d854048	0.06506401
82	0xbe285c3d	-0.16441436
83	0x3debcd3a	0.11513753
84	0xbdd4d208	-0.10391623
85	0x3ddda7b7	0.10823005
86	0x3d81ea39	0.063435026
87	0xbdb749ee	-0.08949648
88	0xbe23692f	-0.15958093
89	0xbe8b303b	-0.27185234
90	0xbbdcdd41	-0.0067402427
91	0xbe91aef4	-0.2845379
92	0xbd49f583	-0.049306404
93	0xbe82cde0	-0.25547695
94	0xbe186bc1	-0.14884855
95	0x3e00af56	0.12566885
96	0x3e1a67fa	0.15078726
97	0x3d72dfba	0.059295394
98	0x3da34f51	0.07974113
99	0xbe91263e	-0.2834949

g.4.weight f4 [1, 100]
0	0xbbe420d3	-0.0069619208
1	0x3e20c1ad	0.15698881
2	0x3c48bb25	0.01225165
3	0xbca604d4	-0.020265974
4	0xbce4eb9a	-0.027944375
5	0x3e441a4c	0.19150656
6	0x3c3d078e	0.011537446
7	0x3d84880c	0.064712614
8	0xbe6bc6fa	-0.23025122
9	0x3c7f4e0d	0.015582574
10	0xbda86f36	-0.08224337
11	0x3df1086b	0.11769184
12	0x3d51bb63	0.051204097
13	0xbe70b7ec	-0.2350766
14	0xbe3da202	-0.18518832
15	0x3dc6e597	0.097117595
16	0xbe250153	-0.16113786
17	0x3c54bd05	0.012984519
18	0xbe695a32	-0.22788313
19	0xbde205c2	-0.110362545
20	0x3f0975fe	0.53695667
21	0xbe857c0a	-0.26071197
22	0xbcb3a5de	-0.021929678
23	0x3ccff43f	0.02538502
24	0xba7fb9cf	-0.00097551657
25	0xbd2caabd	-0.042155016
26	0x3e35ef3f	0.17767046
27	0x3df09ec8	0.11749035
28	0x3e184d21	0.14873172
29	0xbe522ec7	-0.20525657
30	0x3c8c64fa	0.017137993
31	0xbe703f37	-0.23461615
32	0x3e0d95fe	0.13826749
33	0xbe07c708	-0.13259518
34	0xbe497f5e	-0.19677493
35	0x3cb327b8	0.021869525
36	0xbdfb25e1	-0.12263084
37	0x3e4b0c49	0.19828905
38	0x3dc18593	0.094493054
39	0xbdfe13b3	-0.12406101
40	0x3c9ceb2e	0.019155111
41	0x3de1bb55	0.11022059
42	0x3bc0ff08	0.005889777
43	0xbc8778e2	-0.016537134
44	0xbdbe4a41	-0.092915066
45	0xbdb7de08	-0.08977896
46	0x3b4dbd76	0.0031393445
47	0xbc5e866f	-0.013581856
48	0x3e28d809	0.16488661
49	0x3ba534e8	0.0050417073
50	0xbbc87ad4	-0.006118158
51	0xbde9175b	-0.11381408
52	0xbdeb99b0	-0.11503923
53	0xbe08b245	-0.13349254
54	0xbe3c1cb5	-0.18370326
55	0x3dd49c66	0.10381393
56	0xbdb26b87	-0.087119155
57	0xbe87afb5	-0.2650124
58	0x3d16640e	0.036716513
59	0x3eba1fcb	0.3635238
60	0xbe539bf8	-0.20664966
61	0xbda58302	-0.080816284
62	0x3d9614e1	0.07328201
63	0x3dfc86ad	0.12330375
64	0x3c03fef0	0.008056387
65	0x3e12047b	0.14259522
66	0x3dddde5e	0.10833429
67	0xbe92a197	-0.28638908
68	0x3dd9f37a	0.106421426
69	0xbd367dfa	-0.044553734
70	0x3aa819b4	0.0012825043
71	0xbe57989d	-0.21054311
72	0xbe1b4dfb	-0.15166466
73	0xbdba93a5	-0.09110192
74	0x3ea1a952	0.31574494
75	0x3de379e9	0.11107237
76	0xbe223e0b	-0.1584398
77	0x3e1b10de	0.15143153
78	0xbd15c245	-0.036562223
79	0xbb25ef0e	-0.002531949
80	0xb919b900	-0.00014660135
81	0x3cb351b3	0.021889543
82	0xbdc42900	-0.09578133
83	0xbdcc624d	-0.09979687
84	0xbdc931ce	-0.098239526
85	0x3dbeebd9	0.09322328
86	0x3e0a104d	0.13482781
87	0xbbfd8568	-0.0077368505
88	0xbdc3f957	-0.09569042
89	0x3eb96aba	0.36214238
90	0x3a68189e	0.0008853766
91	0xbe8dad4c	-0.27671278
92	0x3b337488	0.002738269
93	0xbe4df86d	-0.20114298
94	0x3dd6d73c	0.104902714
95	0x3d9caf64	0.076506406
96	0xbdbe8bd3	-0.09304013
97	0xbdc47623	-0.09592845
98	0x3afd9bce	0.0019348802
99	0xbde7991e	-0.11308502
